models/NER/weights/model.pt (torch, 955695 bytes, 8 tensors)

0.0.weight f4 [256, 768]
0	0x3bf5d04e	0.0075016385
1	0x3d34a328	0.04410091
2	0xbcd68ac6	-0.02618922
3	0x3c0fe6b4	0.008783031
4	0x3d1f2cee	0.038861208
5	0x3ba4dcea	0.005031218
6	0x3c153bde	0.009108512
7	0xbcade203	-0.021225935
8	0xbbc2a45c	-0.0059400033
9	0xbca6afd5	-0.020347515
10	0x3ba74ec8	0.005105827
11	0xbcda7232	-0.02666578
12	0x3d457fdd	0.048217643
13	0xbbf1168c	-0.007357424
14	0x3d0ee99d	0.03489076
15	0xb95ba166	-0.00020945593
16	0x3d05aa3b	0.032633048
17	0xbd3ce868	-0.046120077
18	0x3c210300	0.009827375
19	0x3d2113fa	0.03932569
20	0xbd6ff9de	-0.0585879
21	0x3c5eea3b	0.01360565
22	0xbd9e8641	-0.07740451
23	0xbccb97e2	-0.024852697
24	0xbc35f907	-0.011106736
25	0x3c3267b4	0.010888983
26	0xbc9f18fd	-0.019421095
27	0x3d86c49e	0.065804705
28	0xbb48c967	-0.0030637623
29	0x3c0586c3	0.0081498055
30	0xbde515d1	-0.11185802
31	0xbcb2a90b	-0.021809122
32	0xbb6866aa	-0.0035461583
33	0xbd249c35	-0.040188033
34	0x3c3b4930	0.0114310235
35	0x3d1c85d0	0.03821355
36	0xbd08c7e5	-0.03339376
37	0x3d2345c9	0.039861474
38	0x3c4dfc63	0.012572381
39	0x3d4a95b6	0.04945918
40	0x3d86f377	0.06589406
41	0x3d614316	0.05499562
42	0xbc956220	-0.018235266
43	0x3cafa50d	0.021441007
44	0xbd7da17d	-0.061921585
45	0x3ca76b0b	0.020436784
46	0xbdee7759	-0.116438575
47	0xbd1519be	-0.036401503
48	0x3d0c16b7	0.03420135
49	0x3d0d5d93	0.034513067
50	0xbc118030	-0.00888066
51	0xbb267d86	-0.0025404408
52	0xbd555e5c	-0.05209194
53	0xbd373bde	-0.04473483
54	0xbdab9367	-0.08377724
55	0x3ab340c4	0.0013675918
56	0x3d367847	0.0445483
57	0x3d952f49	0.072844096
58	0xbcb2d4a6	-0.021829914
59	0x3c23de51	0.010001735
60	0x3cbfe8d0	0.023426443
61	0xbd2539bc	-0.040338263
62	0xbcb57024	-0.0221482
63	0xbcc8b0bd	-0.024498338
64	0xbcb5ddb1	-0.022200437
65	0xbc8abae8	-0.016934827
66	0xbce38ee3	-0.027778095
67	0xbbd170ff	-0.006391644
68	0xbdef55af	-0.11686265
69	0xbd98bb71	-0.074576266
70	0x3a560386	0.0008163977
71	0x3d9cb2a5	0.07651261
72	0x3c81bbfd	0.01583671
73	0x3c2b649a	0.010460997
74	0xbc560701	-0.013063193
75	0x3a6fde5a	0.00091502594
76	0xbc67df21	-0.014152319
77	0x3b5d4ce8	0.0033767764
78	0x3c9335ef	0.017970053
79	0xbb8ab6f6	-0.0042332364
80	0x3cc8d334	0.024514772
81	0xbab9666b	-0.0014144903
82	0xbd23009f	-0.039795514
83	0xbcd93346	-0.026513707
84	0x3ae2616e	0.0017271468
85	0xbd65e95a	-0.056130745
86	0xbd604ee3	-0.054762732
87	0x3c8c8f99	0.017158316
88	0xbddd2a66	-0.107991025
89	0x3c087dec	0.008330803
90	0x3d2e8984	0.042611614
91	0xbc2a0e1c	-0.0103793405
92	0xbd05d721	-0.032675866
93	0xbae80866	-0.0017702698
94	0xbbf2c58a	-0.0074088024
95	0x3bd373c4	0.0064530093
96	0xbccfcf3a	-0.025367368
97	0x3d561948	0.052270204
98	0xbd07bc76	-0.033138715
99	0x3d23c9e5	0.039987464
100	0x3cc5371d	0.024074132
101	0xbb3b05c2	-0.0028537367
102	0xbbec79ce	-0.0072166687
103	0x3c303b06	0.01075626
104	0xbd0a7255	-0.03380044
105	0x3d72d272	0.059282728
106	0xbc47f19b	-0.012203599
107	0x3d28b6e1	0.041190032
108	0x3cd21f13	0.025649583
109	0xbca7f961	-0.020504655
110	0x3ccfd00e	0.025367763
111	0x3cc26587	0.023730053
112	0xbc17f5b5	-0.00927489
113	0x3ce7903d	0.02826702
114	0x3c274fe0	0.010211915
115	0x3db54f00	0.08852959
116	0x3d3e57b7	0.04647037
117	0x3c85e9a6	0.016346764
118	0x3bd76762	0.0065736035
119	0x3cb21640	0.021739125
120	0x3cfe8706	0.031070244
121	0x3dc55799	0.096358486
122	0x3b60b15e	0.0034285407
123	0xbbf477a3	-0.007460551
124	0xbba36e0a	-0.004987483
125	0x3c8afd5e	0.016966518
126	0xbcba9242	-0.02277482
127	0xbb16d44a	-0.0023014718
128	0xbba1f571	-0.004942589
129	0x3c901929	0.017590122
130	0x3b7a9c20	0.003824003
131	0xbd12ca62	-0.03583754
132	0xbaff6b8a	-0.0019487005
133	0xbb864fe2	-0.0040988782
134	0xbb050036	-0.0020294315
135	0x3d2c5a76	0.042078458
136	0x3cba69f8	0.022755608
137	0xbd5f7fa7	-0.054565098
138	0x3d4ff8fb	0.050774556
139	0x3d90d08a	0.07071026
140	0x3d400c54	0.046886757
141	0xbcba6ce3	-0.022757
142	0x3da37fd2	0.07983364
143	0x3c093903	0.008375409
144	0x3c6596f4	0.014013041
145	0x3c046495	0.008080621
146	0x3d045516	0.032307707
147	0xbc873883	-0.01650644
148	0xbd46a237	-0.048494544
149	0xbcfae126	-0.030624937
150	0xbd83e5c7	-0.06440311
151	0x3d2a5057	0.041580524
152	0x3c87389f	0.016506491
153	0xbd99cfe9	-0.07510359
154	0x3dad19f6	0.08452217
155	0xbbb5d834	-0.005549455
156	0xbd0adda2	-0.03390277
157	0x3cead980	0.028668165
158	0xbc02ca58	-0.007982813
159	0xbc42b0aa	-0.01188294
160	0x3d696e23	0.0569898
161	0x3d161c25	0.036647934
162	0x3d26ee6d	0.040754724
163	0xbca636e6	-0.02028985
164	0xbc0714e9	-0.008244731
165	0xbc39e558	-0.011346184
166	0x3c5830b1	0.013195203
167	0x3b6ead51	0.0036419223
168	0xbcba0839	-0.022708999
169	0x3d1ad506	0.03780081
170	0xbd829826	-0.06376676
171	0xbe2ecdb9	-0.17070664
172	0xbc920c1c	-0.01782804
173	0xbc6c28fd	-0.014414069
174	0x3c2e2c7b	0.010630722
175	0xbd8959ea	-0.06706603
176	0x3b0dcb50	0.0021636076
177	0xbd0700f5	-0.032959897
178	0xbc93212f	-0.01796016
179	0x3b48d39c	0.0030643707
180	0x3c96d85d	0.018413717
181	0x3ab31a66	0.0013664484
182	0xbc8d0c37	-0.017217739
183	0x3cb77fbd	0.022399778
184	0xbd994d51	-0.0748545
185	0x3d3138fd	0.04326724
186	0xbd9eb416	-0.077491924
187	0x3d1c04db	0.038090568
188	0xbc85a0df	-0.01631206
189	0xbc9bd6f8	-0.019023404
190	0x3c817974	0.015804984
191	0x3d55716c	0.05211012
192	0x3da17acd	0.078847505
193	0xbc4d2879	-0.012521856
194	0xbd3f13eb	-0.046649855
195	0x3c4b4d5a	0.012408579
196	0xbd146a36	-0.036234103
197	0x3ca77796	0.020442765
198	0xbc98b4e5	-0.018640945
199	0x3c7d4766	0.015458917
200	0xbaaa7396	-0.0013004418
201	0x3cb69a4c	0.022290371
202	0xbd491e1c	-0.04910098
203	0xbc40d3c0	-0.011769235
204	0x3d95426c	0.072880596
205	0x3ca3cc77	0.019994957
206	0x3c55ee51	0.013057307
207	0xbd5edca7	-0.05440965
208	0xbd28d738	-0.041220874
209	0xbb6138e6	-0.003436619
210	0x3cd312fb	0.025765887
211	0xbc8b3095	-0.01699094
212	0x3cc5345b	0.024072817
213	0x3d8046bf	0.06263494
214	0xbd6c0c70	-0.05762905
215	0x3d7456c3	0.059653055
216	0x3c87da34	0.01658354
217	0xbc022c3b	-0.007945116
218	0xbd1c4fb7	-0.03816196
219	0x3c6dfe0e	0.014525903
220	0x3c7132d7	0.014721594
221	0x3d2db895	0.04241236
222	0x3d725594	0.059163645
223	0xbcbd0748	-0.023074761
224	0xbc578abb	-0.0131556345
225	0xbceb67a4	-0.028735943
226	0x3d917eec	0.071042866
227	0x3be7b405	0.0070710205
228	0xbd85054b	-0.0649515
229	0x3cc524a7	0.024065329
230	0xbd781d75	-0.060574967
231	0x3d5af7ca	0.053458966
232	0xbd05b35f	-0.032641765
233	0xbcde92c9	-0.027169602
234	0xbde3194a	-0.11088808
235	0xbc76126c	-0.015019041
236	0xbd9b3505	-0.07578472
237	0x3d3416f4	0.043967202
238	0x3d0a3053	0.03373749
239	0xbd34820a	-0.044069327
240	0xbbdb2509	-0.0066877645
241	0xbd3e18fa	-0.04641054
242	0xbd02503d	-0.031814802
243	0x3b978d8c	0.004625028
244	0x3c3da775	0.011575569
245	0xbd012b6c	-0.03153555
246	0x3d7d123d	0.06178497
247	0x3c3e0bc0	0.011599481
248	0xbc923ec6	-0.017852198
249	0x3ca2a877	0.01985572
250	0x3cbcfd34	0.023069955
251	0xbd44cd5f	-0.04804742
252	0xbd2de738	-0.042456836
253	0xbcdfa849	-0.027301924
254	0xbcfd8dd1	-0.030951412
255	0x3d2a289b	0.04154263

0.0.bias f4 [256]
0	0xbd3996bd	-0.04530977
1	0xbc5716b6	-0.013127973
2	0xbcee1814	-0.029064216
3	0xbd0de8ef	-0.03464597
4	0x3cca8b4e	0.024724629
5	0x3c8c66ac	0.017138802
6	0xbd03e87c	-0.032204136
7	0xbd15b683	-0.03655101
8	0x3cac153c	0.02100622
9	0xbce564e8	-0.028002217
10	0xbc0a2f04	-0.008434061
11	0x3b40078c	0.0029301373
12	0xbd3d5bd2	-0.046230145
13	0xbcd4fd43	-0.02599967
14	0xbbd2c3eb	-0.0064320466
15	0xbb9b8751	-0.0047463556
16	0xbcd150c5	-0.02555121
17	0xbc0056c6	-0.007833188
18	0x3cbdfcfc	0.023191921
19	0xbc96abd1	-0.018392475
20	0xbd378d78	-0.04481265
21	0xbc642a12	-0.013926046
22	0xbd2a80d2	-0.04162676
23	0xbd4f21ed	-0.050569464
24	0x3c65afda	0.014018977
25	0xbc95b3ed	-0.018274272
26	0xbd34534c	-0.04402475
27	0xbcb9d567	-0.022684766
28	0xbba9cecf	-0.005182124
29	0xbbc6566c	-0.0060527828
30	0x3c13634f	0.008995845
31	0x3ceb0a4a	0.02869143
32	0x3ccaab5c	0.024739914
33	0xbd012cef	-0.031536993
34	0x3c912173	0.017716145
35	0xbd1b00d5	-0.03784259
36	0xbc415c8d	-0.011801851
37	0xbd36ecf1	-0.04465956
38	0xbc93aae4	-0.018025823
39	0x3c1c4c03	0.009539607
40	0x3c954edc	0.01822608
41	0x3c9e367a	0.019313086
42	0x3c895774	0.016765334
43	0x3bb85e71	0.0056264927
44	0x3c15b023	0.009136233
45	0xbb19412c	-0.0023384793
46	0xbccccfcf	-0.025001435
47	0xbc6bb2d1	-0.014385895
48	0x3b2af2ee	0.0026084739
49	0x3cf1d185	0.029518852
50	0xbd234636	-0.03986188
51	0xbcc2cf44	-0.023780473
52	0x3a18e4a9	0.0005832413
53	0xbd8cee91	-0.068814404
54	0x3d03e0dd	0.03219687
55	0xbcc49ddc	-0.024001054
56	0xbd1fab52	-0.038981743
57	0xbd02a562	-0.031896003
58	0x3ccec099	0.025238322
59	0xb9d64b2f	-0.00040873277
60	0x3d1f87a1	0.038947705
61	0x3ca0b74f	0.019618658
62	0x3c7e4987	0.01552046
63	0x3a842303	0.0010081235
64	0xbd8fb7b3	-0.0701746
65	0xbba0c4da	-0.004906279
66	0xbced9028	-0.028999403
67	0xbb9d2898	-0.004796099
68	0xbd9aeaaf	-0.075642936
69	0xbc63f784	-0.013913993
70	0x3c64bfe6	0.013961768
71	0xbcd3d5a9	-0.025858717
72	0xbd2bf6b3	-0.041983318
73	0x3c06ecee	0.008235199
74	0xbd8420b9	-0.06451554
75	0x3c9c6d8a	0.019095201
76	0xbd14a199	-0.036286924
77	0x3cd4bfd1	0.025970371
78	0x3d0e3ca5	0.034725804
79	0xbc909f3e	-0.017654058
80	0xbd58caef	-0.052927908
81	0xbd173f1a	-0.036925413
82	0xbc94b971	-0.018154832
83	0xbcad4ea6	-0.021155667
84	0xbad41f93	-0.0016183726
85	0xbc24b253	-0.010052281
86	0x3c0acd65	0.008471821
87	0xbccdbddf	-0.025114952
88	0x3a80dda9	0.0009831685
89	0x3c3497d7	0.01102253
90	0xbcd2e45c	-0.025743656
91	0xbd41aa74	-0.047281697
92	0xbc4f1438	-0.012639098
93	0x3cc2c797	0.023776812
94	0x3d0fcd6c	0.035108015
95	0xbb8cd966	-0.004298377
96	0xbd2b7e53	-0.04186852
97	0xbb5d0942	-0.0033727442
98	0xbdbe8d3b	-0.09304281
99	0xbca1d61f	-0.019755421
100	0xbbccd309	-0.0062507433
101	0xbd119a01	-0.03554726
102	0x3c884370	0.01663372
103	0x38a3f8ff	7.818825e-05
104	0xbc1c4bd9	-0.009539568
105	0x3c926921	0.017872395
106	0x3c3f2ff8	0.0116691515
107	0xbce313bd	-0.027719373
108	0xbd7c9496	-0.06166514
109	0x3cc2d1ed	0.023781741
110	0x3c95ac6c	0.018270694
111	0xbce0d16b	-0.027443608
112	0x3c906d2f	0.017630188
113	0xbd36767a	-0.04454658
114	0xbd8f0914	-0.069841534
115	0xbb857237	-0.0040724534
116	0x3bf87e13	0.0075833886
117	0xbd318ed1	-0.04334909
118	0xbd45fcdc	-0.04833685
119	0xbd2252d9	-0.03962979
120	0xbd8759a2	-0.06608893
121	0xbcb21106	-0.021736633
122	0xbc70facb	-0.014708231
123	0x35aab200	1.2717792e-06
124	0xb96fc13c	-0.00022864802
125	0xbda99f91	-0.08282388
126	0xbc9b5803	-0.018962866
127	0xbd0db991	-0.034600798
128	0xbcf9495c	-0.030430488
129	0xbc9ac05b	-0.01889055
130	0x3c474199	0.012161636
131	0x3b133a7e	0.0022465284
132	0x3cc14d56	0.023596447
133	0x3bacd1dd	0.005274041
134	0x3cf430c6	0.029808413
135	0xbd2d4670	-0.042303503
136	0xbcf97181	-0.03044963
137	0xbd242b86	-0.04008057
138	0xbd2915a1	-0.041280393
139	0x3b2b5106	0.0026140823
140	0x3cb76dee	0.022391286
141	0xbcbae1bc	-0.022812717
142	0x3b931f75	0.004489834
143	0x3be53b16	0.006995569
144	0x3ce10f60	0.027473152
145	0x397cf239	0.00024122828
146	0x3bc8cb0a	0.00612772
147	0xbc1d2a35	-0.0095925825
148	0x3cb70177	0.022339566
149	0xbcda4569	-0.026644425
150	0x3c119dad	0.0088876905
151	0xbd942edc	-0.072355
152	0xbc20462e	-0.009782357
153	0x3bc1a673	0.005909735
154	0xbb58a648	-0.0033058096
155	0xbd01c6dd	-0.03168379
156	0x3c1734aa	0.009228865
157	0xba259a74	-0.0006317266
158	0x39e029ac	0.00042755657
159	0xbd1e2c5e	-0.03861653
160	0x3d14b2db	0.036303382
161	0xbad4c47d	-0.0016232874
162	0xbc615378	-0.013752811
163	0x3bc28396	0.0059360964
164	0xbd09783a	-0.033561923
165	0x3b7b929d	0.003838695
166	0xbd121e6b	-0.03567354
167	0xbc2646c0	-0.010148704
168	0x3bdaee4f	0.0066812406
169	0xbca0a4fe	-0.019609924
170	0xbd14debd	-0.036345232
171	0x3caa0588	0.02075459
172	0xbca8baa8	-0.020596817
173	0xbca0666e	-0.019580092
174	0x3c2301f9	0.009949201
175	0xbd042359	-0.032260273
176	0xbd537aea	-0.05163089
177	0x3c481a12	0.012213247
178	0xbd552b52	-0.052043267
179	0xbb18316c	-0.0023222817
180	0xbc6b0bc6	-0.014346069
181	0xbc4c61b8	-0.01247447
182	0x3c82dc2d	0.015974129
183	0xbc0a60c2	-0.00844592
184	0x3c008dfe	0.007846354
185	0x3bad1496	0.005281995
186	0xbca2e37d	-0.019883865
187	0xbcfa0e31	-0.030524345
188	0xbc17db43	-0.009268585
189	0xbd0c98f7	-0.034325566
190	0xbd198d7f	-0.037488457
191	0x3ce23c53	0.027616655
192	0xbcdc7e0f	-0.026915578
193	0xbd14385f	-0.036186572
194	0xbcf50fb7	-0.02991472
195	0xbd9a0725	-0.07520894
196	0xbb6bd6e7	-0.0035986246
197	0xbd306449	-0.04306439
198	0xbd4382a7	-0.04773202
199	0xbd31a0c6	-0.043366216
200	0x3c42e42b	0.01189522
201	0xbc50f5dc	-0.01275393
202	0xbcf950a7	-0.030433966
203	0x3ab995bc	0.0014159004
204	0xbc8eb7be	-0.0174216
205	0xbd6beeed	-0.057600904
206	0xbd9ba1ed	-0.07599244
207	0xbc33c052	-0.010971146
208	0x3bdbf8ab	0.006712993
209	0xbb2b794a	-0.0026164823
210	0x3bbac0e4	0.005699264
211	0xbabc60f2	-0.0014372154
212	0x3c5a3dd1	0.013320402
213	0xbd88da25	-0.06682233
214	0xbd3a0fa9	-0.04542509
215	0xbbc32aaf	-0.005956016
216	0xbc9c82fd	-0.019105429
217	0x3cdd8b26	0.02704389
218	0x3d024f9c	0.031814203
219	0xbcf303ca	-0.029664893
220	0x3b456340	0.0030118972
221	0xbc9d408d	-0.01919582
222	0x3c3a00c2	0.01135272
223	0xbcb5264d	-0.02211299
224	0xbc7acada	-0.015307153
225	0xbcfb9031	-0.030708404
226	0xb9e29ed8	-0.00043224427
227	0x3c0da33b	0.008644874
228	0x3cc1ceb9	0.023658143
229	0xbc58f91b	-0.013242985
230	0xbb906f69	-0.0044078124
231	0xbd322bfb	-0.043498974
232	0x3d1b4f1d	0.037917245
233	0xbd06ebde	-0.032939784
234	0x3c12f539	0.008969598
235	0x3c8faedd	0.017539436
236	0x3cc29091	0.023750575
237	0x3c3f02ee	0.011658413
238	0x3d010b79	0.03150508
239	0xbce086fc	-0.027408116
240	0x3b54b8c7	0.0032458769
241	0x3c38e811	0.011285798
242	0xbd415586	-0.047200702
243	0xbd0d1674	-0.03444524
244	0xbcc4c3c5	-0.024019131
245	0xbd2307f6	-0.039802514
246	0x3c587c33	0.013213205
247	0x3c95f632	0.018305872
248	0xbd18b017	-0.037277307
249	0xbd5e5313	-0.054278444
250	0x3b71a77e	0.0036873515
251	0x3b6fe432	0.003660452
252	0xbc6da57b	-0.014504786
253	0x3cbfd91c	0.023418956
254	0x3a83fb17	0.0010069337
255	0xbd3f5f9c	-0.04672204

1.0.weight f4 [128, 256]
0	0x3c271617	0.010198138
1	0x3d97df84	0.07415679
2	0x3dce75fb	0.10081097
3	0x3d78c4e9	0.060734663
4	0x3cf0194c	0.029308937
5	0x3dc10262	0.094242826
6	0x3de864c5	0.11347345
7	0x3e425827	0.1897894
8	0x3de07cab	0.109612785
9	0x3d0211f6	0.03175541
10	0x3c47a83a	0.012186104
11	0xbc43a32c	-0.011940759
12	0x3d380e9d	0.04493581
13	0x3e105ae1	0.14097168
14	0x3c864c01	0.016393663
15	0x3d5348f9	0.051583264
16	0xbc8d6f9d	-0.017265135
17	0x3e116615	0.14199097
18	0x3d1adc33	0.037807655
19	0xbcaf861a	-0.02142625
20	0x3ccbe366	0.024888705
21	0x3d596aa1	0.053080205
22	0x3da3adce	0.07992135
23	0xbb120058	-0.0022278037
24	0x3d618c6e	0.055065565
25	0xbc1f9c12	-0.0097418
26	0x3d7815de	0.06056773
27	0xbc1b1182	-0.009464623
28	0x3ca1ccc4	0.01975096
29	0x3d356a20	0.04429066
30	0x3e1f7bee	0.15574619
31	0x3d7f84f0	0.06238264
32	0x3d921eb3	0.07134762
33	0x3d0672a2	0.032824166
34	0x3e05e3a5	0.13075121
35	0x3d89c90c	0.067278
36	0x3da51454	0.08060518
37	0x3d286517	0.04111203
38	0x35ff9640	1.9042709e-06
39	0x3d9f5fb5	0.077819265
40	0x3cc39e23	0.023879116
41	0x3d553fa0	0.05206263
42	0x3d19f371	0.03758568
43	0x3d4b3a49	0.049616132
44	0x3df02146	0.117250964
45	0x3dde8393	0.108649395
46	0x3c8de53c	0.017321222
47	0xbd7d64db	-0.06186376
48	0x3d96514a	0.073397234
49	0xbc8756f3	-0.016520953
50	0x3dca3957	0.09874218
51	0x3d92f2f7	0.07175248
52	0x3d4daf52	0.050216027
53	0x390fa594	0.00013699225
54	0x3e0b2eda	0.13592091
55	0x3ce6a7db	0.028156212
56	0xbccafb8a	-0.024778146
57	0x3c7a48b9	0.0152761275
58	0x3de84578	0.11341375
59	0x3dba24b6	0.09089033
60	0x3d92b4be	0.0716338
61	0x3dd801ab	0.10547193
62	0x3d50cd06	0.050976776
63	0x3e15f518	0.14644277
64	0x3d812e56	0.06307666
65	0x3d423875	0.047417123
66	0x3d1ea156	0.03872808
67	0x3e1236ae	0.14278671
68	0x3dafa3cb	0.08576163
69	0x3d350cde	0.044201724
70	0xbcec794d	-0.028866434
71	0x3dae0cd5	0.08498541
72	0x3d25a8f0	0.040444314
73	0x3d60eab7	0.05491134
74	0x3db02bfd	0.0860214
75	0x3e0544ca	0.13014522
76	0x3d1ec073	0.038757753
77	0x3d78b050	0.06071502
78	0xbd87147f	-0.06595706
79	0x3b3c357f	0.002871841
80	0x3d0306be	0.03198885
81	0xbc59e646	-0.01329953
82	0x3d2a66c3	0.041601907
83	0x3d5c8d45	0.053845663
84	0x3d832e5c	0.06405327
85	0x3d5363c2	0.05160881
86	0x3e0a93b0	0.13532901
87	0x3daab874	0.08335963
88	0x3db08948	0.08619934
89	0x3d922315	0.071355976
90	0x3d991e1d	0.07476447
91	0x3d9f9418	0.077919185
92	0x3c2ef044	0.010677401
93	0x3db49d61	0.0881908
94	0x3e164470	0.14674544
95	0x3d3b7730	0.045767963
96	0x3db1aa18	0.08675021
97	0x3e205d40	0.15660572
98	0x3d5813e2	0.052753337
99	0x3da186ce	0.0788704
100	0x3e038d86	0.12846956
101	0x3da11e0f	0.07867061
102	0x3dbeddb3	0.093196295
103	0x3c8cbe11	0.017180474
104	0xbd34e1e0	-0.044160724
105	0x3d53e44e	0.0517314
106	0xbb883255	-0.0041563907
107	0x3d3e9e6f	0.046537813
108	0xbbc820b0	-0.0061074123
109	0x3e021aa5	0.12705477
110	0x3e01d7e6	0.12680015
111	0x3dbabcfd	0.09118078
112	0x3d82378c	0.06358251
113	0x3def3743	0.11680462
114	0x3da2d8b1	0.07951487
115	0x3df6079a	0.12013169
116	0x3d8bed33	0.068323515
117	0x3dc926ca	0.098218516
118	0x3d99283c	0.07478377
119	0x3cb1eb91	0.021718772
120	0x3b1fe8e0	0.002440028
121	0xbcfb5c49	-0.030683653
122	0x3db0290c	0.08601579
123	0xbbbc3666	-0.0057437895
124	0x3db0a490	0.08625138
125	0xbba06d2e	-0.0048958277
126	0x3d55c857	0.052193012
127	0x3d2bac4d	0.041912366
128	0x3de6595e	0.11247514
129	0x3dd09df6	0.10186379
130	0x3d5b6223	0.053560387
131	0x3d5181cf	0.051149186
132	0x3dad86f6	0.084730074
133	0xbbf8fabe	-0.00759825
134	0x3d92bc06	0.07164769
135	0x3dd0eda9	0.1020158
136	0x3dc7bac6	0.09752421
137	0x3d97eabb	0.07417818
138	0x3d5d8ef3	0.054091405
139	0xbbd2463e	-0.006417065
140	0x3d61d666	0.055136107
141	0x3c8b3c27	0.016996456
142	0xbc876fdb	-0.016532829
143	0x3dbfc7d5	0.09364287
144	0x3e077c5e	0.13231036
145	0x3d536c86	0.051617168
146	0x3d86940d	0.06571207
147	0x3cdd8d70	0.027044982
148	0x3d888f01	0.06667901
149	0x3d8334f3	0.06406584
150	0x3c14ee64	0.00909004
151	0x3d554a28	0.052072674
152	0x3d1c09e5	0.038095374
153	0x3da88b20	0.08229661
154	0xbcb4787b	-0.022030106
155	0x3c854231	0.016266914
156	0x3b9bca8f	0.0047543715
157	0x3d5f76c8	0.054556638
158	0x3e40d84f	0.18832515
159	0xbc8c99db	-0.017163208
160	0x3cfc3a84	0.030789621
161	0x3c33c02f	0.010971113
162	0x3d8dfcef	0.06933009
163	0x3deb1289	0.11478145
164	0x3cc56cb3	0.024099683
165	0x3e29833b	0.16553967
166	0x3e014e65	0.12627561
167	0x3db30ba4	0.08742455
168	0x3e140307	0.1445428
169	0x3e476508	0.19472134
170	0x3e0d0634	0.13771898
171	0x3cfd3a43	0.03091157
172	0x3dcaa17b	0.09894081
173	0x3d02acce	0.03190308
174	0x3c44f8b9	0.012022191
175	0x3dd6ab4f	0.10481893
176	0x3b5696c0	0.0032743663
177	0x3e28b6fa	0.1647605
178	0x3c871d1f	0.016493378
179	0xbca0597a	-0.019573916
180	0xbc8c8b73	-0.017156338
181	0x3d9c9ab0	0.07646692
182	0x3d3d0f03	0.046156894
183	0x3e1c0ba8	0.15238822
184	0x3d45edf8	0.048322648
185	0x3c4d2dfc	0.012523171
186	0x3dc33bff	0.09532928
187	0x3d5f540a	0.054523505
188	0x3dd0a582	0.10187818
189	0x3dfba39d	0.12287066
190	0x3ca0cc26	0.019628596
191	0x3dd6c894	0.10487476
192	0x3dcc2cbb	0.09969469
193	0x3de2a512	0.11066641
194	0xbdafb48d	-0.08579359
195	0xbc79e5ab	-0.015252511
196	0x3dc1ea15	0.09468476
197	0x3cdc7150	0.0269095
198	0x39a4bd49	0.00031421546
199	0x3dd16334	0.102239996
200	0x3ba4228f	0.0050090025
201	0x3d6cb837	0.05779287
202	0x3d9cf842	0.07664539
203	0x3da6d1a4	0.081454545
204	0x3d111cc8	0.03542784
205	0x3d3c75c6	0.046010755
206	0x3dac77f0	0.08421314
207	0x3da98dd9	0.082790084
208	0xbceb713a	-0.028740514
209	0x3dc93ce0	0.09826064
210	0x3d62c44e	0.055362992
211	0x3dcb16d6	0.09916465
212	0x3e0daca7	0.13835393
213	0x3d4c8f31	0.049941245
214	0x3e2838df	0.16427945
215	0x3ddae3b1	0.1068796
216	0x3dca7022	0.09884669
217	0x3daf0272	0.08545388
218	0x3d7aac7d	0.061199654
219	0x3dde16fc	0.10844228
220	0x3d2af735	0.04173966
221	0x3d13bd5a	0.03606925
222	0x3cdcebdc	0.026967935
223	0x3cc817f5	0.024425486
224	0x3d473d89	0.04864267
225	0x3e41f70f	0.18941902
226	0x3da44cbb	0.08022448
227	0x3dc5493d	0.0963311
228	0x3e2532bf	0.1613264
229	0x3c0e0036	0.0086670425
230	0xbcdea9e5	-0.027180621
231	0x3ce9bef4	0.028533436
232	0x3cbf56c2	0.023356799
233	0x3dda5d62	0.106623426
234	0x3c01144a	0.007878372
235	0x3de79bf1	0.1130904
236	0x3e054497	0.13014446
237	0x3d1e3424	0.038623944
238	0xbcaae3d2	-0.020860586
239	0x3d925fc3	0.07147171
240	0xbb80869d	-0.003922297
241	0x3de405ad	0.11133895
242	0x3ba8203b	0.0051307953
243	0x3e08c616	0.13356814
244	0x3e155473	0.14582996
245	0xbc28dea3	-0.010306987
246	0x3da9bfc6	0.08288531
247	0x3c5f26d2	0.013620095
248	0x3de04e22	0.10952403
249	0x3cda6b79	0.026662575
250	0x3bcb7247	0.0062086913
251	0x3da4e235	0.08050958
252	0x3e11fa18	0.1425556
253	0x3c0ce0cc	0.008598518
254	0x3e0a8aac	0.13529462
255	0x3daa55f0	0.083171725

1.0.bias f4 [128]
0	0x3afdada4	0.0019354117
1	0x3dcfd0ee	0.10147272
2	0xbdde25a8	-0.10847026
3	0xbd4dc349	-0.050235067
4	0xbda8f530	-0.08249891
5	0x3d62c04e	0.055359177
6	0x3c4c37aa	0.012464443
7	0xbcebaedf	-0.028769908
8	0xbdbc24b9	-0.09186692
9	0xbc72855b	-0.014802302
10	0x3d3ae55b	0.045628887
11	0x3dff50d4	0.124665886
12	0x3d364e09	0.044508014
13	0xbd4154d8	-0.047200054
14	0x3c3c6f96	0.011501214
15	0x3d91a108	0.071107924
16	0x3dd92808	0.106033385
17	0xbc827eb4	-0.015929557
18	0xbd15d172	-0.036576696
19	0x3dfb15f1	0.12260044
20	0x3bb0d7dc	0.005396826
21	0x3c74024e	0.014893128
22	0xbdb324c2	-0.08747245
23	0xbca21a02	-0.019787792
24	0xbb87804e	-0.004135168
25	0xb981e00f	-0.00024771734
26	0xbd88786b	-0.06663593
27	0xbc94de44	-0.01817239
28	0xbd2179ba	-0.039422728
29	0x3ce62efc	0.028098576
30	0xbd8c7c98	-0.06859702
31	0x3e1fe3b0	0.156142
32	0x3d137ed4	0.036009625
33	0x3e057ee0	0.1303668
34	0x3cba226a	0.022721488
35	0xbdaafad6	-0.083486244
36	0xbda4c963	-0.08046224
37	0x3b343faf	0.0027503779
38	0xbd830324	-0.063970834
39	0xbd20c575	-0.03925081
40	0x3e04681b	0.12930338
41	0xbccf14ac	-0.025278412
42	0xbda41eae	-0.08013664
43	0x3e0a67e8	0.135162
44	0x3e02490b	0.12723176
45	0x3b03fd81	0.0020140114
46	0x3d288a10	0.04114729
47	0xbdc8c8aa	-0.09803899
48	0xbd9b6321	-0.07587267
49	0x3df29b20	0.11845994
50	0xbb0ef38d	-0.0021812648
51	0xbca656f2	-0.02030513
52	0x3c8e11ed	0.017342532
53	0xbdc29ec9	-0.09502942
54	0xbd86770e	-0.06565677
55	0xbc547bd9	-0.012968981
56	0x37deb156	2.654704e-05
57	0xbd96649c	-0.073434085
58	0xbd83be2c	-0.06432757
59	0xbc6dfe49	-0.014525958
60	0xbccaef90	-0.024772435
61	0x3a406b90	0.0007340247
62	0x3e148fd5	0.14507993
63	0x3dc18365	0.0944889
64	0xbd86efc9	-0.06588704
65	0xbb9ba0b4	-0.004749382
66	0xbd9ec2ac	-0.077519745
67	0xbcbc5b46	-0.022992741
68	0xbc136f1d	-0.008998659
69	0x3cf4845e	0.029848274
70	0xbd60d811	-0.054893557
71	0x3d5ba6bb	0.053625803
72	0xbcfadb1d	-0.03062206
73	0xbc4f8dcb	-0.012668083
74	0xbca8da55	-0.020611921
75	0x3d9743d7	0.07385986
76	0xbdd835b6	-0.105571195
77	0x3d8c9918	0.06865138
78	0x3d49d518	0.049275488
79	0x3ca7fb94	0.020505704
80	0xbd858c39	-0.06520886
81	0x3d48c6d1	0.04901773
82	0x3dd28214	0.10278717
83	0xbd91e2e0	-0.07123351
84	0x3d2e1f65	0.04251041
85	0x3c6d346b	0.014477829
86	0x3dff71d7	0.12472885
87	0xbd6dd151	-0.058060948
88	0xbdc22b8d	-0.09480963
89	0xbdb2da94	-0.08733097
90	0x3c97a6c5	0.01851214
91	0xbdaeba88	-0.08531672
92	0x3d925274	0.07144633
93	0xbdb02d38	-0.08602375
94	0xbd92371f	-0.0713942
95	0x3dfd8143	0.1237817
96	0xbd36d9ca	-0.044641294
97	0x3c6c0a3e	0.014406739
98	0xbda74dda	-0.08169146
99	0x3aa8e22b	0.0012884786
100	0xbc6d4f26	-0.0144842025
101	0x3d790fe6	0.060806178
102	0x3d23cb9e	0.039989106
103	0xbd9e1ca6	-0.07720308
104	0xbc250ff5	-0.010074605
105	0xbd668b6b	-0.056285303
106	0x3dca4bf8	0.09877771
107	0xbcc03794	-0.023464002
108	0xbd7899f4	-0.060693696
109	0x3e0248f0	0.12723136
110	0xbd214490	-0.039372027
111	0xbd4a503a	-0.049392916
112	0x3dba3bf0	0.090934634
113	0xbd65ffd4	-0.05615218
114	0x3e0333b3	0.1281269
115	0x3d656cbb	0.056011897
116	0x3c9eccd3	0.019384777
117	0xbcd18f7a	-0.02558111
118	0xbe1eb5c1	-0.15499021
119	0xbdb982b4	-0.09058133
120	0x3dc0408a	0.0938731
121	0x3e128c16	0.14311251
122	0x3e172b94	0.14762717
123	0xbd6003ff	-0.05469131
124	0x3c0f44c9	0.008744427
125	0xbca68093	-0.02032498
126	0xbbf7bcee	-0.007560364
127	0xbdddc017	-0.10827654

2.0.weight f4 [64, 128]
0	0x3e04c8e0	0.12967253
1	0xbdb2a7f0	-0.08723438
2	0x3e0f9897	0.14023052
3	0x3e5a24af	0.21303056
4	0x3ef0de51	0.47044614
5	0xbe1da28f	-0.15394042
6	0x3eb8d35f	0.36098763
7	0xbd2ce146	-0.042207025
8	0x3e8def6d	0.2772173
9	0x3e6da663	0.23208003
10	0xbdf5a9cc	-0.11995277
11	0xbdf4ca11	-0.119526036
12	0xbd8d96f4	-0.06913558
13	0x3e8a31c7	0.26991102
14	0x3c52ffee	0.012878401
15	0xbe0844c8	-0.13307488
16	0xbda4c4f7	-0.080453806
17	0x3da73358	0.0816409
18	0x3eafb6b3	0.34319076
19	0xbe0a50b1	-0.13507344
20	0x3dce3493	0.100686215
21	0x3e3f7fdf	0.18701123
22	0xbd85cb31	-0.06532896
23	0x3eb517f3	0.35369834
24	0x3e944f7d	0.28966895
25	0xbd30b983	-0.043145668
26	0x3ea028d0	0.31281137
27	0x3da4fea7	0.080563836
28	0x3e89609c	0.2683152
29	0x3e873d2a	0.26413852
30	0x3e38577b	0.18002121
31	0xbe10529c	-0.14094013
32	0x3c89a99e	0.016804513
33	0xbd86d55e	-0.06583665
34	0xbd3a73bf	-0.04552054
35	0x3e843a9b	0.25825962
36	0x3e867d3f	0.2626743
37	0x3e9e20b2	0.3088432
38	0x3e988e92	0.29796273
39	0x3e5cbd08	0.21556485
40	0xbdf7a830	-0.12092626
41	0x3e2d5393	0.16926412
42	0x3e6439b8	0.22287643
43	0xbe22a670	-0.15883803
44	0xbdf31c65	-0.1187065
45	0x3e949b3a	0.29024678
46	0x3d358984	0.0443206
47	0x3ed7dda7	0.42161295
48	0x3e93e8cd	0.2888855
49	0xbc999282	-0.018746618
50	0x3e8764a7	0.2644398
51	0x3e1494f0	0.1450994
52	0x3e079622	0.13240865
53	0x3dbf1c8a	0.09331615
54	0x3e58248e	0.21107695
55	0xbda86f9e	-0.08224414
56	0x3d8b614f	0.068056695
57	0x3e73205c	0.23742813
58	0x3e81dc4b	0.25363383
59	0x3ecf3de2	0.404769
60	0x3e92b96b	0.28657088
61	0x3c4701a3	0.012146386
62	0xbd04f73d	-0.032462347
63	0xbc7b2d59	-0.015330636
64	0x3e674689	0.22585501
65	0x3e1163b4	0.1419819
66	0x3e805360	0.2506361
67	0x3e8e6c26	0.27816886
68	0x3e93b758	0.28850818
69	0x3c82da25	0.01597316
70	0xbdb077a6	-0.08616571
71	0x3d4ac222	0.049501546
72	0x3e63a7eb	0.22232024
73	0x3e038dc6	0.12847051
74	0x3e9e8b68	0.30965734
75	0xbbe9968a	-0.0071285414
76	0x3e609d90	0.21935105
77	0xbe179d3b	-0.14806072
78	0xbd8b2751	-0.067946084
79	0x3e5b974e	0.21444437
80	0x3e8532cf	0.26015326
81	0xbe2b5454	-0.16731387
82	0xbe16896a	-0.14700857
83	0x3edb8d21	0.4288111
84	0xbd531b77	-0.051539864
85	0xbe1f0df4	-0.15532666
86	0xbe31ce0f	-0.17363761
87	0x3ea32097	0.31860802
88	0x3e0e25b9	0.13881578
89	0x3e82c1c9	0.2553847
90	0x3b73fa66	0.0037228107
91	0x3eabda66	0.33565062
92	0xbdd8229a	-0.10553475
93	0x3e80fa21	0.25190833
94	0x3d65c5d7	0.056096878
95	0xbc29863b	-0.010346944
96	0x3be1de64	0.006892966
97	0x3dd16591	0.102244504
98	0x3ea8169b	0.32829747
99	0x3e0d17f9	0.13778676
100	0xbd72a1a5	-0.059236187
101	0xbe211a7b	-0.15732758
102	0xbe19f5c8	-0.15035164
103	0x3e01de7c	0.12682527
104	0x3d333a84	0.043756977
105	0x3e91e215	0.284928
106	0xbdb1a749	-0.08674485
107	0x3e17d1d6	0.1482614
108	0xbbcb7bc4	-0.0062098224
109	0xbe017725	-0.12643106
110	0x3e5fff51	0.21874739
111	0x3e863ada	0.26216775
112	0x3c2b1f81	0.010444523
113	0xbd1aa336	-0.037753306
114	0xbd748b94	-0.059703425
115	0x3c08ac14	0.008341808
116	0x3de7d16a	0.113192394
117	0x3e0a65de	0.13515422
118	0x3ed423bd	0.41433516
119	0x3e3eeea2	0.18645719
120	0xbdceb11e	-0.10092376
121	0xbd81d2db	-0.063390456
122	0xbd8f3127	-0.06991797
123	0x3e170d23	0.14751105
124	0xbcbea293	-0.02327088
125	0xbd9ee8e7	-0.07759266
126	0x3eb518f1	0.3537059
127	0x3e86b871	0.26312593
128	0x3dec3f34	0.115354925
129	0xbc5520b6	-0.013008287
130	0x3d847332	0.06467284
131	0x3ddc4735	0.10755769
132	0x3e7d2bd4	0.2472375
133	0xbd9baad6	-0.07600944
134	0x3e5a25d3	0.21303491
135	0x3e602c71	0.21891953
136	0x3dd1dfa4	0.10247734
137	0x3e005e85	0.12536056
138	0xbcb7676a	-0.022388179
139	0xbda09256	-0.07840411
140	0xbdc0b830	-0.09410131
141	0x3e156b78	0.14591777
142	0x3d612083	0.054962646
143	0x3c1b03a4	0.009461317
144	0xbdc88b3c	-0.09792182
145	0xbdc0911d	-0.09402678
146	0x3e02b124	0.12762886
147	0xbd536a23	-0.05161489
148	0x3dc4b75a	0.09605284
149	0x3c91ca45	0.017796645
150	0x3e3ff278	0.18744838
151	0x3e5e5292	0.21711186
152	0x3dee105b	0.11624213
153	0xbd666403	-0.056247722
154	0x3eaaa77b	0.33330902
155	0x3d7011d9	0.05861077
156	0x3e114e37	0.14189993
157	0x3dd9ec42	0.10640766
158	0x3d8e3b51	0.069449075
159	0xbe0af714	-0.13570815
160	0x3d03a72b	0.032141846
161	0xbe24c182	-0.16089442
162	0xbdbb7181	-0.091525085
163	0x3dc04e97	0.0938999
164	0x3e6bf2d0	0.23041844
165	0x3d5c072b	0.053717773
166	0x3daded3f	0.08492517
167	0x3d589a55	0.052881557
168	0xbdda1bf8	-0.10649866
169	0x3e16ca23	0.14725547
170	0x3d8bea50	0.06831801
171	0xbd10d830	-0.035362422
172	0xbe1f85f6	-0.15578446
173	0x3e11ab74	0.1422556
174	0x3c9702a3	0.018433874
175	0x3e32493e	0.17410752
176	0x3d8d27be	0.06892346
177	0xbce8b8b8	-0.028408393
178	0x3e282209	0.16419233
179	0x3c9fb51e	0.019495543
180	0x3d49c56a	0.049260534
181	0x3e1b717e	0.15180013
182	0x3e055f0f	0.13024543
183	0x3d13b6fb	0.036063176
184	0x3cfd32c8	0.030908003
185	0x3d451b05	0.04812147
186	0x3dfc4d7a	0.12319465
187	0x3e1f88bc	0.15579504
188	0x3df92688	0.121655524
189	0xbd9f2668	-0.07770997
190	0xbe0a2d09	-0.13493742
191	0xbe0232e4	-0.12714726
192	0x3de9e055	0.11419741
193	0x3dfd900d	0.12380991
194	0x3e6af59b	0.22945254
195	0x3e6a8005	0.22900398
196	0x3e2bc23f	0.16773318
197	0x3e5f113e	0.21783921
198	0xbc57d126	-0.0131724235
199	0x3bd45958	0.006480377
200	0x3dc0cd58	0.09414166
201	0x3e1e802e	0.15478584
202	0x3e43cf65	0.19122083
203	0xbdfc7595	-0.123271145
204	0x3d9ce8c3	0.07661583
205	0xbca4e391	-0.020128043
206	0x3ddb6d60	0.10714221
207	0x3d8f8db4	0.070094496
208	0x3e50dd90	0.2039702
209	0xbe2ca47e	-0.16859624
210	0x3ce4eede	0.027945932
211	0x3e1f3af7	0.15549837
212	0xbdcd4a20	-0.10023904
213	0xbd40af3d	-0.04704212
214	0xbe054a71	-0.13016678
215	0x3e16ef07	0.14739619
216	0x3d98c216	0.07458894
217	0x3e4561f0	0.19275641
218	0xbd58c8d0	-0.052925885
219	0x3e78524c	0.24250144
220	0xbcc95ca2	-0.024580304
221	0x3e08c696	0.13357005
222	0xb928c275	-0.0001609417
223	0xbdadf7b3	-0.084945105
224	0x3d843c3d	0.06456802
225	0x3d48e3f3	0.049045514
226	0x3e0d2fd9	0.13787784
227	0x3e1c24a6	0.15248355
228	0xbcbc02d5	-0.02295057
229	0xbe084d0a	-0.13310638
230	0xbdb7fadc	-0.089833945
231	0x3d933529	0.07187874
232	0x3e1c49ad	0.1526248
233	0x3e063bbe	0.13108727
234	0xbd5d6b9f	-0.054057714
235	0x3c99273a	0.018695462
236	0x3b005613	0.0019582554
237	0xbc792cd7	-0.015208445
238	0x3df7bbab	0.12096342
239	0x3e63e811	0.22256495
240	0xbd9c7be4	-0.07640818
241	0x3b5a1d40	0.0033281595
242	0xbdb38bb4	-0.08766881
243	0xbcb04a4c	-0.021519803
244	0x3da34af0	0.079732776
245	0x3ddd7481	0.10813237
246	0x3e5e6b0c	0.21720523
247	0x3e3fc299	0.18726577
248	0x3d6c1038	0.057632655
249	0x3a974515	0.0011540974
250	0xbe0b6145	-0.13611324
251	0x3d7f41d9	0.062318657
252	0xbbf1dff6	-0.0073814346
253	0xbd8acdd2	-0.06777538
254	0x3dcf8050	0.101318955
255	0x3e65e82c	0.22451848

2.0.bias f4 [64]
0	0xbcbcd8c7	-0.023052586
1	0xbdb9b08e	-0.09066878
2	0xbbd24d8a	-0.006417935
3	0xbd84e5bb	-0.0648913
4	0x3d569504	0.052388206
5	0xbb6cd0e9	-0.0036135262
6	0xbc722a44	-0.014780585
7	0xbd2f0a6c	-0.04273455
8	0x3dd2141c	0.10257742
9	0x3db47c7c	0.08812806
10	0x3d33e924	0.043923512
11	0x3d305f19	0.043059442
12	0x3b4142fd	0.002948939
13	0xbd4c59da	-0.049890377
14	0x3d077366	0.033069037
15	0xbcbafda2	-0.02282602
16	0x3dc591d6	0.096469566
17	0xbdec35bb	-0.11533686
18	0xbd6ff5c0	-0.058583975
19	0xba099002	-0.0005247594
20	0xbd3bef68	-0.045882612
21	0x3ca71a89	0.020398395
22	0xbc89c9da	-0.016819883
23	0x3c6fd6af	0.014638587
24	0xbd856227	-0.06512862
25	0x3d9c9bd1	0.07646907
26	0xbd0c066d	-0.034185816
27	0x3d7c670e	0.061621718
28	0x3c6256ab	0.013814609
29	0xbbc1b4a0	-0.0059114248
30	0x3d9b4289	0.0758105
31	0x3dc554a7	0.09635287
32	0xbd89e9d0	-0.06734049
33	0x3d7c0716	0.061530195
34	0xbd64db8b	-0.055873435
35	0xbb9dd02f	-0.004816077
36	0x3d519edc	0.05117689
37	0x3d842f19	0.06454296
38	0x3cf66fdc	0.030082636
39	0x3da316bc	0.079633206
40	0xbdb0fd8d	-0.08642111
41	0x3d04545e	0.03230702
42	0x3d3372b6	0.04381057
43	0xbda57529	-0.08078987
44	0xbd82ee1d	-0.06393073
45	0xbd3ca817	-0.04605874
46	0xbd25c0c5	-0.040467042
47	0xb9fc7d2a	-0.0004815844
48	0x3d16b10f	0.03678995
49	0xbc04f5a0	-0.008115202
50	0xbcfb5669	-0.030680852
51	0xbc05ddbf	-0.008170544
52	0x3c8cd913	0.017193353
53	0xbdc2cda7	-0.09511881
54	0xbc0bd7c7	-0.008535332
55	0x3da5e37e	0.08100031
56	0x3d55352c	0.05205266
57	0xbdf4db9a	-0.11955948
58	0x3c0abf59	0.008468472
59	0xbd5446c5	-0.051825304
60	0x3c2248f7	0.0099050915
61	0xbd64c9b6	-0.05585643
62	0x3d9f2e96	0.077725574
63	0x3c888ce3	0.016668743

3.0.weight f4 [2, 64]
0	0xbf017457	-0.50568146
1	0xbf29f605	-0.6639102
2	0xbd685927	-0.056725647
3	0xbed251ba	-0.41077977
4	0xbe0c2b75	-0.13688453
5	0x3ddf8d3d	0.10915611
6	0xbef276ec	-0.47356355
7	0xbe1782af	-0.14795946
8	0x3df993b0	0.12186372
9	0xbec2fec9	-0.3808501
10	0xbe57de25	-0.21080835
11	0xbed98497	-0.4248397
12	0xbf0ebcaf	-0.5575666
13	0xbd0fac78	-0.03507659
14	0x3d0eb92e	0.03484457
15	0x3ddf7858	0.109116256
16	0xbe14625c	-0.14490646
17	0xbefa1c7d	-0.4884986
18	0xbf1cde92	-0.61277115
19	0xbef3ac65	-0.47592464
20	0xbd87e33c	-0.066351384
21	0x3dcb7ac4	0.09935525
22	0xbe9eaf0b	-0.30992922
23	0x3e4dd70c	0.20101565
24	0xbd8e2c00	-0.06941986
25	0x3d17aee1	0.037032012
26	0xbecbdc61	-0.39816573
27	0x3e2a782e	0.16647407
28	0x3da4455f	0.08021044
29	0x3dcc8a15	0.099872746
30	0x3d779a5b	0.06044994
31	0x3dfdea22	0.12398173
32	0xbefbc334	-0.49172366
33	0xbeb6375c	-0.3558911
34	0xbe0e838f	-0.13917373
35	0xbedceb9b	-0.43148503
36	0xbd0401e3	-0.03222836
37	0xbe035779	-0.12826337
38	0xbd5c993f	-0.053857084
39	0x3e14e194	0.14539176
40	0xbeee5b3b	-0.46553978
41	0x3df3c641	0.11903048
42	0xbd952631	-0.07282675
43	0xbf17deb5	-0.593242
44	0x3d8b7599	0.06809539
45	0xbf12c396	-0.5732969
46	0xbf1a12cd	-0.6018494
47	0x3db0d485	0.08634285
48	0x3dde58cc	0.108567804
49	0xbeba1410	-0.3634343
50	0xbe73713e	-0.23773667
51	0xbf195ac7	-0.5990414
52	0x3dc6c08e	0.09704696
53	0xbded9896	-0.11601369
54	0x3e0cf183	0.13764004
55	0x3ded738b	0.11594304
56	0xbdaaebbb	-0.08345743
57	0xbf1098e9	-0.5648332
58	0x3dbb6bb4	0.09151402
59	0xbf3090cc	-0.6897094
60	0xbeb87c7f	-0.36032483
61	0xbeb405c7	-0.35160658
62	0x3e2b0359	0.16700496
63	0xbef0fa3c	-0.47065914
64	0xbc546d8b	-0.01296557
65	0x3c9249dc	0.017857485
66	0xbd2045ad	-0.039128948
67	0xbb4aa26b	-0.0030919563
68	0x3cd20048	0.0256349
69	0xbd1498aa	-0.036278404
70	0x3d84a46a	0.06476672
71	0x3d2d51d2	0.042314358
72	0xbd16903d	-0.03675865
73	0xbc87041a	-0.016481448
74	0x3dcc2b32	0.09969176
75	0xbcaa219b	-0.020767977
76	0x3d5a0b99	0.053233717
77	0xbdff860f	-0.124767415
78	0x3dc7937e	0.09744929
79	0xbd943d9f	-0.07238316
80	0xbd34c43c	-0.044132456
81	0xbbc0af02	-0.0058802376
82	0xbaa3503e	-0.0012459827
83	0x3dc2272c	0.09480128
84	0xbd08d727	-0.03340831
85	0xbe91273b	-0.28350243
86	0x3d85b391	0.0652839
87	0xbe942b5a	-0.28939325
88	0xbd994fd2	-0.07485928
89	0x3dce119b	0.10061952
90	0x3d806c01	0.062706
91	0xbce039e2	-0.02737135
92	0xbd7c0c39	-0.061535094
93	0xbe12d535	-0.14339145
94	0xbdc7ce9a	-0.09756203
95	0xbe2ed470	-0.17073226
96	0x3bc33212	0.0059568966
97	0x3db5416a	0.08850367
98	0x3da657ea	0.08122237
99	0x3b4e7436	0.0031502373
100	0xbd25589f	-0.04036772
101	0x3d6ca7b0	0.057777107
102	0xbd297533	-0.041371536
103	0xbd8da904	-0.06917003
104	0x3d5c012a	0.053712048
105	0xbe489d23	-0.19591193
106	0xbd68a42c	-0.05679719
107	0x3d0d8802	0.034553535
108	0xba9c7f8a	-0.0011939865
109	0x394b62df	0.00019396421
110	0x3b2d597d	0.0026451044
111	0xbd0c9392	-0.03432042
112	0xbddb177c	-0.10697839
113	0x3daab64b	0.08335551
114	0x3dbe4849	0.09291131
115	0xbcbef8ea	-0.02331205
116	0xbe48bf43	-0.1960421
117	0xbd660a77	-0.056162324
118	0xbd764cf4	-0.060131982
119	0xbe47b434	-0.19502336
120	0x3db883a7	0.09009486
121	0xbb351a7e	-0.0027634199
122	0xbe7ffc17	-0.24998508
123	0xbd2800b5	-0.0410163
124	0x3dc76409	0.09735877
125	0x3da68e03	0.08132555
126	0x3d8b2532	0.06794204
127	0xbc00ea91	-0.007868425

3.0.bias f4 [2]
0	0x3e0beeb1	0.13665272
1	0x3d575f39	0.052581046
