models/NER/weights/model_lstm_fixed.pt (torch, 346695 bytes, 11 tensors)

embeddings.weight f4 [33, 16]
000000 00 00 00 00 00 00 00 00 00 00 00 00 00 00 00 00
       0.0 0.0 0.0 0.0
000010 00 00 00 00 00 00 00 00 00 00 00 00 00 00 00 00
       0.0 0.0 0.0 0.0
000020 00 00 00 00 00 00 00 00 00 00 00 00 00 00 00 00
       0.0 0.0 0.0 0.0
000030 00 00 00 00 00 00 00 00 00 00 00 00 00 00 00 00
       0.0 0.0 0.0 0.0
000040 d7 9f 40 c0 92 7a e2 bd 05 38 8f 3e be 12 42 bd
       -3.0097558 -0.11058535 0.27972427 -0.047381155
000050 31 be bc 3f 4b 25 27 3f 49 d5 62 3f 4a 33 b8 be
       1.4745542 0.6529128 0.886067 -0.3597663
000060 72 84 ad bf dc a9 19 c0 99 af 52 3f 08 72 0b bc
       -1.3556044 -2.4009924 0.8229919 -0.008511074
000070 d8 08 a2 3f 09 5e 1f c0 0e 4c 96 bd 9f cb ca 3f
       1.2658949 -2.4901145 -0.07338725 1.584339
000080 cb 0f b7 be 85 1e d2 3f 97 e8 10 40 58 c0 e2 be
       -0.35754237 1.6415564 2.2641962 -0.44287372
000090 96 50 86 3f c1 bc 25 bf 4b 78 b4 3e 73 1b 8e 3f
       1.0493343 -0.6474114 0.35248026 1.1102127
0000a0 ca 75 4e bc 1d 41 e6 bf b7 b8 85 bf 1e 0e 28 be
       -0.012601325 -1.7988621 -1.0446995 -0.16411635
0000b0 23 11 8a be 7c 16 4b 3d f3 4b 1c bf bb 2a 0d bf
       -0.269662 0.04958199 -0.6105339 -0.55143327
0000c0 0f f4 e4 bf 31 c6 1d bf ee f7 7d 3f 99 6b c0 bf
       -1.7886981 -0.6163054 0.99206436 -1.5032836
0000d0 e6 04 03 3f 4c c4 80 3f 2e fd 3d 3e 8f a6 1c 3f
       0.5117935 1.0059905 0.18553612 0.6119165
0000e0 ef 64 8a 3f 49 f2 98 bf 95 85 7e bf 4a 39 46 bf
       1.0812052 -1.194894 -0.9942258 -0.77431166
0000f0 66 1d fc bf 9a 4a 13 3f 1b d9 1a c0 12 14 9e bf
       -1.9696472 0.5753571 -2.419501 -1.2349875
000100 7b a6 85 bf c1 93 55 bf b7 02 83 bf 17 06 7f 3f
       -1.0441431 -0.8342858 -1.0235204 0.9961867
000110 cd bc f6 3e 2c 74 f6 bf 9e 30 88 3f 31 9a 7f be
       0.4819092 -1.9254203 1.0639837 -0.24961163
000120 0c 64 43 3f 7d 65 27 bf fc 41 6a bf 2d d2 4a bf
       0.76324534 -0.65389234 -0.91506934 -0.7922695
000130 16 34 90 bf df a3 0c bf 20 54 73 bf d4 9a 3f bf
       -1.1265895 -0.5493755 -0.9505024 -0.74845624
000140 51 66 10 bf e8 2c 26 be 40 f4 ea bf 73 12 13 be
       -0.5640612 -0.16228068 -1.8355789 -0.14362507
000150 14 8b 52 bf 4d 78 3f bf bf a9 b7 bf d0 2f 1e bf
       -0.82243466 -0.7479294 -1.4348677 -0.61791706
000160 30 b9 89 be 81 32 37 bd 06 60 87 be de 55 10 bf
       -0.268991 -0.0447259 -0.26440448 -0.5638102
000170 76 7a 04 3f 0c c6 ae 3e b9 46 4c c0 97 1c d8 be
       0.5174936 0.34135473 -3.1918166 -0.42209312
000180 f5 e4 45 bf 9a cc 7d be f3 e3 8d 3d 3b aa dc bc
       -0.77302486 -0.2478508 0.069282435 -0.026936641
000190 91 48 f7 bd ba 04 88 be 42 b4 91 bf 0e 0b 07 3f
       -0.12074388 -0.26566106 -1.1383135 0.52751243
0001a0 88 50 08 40 e7 a8 72 bf 46 a7 78 3f 36 e8 44 be
       2.1299152 -0.94788975 0.9713024 -0.19229206
0001b0 2c c6 3e 3e ac d6 d4 bf fd 5f 88 be d7 f4 ce 3f
       0.18630284 -1.6628013 -0.26635733 1.6168469
0001c0 fd 56 aa 3d ae b6 17 3f b2 9b 9e 3f d2 f9 0e 40
       0.08317373 0.5926312 1.2391264 2.2339978
0001d0 3f 0e ae bd 9d ee 9d bf dc 4c 09 bf 2d e9 48 3f
       -0.08498811 -1.2338444 -0.53632903 0.784808
0001e0 20 6a d9 3e 86 f3 db bf 23 6b 1c 3f 8b a2 33 3f
       0.4246378 -1.7183692 0.6110098 0.70169896
0001f0 ca d6 b4 3f 66 0a 0d c0 d5 03 f5 3e 6e 68 1d 3e
       1.4128048 -2.2037597 0.47854486 0.15371868
000200 dc 0f ac 3f 4c 04 43 3e 31 73 a1 3e 5c f8 a7 be
       1.344234 0.19044608 0.31533197 -0.3280667
000210 39 13 41 40 12 44 a1 3f b3 b2 87 3f b9 d6 91 3f
       3.0167983 1.2598898 1.060141 1.1393653
000220 54 d6 79 be b3 3d 2f c0 a0 29 f2 be b7 ac f0 3e
       -0.24398166 -2.7381408 -0.47297382 0.4700677
000230 5f 56 00 bf e9 ad ab 3f 1e d5 17 3f 5c 1f e0 3e
       -0.5013179 1.3412448 0.59309566 0.43773925
000240 d7 77 7a 3f 5f ad 5e 3f b3 a2 22 bf f7 2e 8e 3e
       0.9783911 0.86983293 -0.6352951 0.27770206
000250 cd 4f ce bf 9b 73 10 c0 4a c9 fd 3f 04 56 c0 3e
       -1.6118103 -2.257056 1.9827054 0.37565625
000260 08 c2 39 be 5f 64 2b bf 45 dc 96 3f 89 ad 9e 3f
       -0.18140423 -0.6695003 1.1785971 1.2396709
000270 86 4c eb 3f d2 fb a8 bc dd 03 2e be 0c 9c 27 40
       1.8382728 -0.02062789 -0.16993661 2.6188993
000280 23 48 8c 3e 75 8c 28 3d cd d5 4b 3c 59 21 f0 bf
       0.27398786 0.041149575 0.012441111 -1.8760177
000290 16 64 2b c0 10 1b 84 3d b5 be c8 3e 44 81 84 3e
       -2.6779838 0.06450474 0.39207998 0.25879872
0002a0 9e 75 bc bf ef aa 41 be 45 e8 9c bf 19 e4 62 3d
       -1.4723394 -0.18912862 -1.2258383 0.055393312
0002b0 c9 20 81 bf 16 04 39 3f 77 01 0d bf 9d 03 b9 be
       -1.008813 0.7227186 -0.5508036 -0.3613557
0002c0 89 43 78 3e 26 6d 0a 3f 20 7c 8f 3e 3a be 97 3f
       0.24244513 0.540728 0.28024387 1.1854928
0002d0 69 a7 02 40 4b 72 52 bf cf 17 36 bd 09 97 58 3f
       2.041468 -0.8220565 -0.0444563 0.8460546
0002e0 86 a2 8b bf c7 d1 db be ab ec ec 3e fa fd 41 3f
       -1.0908973 -0.42933485 0.46274313 0.7577816
0002f0 0a 74 f8 be 6d 4b 9b be 83 40 07 bd f3 40 89 be
       -0.4852603 -0.30330983 -0.033020508 -0.26807365
000300 7e 26 82 bf 7e 7e bd bf 2b c1 dd be e6 c9 3d 3f
       -1.0167997 -1.4804227 -0.43311438 0.741362
000310 18 ec 9d 3d 71 91 b1 3d 55 f9 8b 3e ba 61 d9 3e
       0.07711047 0.08670319 0.27338663 0.42457372
000320 19 2a 95 bf f7 e0 bd bf a0 88 a2 3f f1 9a a4 3f
       -1.1653472 -1.4834279 1.2697945 1.2859784
000330 e7 b7 73 3e 5f b4 13 bf 92 f7 d4 3d ce 96 98 3c
       0.23800622 -0.576971 0.10398783 0.018626597
000340 d7 00 63 be 5c db 47 3e f3 db 1b bf c2 39 25 be
       -0.22168289 0.19517273 -0.6088249 -0.16135314
000350 84 a3 7e be 0a f0 1a 3f 6f 26 55 3f 32 ca 49 3f
       -0.24867064 0.6052252 0.8326177 0.7882415
000360 2c 8c c4 be 18 ad a2 be 62 e5 9c be 03 34 3a 3f
       -0.38388193 -0.31772685 -0.30643755 0.72735614
000370 ed c3 06 bf c2 09 96 3f 1f 04 52 3f 0d 1d 43 bf
       -0.5264271 1.1721728 0.8203754 -0.762162
000380 3b d4 b8 3e b9 b9 df bf 8e ee 0c bf b4 97 99 3f
       0.3609942 -1.7478553 -0.55051506 1.1999421
000390 f5 92 5c 3f f9 94 fc 3e f8 78 19 3f b8 db 83 3f
       0.8616174 0.49332407 0.5995021 1.0301428
0003a0 7f a4 c9 3f 5d f9 0d 3e a0 be a7 bf 8f 19 0f 3f
       1.5753325 0.13864656 -1.3105049 0.55898374
0003b0 12 11 30 3f cb de 91 bf c9 fd 54 bf 30 cd 8a bf
       0.6877605 -1.1396116 -0.83199745 -1.0843868
0003c0 7d 7d af bf ad 07 a5 be 86 a0 ae 3f 58 60 bf bd
       -1.3710171 -0.3223242 1.3642738 -0.09344548
0003d0 1e d5 54 3f a4 f3 b1 3f 65 42 d9 3e ac c5 07 3e
       0.8313769 1.3902478 0.42433468 0.13259
0003e0 22 75 8a 3e dd 92 87 bf 4a d9 87 bf ba 6d d8 3f
       0.2704249 -1.0591694 -1.0613186 1.6908486
0003f0 3a f1 b6 bf e6 94 f7 3f 70 ac 80 3f db 5b 42 3e
       -1.4292367 1.9342315 1.0052624 0.18980353

lstm.weight_ih_l0 f4 [512, 16]
000000 f4 2c 86 3b ce b3 29 3d 28 fc a1 3d 4e a5 8a 3b
       0.0040947143 0.04143124 0.07909423 0.0042311316
000010 01 15 b2 bd a9 ed 0b bc 2d fa 21 3c 17 39 d4 3c
       -0.086954124 -0.008540549 0.009886307 0.025906129
000020 0f 3e 6c 3d 1f 6d 13 bd dd bf 28 bc 62 f6 70 3c
       0.05767637 -0.035992738 -0.01029965 0.01470718
000030 86 12 42 bc 49 5b 0b bd 7d d0 35 3d a6 85 7b bd
       -0.011845237 -0.034022603 0.044388283 -0.061406754
000040 13 2a 3a bd 79 43 b8 3c 7d 8d 26 bc 1d d9 2c 3d
       -0.04545028 0.022493111 -0.010165569 0.042199243
000050 0f 67 85 bd b8 9d 40 3c 9e 4d a7 bd 7d 09 af bc
       -0.065137975 0.011756353 -0.08169101 -0.021366829
000060 50 3a cf 3d 71 b0 b7 3d ac 7f af bc 72 72 d9 3c
       0.10118544 0.089692004 -0.021423183 0.02654383
000070 67 0f 19 3d 52 52 e0 bb f2 09 88 3d 61 73 9d bd
       0.037368204 -0.006845751 0.06642522 -0.076880224
000080 28 90 ae bc fe 33 94 bd a5 99 a7 bd 19 2a ac bd
       -0.021308973 -0.07236479 -0.08183602 -0.08406467
000090 a4 d3 8a bd f9 7d bf bd 4f 43 85 bd 1c f2 ac bd
       -0.067786485 -0.09350199 -0.06506979 -0.08444616
0000a0 d2 93 3c 3d 1b 2e b9 3c 92 2b bb bd 11 e8 29 be
       0.04603941 0.022604993 -0.0913917 -0.16592433
0000b0 00 ac 1e 3d da 08 83 bd a2 ba 4c bc aa d5 5b bd
       0.03873825 -0.06398173 -0.012495669 -0.053670563
0000c0 8a f7 00 3d fd 6a 08 bc 7b 4a 40 bd 83 24 12 3d
       0.03148607 -0.008326289 -0.04694603 0.03567935
0000d0 c7 01 85 bd 90 99 a6 3c 32 35 82 bc 97 da 74 3d
       -0.064944796 0.020336896 -0.015894506 0.059778776
0000e0 3b 67 d9 3b 6d 1a a9 3d dd ff 6e 3c dc 80 86 bd
       0.0066346205 0.082569934 0.01458737 -0.06567547
0000f0 86 fa af 3c 1a dc 6e bd 83 cc 09 bd b8 e8 a3 bd
       0.021481764 -0.058315374 -0.033642303 -0.08003372
000100 5d 46 07 3e 60 69 f2 3a ad 23 db bd 85 14 c2 bc
       0.13210435 0.0018494539 -0.10700164 -0.023691425
000110 24 37 48 bd b1 6a a8 bd 1b 9e 61 bd 24 e8 c4 3c
       -0.04888071 -0.08223475 -0.05508242 0.024036475
000120 7d 2b 61 3d d5 de 8e 3b ae be a3 bd 24 3e 3d 3d
       0.054973114 0.0043600597 -0.07995354 0.04620184
000130 92 6c 9c bd f2 aa b3 3d be b9 d6 3d a7 32 a8 bd
       -0.07637896 0.087728396 0.10484646 -0.08212786
000140 23 9f a6 3d 2e 0f b4 3d 1c 16 29 3c 74 57 17 bc
       0.08135822 0.08791958 0.010320213 -0.009237159
000150 6c 7e 91 3c b0 43 de 3c b4 90 04 3d 6e 63 ac bd
       0.017760478 0.027131885 0.032364562 -0.08417402
000160 96 cd 82 bd b4 b0 2c 3d e5 f8 8b bd fd 3e 57 bd
       -0.06386869 0.042160705 -0.06834582 -0.052550305
000170 e7 3a ab bd 38 de 92 3d 22 bf cd 3d 01 d6 10 bd
       -0.08360844 0.07171291 0.10046221 -0.03536034
000180 42 28 6d 3c 30 65 15 3e fe 52 dd bd 59 36 d0 3c
       0.01447493 0.14589381 -0.10806845 0.02541654
000190 b0 77 3b bd 95 c5 02 be 6e fb d4 bc a5 66 8c 3d
       -0.04576844 -0.12770684 -0.025998797 0.068555154
0001a0 3e 90 12 3e 82 a6 d7 3d e8 3f 80 bd be d7 8f 3c
       0.14312837 0.10529806 -0.06262189 0.017558929
0001b0 2a 34 58 3c 13 a1 d0 3c af b8 32 bd 0a 6b 0b be
       0.013196031 0.025467431 -0.04363316 -0.13615051
0001c0 8f 85 9c 3d 5f 3d 53 3d 16 90 11 bd a8 b8 e4 3c
       0.07642662 0.0515722 -0.0355378 0.027920082
0001d0 c1 36 9f bd da a3 f5 bd b7 d9 ae 3c 46 31 11 3e
       -0.07774115 -0.11994143 0.021344049 0.14178953
0001e0 4a a0 12 bc f7 f7 86 3d de 65 8f bd f5 c3 01 bd
       -0.008949349 0.06590264 -0.070018515 -0.03168102
0001f0 7c b8 6a bb 10 db f0 3d 90 4e c6 3c 37 6d 23 bd
       -0.0035815528 0.11760533 0.024207383 -0.039899077
000200 84 ae d7 3d 37 e3 3c bd 31 69 9e bd 3c 84 0f 3e
       0.10531333 -0.046115126 -0.077349074 0.14015287
000210 11 78 39 3d fc a0 61 bd bd 0a 54 bd 44 0f a6 3d
       0.04528052 -0.055085167 -0.051768053 0.081083804
000220 b5 2a 52 3d 8f 66 03 3d 9c 00 f6 3b 6c 9e ec bb
       0.05131026 0.03208023 0.007507397 -0.007221034
000230 a7 94 36 3d c2 d6 f5 3d 7e c7 25 3c ce 63 d1 bc
       0.04457536 0.120038524 0.010118363 -0.025560286
000240 de 20 27 bc 7a 42 9c 3d 5c cc 1c bd f3 e9 77 3c
       -0.010200707 0.07629867 -0.03828083 0.015131461
000250 5a dd 0b bd ae d9 8e bd 9d c5 7c 3c 7f 23 a6 3d
       -0.034146644 -0.06975113 0.015427974 0.08112239
000260 78 6f f1 3d fc b9 d2 3d 59 21 4f 3c 88 40 fb 3d
       0.11788839 0.1028938 0.012642228 0.12268168
000270 ee 91 e7 bd 80 36 a3 3d 52 70 31 3e f0 22 f1 bd
       -0.11307131 0.079693794 0.17328003 -0.11774242
000280 22 d4 92 3a e8 15 14 bb 30 68 66 3d 68 69 b0 bd
       0.0011202137 -0.0022596065 0.056251705 -0.08613855
000290 ed 90 6a bd 83 77 5d 3d 30 2b 14 bd b5 3c 1b bd
       -0.05726712 0.054069053 -0.036174 -0.03789969
0002a0 05 18 58 3d ce 5c 0f bd 8d 38 94 3d c3 37 61 bd
       0.05275728 -0.035000615 0.07237349 -0.05498482
0002b0 de 82 b7 3d c9 48 d0 bc 88 aa e2 3c ce 3c 91 bd
       0.08960508 -0.025425332 0.027669206 -0.07091676
0002c0 d3 a9 cf bc ad d6 a0 3d d1 60 23 bd d0 4e 18 3d
       -0.025349533 0.07853446 -0.039887253 0.037184536
0002d0 fa 93 15 bd 52 85 63 bc d4 5e 94 bd 5a d4 80 bb
       -0.036518075 -0.0138867665 -0.072446495 -0.0039315643
0002e0 61 d0 9b 3c 61 da 98 3d df 42 8d bd 7e 21 e1 3c
       0.019020261 0.074635275 -0.0689752 0.02748179
0002f0 75 1d d3 bd 84 2e f8 3d 62 d4 f2 bc 6a d2 cf bc
       -0.10308353 0.12118247 -0.029642288 -0.025368888
000300 3a 1d 6f bb f4 e8 a2 3d ae 37 b1 bd b0 ca 98 3d
       -0.0036485926 0.079545885 -0.08653198 0.074605346
000310 b0 78 c2 bd 02 81 93 3d ad 8d 20 bd c1 82 fa 3d
       -0.094956756 0.07202341 -0.039197613 0.122319706
000320 a5 63 d9 bc 07 77 57 3c 94 35 fc 3c 75 4a 28 3c
       -0.026536772 0.013150937 0.030787267 0.010271658
000330 1f f3 3d 3d bd 32 a4 3d d2 e6 d3 3c 71 df a4 bd
       0.046374436 0.0801749 0.0258669 -0.080504306
000340 e0 60 d0 3d 93 d4 ea 3d 62 ca 64 bc 8c 63 ba 3d
       0.101747274 0.114663266 -0.013964267 0.09101018
000350 fa c6 d0 bd e8 4d 6f bc ba 6e d7 bc 6e 31 b3 3d
       -0.10194202 -0.014605977 -0.026297916 0.08749662
000360 1c cc 52 3c 0c 52 93 bc eb 0c e6 bd ef da c1 bd
       0.012866046 -0.017983459 -0.11232933 -0.094655864
000370 a1 a0 0f be b5 53 a4 3d 52 79 8f 3c 8f 25 7e bd
       -0.14026119 0.08023778 0.017513905 -0.062047537
000380 24 4c 75 3d 5a ef 0a be bf c0 94 3d 18 b1 3a 3e
       0.059887066 -0.13567868 0.07263326 0.18231618
000390 e1 ef fb bc f1 23 d6 3c 0c 59 c1 bd 3f e0 47 3d
       -0.030754032 0.026140185 -0.094408125 0.048797842
0003a0 59 9b 4a 3d 91 a4 b5 3d fa 85 17 be 81 6b 9b 3d
       0.049464557 0.08869279 -0.14797202 0.07588864
0003b0 b4 fa 60 ba cb 12 13 3d 5c 82 92 3d cc f6 0c 3c
       -0.00085822796 0.035906594 0.0715377 0.008603763
0003c0 e0 49 61 bd 40 4c fd 3b ba 0f 52 bd f7 9c 9b 3b
       -0.055002093 0.007730037 -0.05128453 0.0047489363
0003d0 19 b7 3a 3b d2 4e 0b bd 99 29 ae bd de 78 82 bd
       0.0028490482 -0.034010716 -0.08504028 -0.0637071
0003e0 10 3b 98 3c 9c 0a ad bd 36 bd fc 3c 5d 2b a1 3d
       0.01858285 -0.08449289 0.030851942 0.07869599
0003f0 fe 5c 9b 3d 31 4f 44 3d 9c 23 4d 3d 7f 68 88 3d
       0.07586096 0.047927085 0.050082788 0.06660556

lstm.weight_hh_l0 f4 [512, 128]
000000 df ab 5d bd ea af 30 3d 78 8e c1 bc 96 5f 8c 3d
       -0.054118987 0.043136515 -0.023627505 0.06854169
000010 80 34 f5 3c 7e 43 21 3d d1 67 31 3c 82 c8 5c bd
       0.02993226 0.039371006 0.010827974 -0.053902157
000020 3d 60 00 bd a8 16 8d bd 51 2b c3 bd ef 31 05 bd
       -0.03134178 -0.06889087 -0.09529746 -0.032518324
000030 90 23 3f 3d a8 b0 15 bd 07 cb 0b 3d 8d c4 ee bd
       0.046664774 -0.036545426 0.03412917 -0.11658583
000040 25 79 9d 3d d8 fd ab 3d 3c c6 5c bd 39 6f 15 3d
       0.07689122 0.08398026 -0.05389999 0.036483023
000050 7b 29 99 bd a9 32 3d 3d 63 c4 ae 3d 3c 8b 59 3c
       -0.07478615 0.04619089 0.085335515 0.013277825
000060 83 19 91 bd c4 d6 05 bd f2 86 15 3d 47 3e e1 bd
       -0.07084944 -0.03267552 0.036505647 -0.109982066
000070 74 31 09 bb 74 c4 25 3d 64 7d ae bd b6 57 ae 3d
       -0.0020934017 0.040470555 -0.0852001 0.08512823
000080 60 2b d7 bd 86 04 43 3d 13 cb 70 3c ef 14 bc bd
       -0.1050632 0.047611736 0.014696854 -0.0918368
000090 4d bc f0 bd 89 02 11 bd c4 a5 c6 3d 83 55 75 3d
       -0.117546655 -0.03540281 0.09699586 0.059896003
0000a0 06 72 0c 3d 8a a4 6e 3c 1a 45 c4 3d 90 5e 2d 3d
       0.03428843 0.014565596 0.095834926 0.04232651
0000b0 ca bc a3 bc 8e f2 c4 3d ad e0 1f 3d 27 b8 81 3d
       -0.019987483 0.09616576 0.039032627 0.063339524
0000c0 d3 07 02 3d c1 59 d1 3b 3a 13 22 3d ee 8d 9b 3c
       0.031745743 0.0063888733 0.039569117 0.018988576
0000d0 19 db 9a bc d9 55 1d 3d e7 57 08 bd 6b 85 0f bd
       -0.018903302 0.03841195 -0.033286955 -0.035039347
0000e0 44 95 3c bc 0c c8 95 bc b5 f2 94 bd d0 62 1e 3d
       -0.011510197 -0.018283866 -0.07272855 0.038668454
0000f0 c9 55 e5 bc 7c df ef 3d ab 59 4b bd 53 2d 05 bc
       -0.027995007 0.11712548 -0.04964606 -0.008128482
000100 9d 85 ec bc ff 35 58 bd 30 95 b3 bd 6f 8a d5 3c
       -0.028872306 -0.05278587 -0.0876869 0.026066987
000110 22 0a 07 bd e7 79 98 bd e9 a7 19 3d af 0d 12 3d
       -0.032968648 -0.07445126 0.037513647 0.03565758
000120 70 4c 21 bd 65 73 a6 bb b5 77 74 3d 3e f2 8d bd
       -0.039379537 -0.005079674 0.059684474 -0.0693097
000130 7e 08 84 3b 58 cf b3 bb a1 3c 02 bc 8a 82 68 bc
       0.0040293327 -0.005487364 -0.007949025 -0.014191279
000140 e2 85 a8 3d 0f 82 25 3d f1 49 05 bc 3a 5e 19 3c
       0.08228661 0.040407237 -0.008135305 0.009360844
000150 26 31 bc bd 70 97 ca bc a6 b3 04 3e f0 3d 5d 3d
       -0.09189062 -0.024730414 0.12959155 0.054014146
000160 2d 14 83 3c b6 94 ec bc c3 48 8d bc 34 3d 87 bd
       0.016000831 -0.028879505 -0.01724661 -0.066034704
000170 0e 4d 07 bb 6c 29 6b bd 92 fb 0a bd a6 33 80 bd
       -0.0020645293 -0.05741255 -0.033931322 -0.06259851
000180 87 ab f8 3b 1f 3c 0f bd a5 61 93 bd 70 9d 03 bd
       0.007588807 -0.034969445 -0.071963586 -0.032132566
000190 01 f9 f9 bc aa e7 55 3d 01 9d 30 3d 4e b3 8d bc
       -0.030514242 0.052222885 0.04311848 -0.017297413
0001a0 8c 1e f4 3d 89 59 7b 3d b7 26 51 bd f7 04 07 be
       0.11919889 0.061364684 -0.051062312 -0.13185488
0001b0 8c bc 75 3d 3e f8 77 bc dc 01 80 3d 58 d5 2d bc
       0.059994265 -0.015134869 0.06250355 -0.010609947
0001c0 88 5b 96 bd 56 9f bc bd 88 00 d0 bc 85 0e c7 bb
       -0.07341677 -0.092100784 -0.025390878 -0.006074729
0001d0 54 83 9a bd 61 99 09 3d ff cd 0b bc 87 53 d8 3d
       -0.0754458 0.03359354 -0.008533 0.105628066
0001e0 86 2a c6 3d 34 9c b2 3d 8f c1 67 3c 19 bb 1c bd
       0.096760795 0.087212 0.014145269 -0.038264368
0001f0 22 c0 2e 3d 2b 23 a7 3c 5d 02 44 bd 6d fd 09 3d
       0.0426637 0.020402512 -0.047853816 0.03368895
000200 30 4c e2 bc 86 2c 08 3d 46 82 f5 bc be 1b e5 3c
       -0.02762422 0.033245586 -0.029969346 0.02796733
000210 9d 52 cc bc 7c 07 a8 bd 17 89 55 bd 33 7f 69 bd
       -0.024941737 -0.082045525 -0.052132692 -0.057006072
000220 55 e2 6f bd a2 fa 88 bd 06 0b 04 be c0 7e 81 3d
       -0.058565456 -0.066884294 -0.1289483 0.06323004
000230 ff 98 98 bd a8 da 99 bc 97 24 c7 3d c5 fe 0f 3d
       -0.07451057 -0.018781021 0.09723776 0.035155077
000240 18 22 b1 bd 2f 2f 66 bd 9d 6f 9c 3d 91 d8 05 be
       -0.08649081 -0.05619734 0.07638476 -0.13070895
000250 16 d0 f0 3d 20 75 62 3d 3e 74 be 3c 2b af 50 3d
       0.11758439 0.05528748 0.023248788 0.050948303
000260 5a 92 08 3e d6 cc de bc 57 02 15 3d 29 2c dd 3d
       0.13337079 -0.027197283 0.036379185 0.107994385
000270 4e 50 aa 3b 81 fd 34 bd 8c 2e af 3c f7 7c b6 3d
       0.0051975613 -0.044187073 0.0213845 0.08910554
000280 cb d2 5d 3d d8 5d 63 bd 93 09 04 3d 08 71 1c 3e
       0.054156106 -0.05550942 0.032235693 0.15277493
000290 51 80 65 3d 8e 14 ba 3c 6f 0d 94 3d 31 2c 5b bd
       0.056030575 0.02271488 0.07229125 -0.05350894
0002a0 88 2b a5 bb 39 ea 0c be e2 fb 43 bd f2 56 9f 3c
       -0.0050405897 -0.13761224 -0.047847636 0.019450638
0002b0 c5 fb 75 bc 6e 9c 7f 3d 6d 4f 32 bc cf 25 14 bc
       -0.01501364 0.062405042 -0.010883194 -0.009042217
0002c0 92 8a 31 bc 7b b1 a9 bd 36 10 6c bc da af 0d bd
       -0.01083626 -0.08285805 -0.014408162 -0.034591533
0002d0 1b 98 55 3d 52 22 5f bc 98 55 b5 bc 35 86 a5 bd
       0.052147012 -0.013619022 -0.02213554 -0.080822386
0002e0 b5 29 c7 3d c8 cd 1b bc 69 29 08 be 78 41 63 3c
       0.09724752 -0.009509511 -0.13297047 0.013870589
0002f0 54 8b 1a bc 6c 29 89 3d 6a 75 57 bb 49 7b 1f bd
       -0.0094326325 0.06697354 -0.003287638 -0.038935933
000300 d2 a4 9e 3d 7f 36 1f 3d f8 ed 66 3d a4 26 4e 3d
       0.07746281 0.03887033 0.05637929 0.05032982
000310 8a 0a 51 bd 3d 1b c5 3d 98 14 96 3d 38 85 27 bd
       -0.05103544 0.09624336 0.07328147 -0.04089853
000320 a2 88 7d 3d 7a 3b 90 bd 6c bd 1c bd 7c a4 b9 bd
       0.06189788 -0.07042594 -0.038266584 -0.09064576
000330 c3 42 7e bd 77 52 00 bd 77 bb 9d bd 3c db b7 bd
       -0.062075388 -0.031328645 -0.07701772 -0.089773625
000340 c8 89 d8 ba c1 98 9c bd e2 c0 30 bd 8b b1 1a bd
       -0.0016520554 -0.07646323 -0.043152697 -0.037766974
000350 af b5 e8 3d 81 a2 a1 bd f4 25 71 bd 71 09 14 bd
       0.113627784 -0.07892323 -0.058874086 -0.036141817
000360 96 80 66 3d d1 0d b7 bd 9f 25 02 be a6 32 05 3e
       0.056274973 -0.08938182 -0.12709664 0.13007602
000370 09 7a 01 3e 2e 0b df 3d ff dc 34 3c 2f f8 08 3e
       0.12644209 0.10890804 0.011039018 0.13375925
000380 f8 20 96 3c 13 d7 c8 3c 8a 9b dd 3d 1e 8d a7 bd
       0.018326268 0.024516618 0.10820682 -0.08181213
000390 dc 6e 0e bc 81 14 9b bd d2 ed 8b bc 6b df c0 3d
       -0.008693423 -0.0757227 -0.017081175 0.094176136
0003a0 ea 18 c7 bd dd 1a 91 3c 8a d2 f5 bc b1 f1 20 3b
       -0.09721549 0.017713005 -0.03000762 0.0024558122
0003b0 88 71 5d 3c 12 af ac bd da 07 bc bc d6 9d 4c bd
       0.0135158375 -0.084318295 -0.022952963 -0.04995521
0003c0 ad 9e 68 3d 4d 97 ba 3c 5e eb 59 bd 0c 0b 4c 3d
       0.05679195 0.022777224 -0.05320298 0.049815223
0003d0 b4 5e 8e 3d df 84 ac bb b0 e0 f0 bc fc 5b 2a bd
       0.06951657 -0.005264863 -0.029404014 -0.04159163
0003e0 38 ab fb bd 80 4c 9b 3c fa 0d de 3d 61 64 0f bb
       -0.12288517 0.018957376 0.108425096 -0.00218799
0003f0 cc 9b b3 3c 2b a2 ac 3c c5 4d bc 3d 17 6b 6f 3d
       0.021924876 0.021073421 0.09194521 0.05845174

lstm.bias_ih_l0 f4 [512]
000000 27 fe 8f bb 45 e9 89 bd 7d c2 3f 3d 6e c2 d6 3c
       -0.004394311 -0.06733946 0.046816338 0.026215758
000010 35 03 d2 bd 33 39 3f bd ca a7 7f bd 6b 60 86 bd
       -0.10254518 -0.04668541 -0.062415875 -0.06561359
000020 0c 07 31 3d 86 fe 96 3c 6c 0f 37 bc b8 77 0b be
       0.04321961 0.018431913 -0.01117311 -0.13619888
000030 43 84 89 bd 90 a2 c3 bd 2a d4 50 3d c3 60 83 3d
       -0.0671468 -0.09552491 0.050983585 0.0641494
000040 86 8a 2a 3b 04 ca 0d 3d 89 18 d0 3d 3a 9b 70 bd
       0.0026022508 0.034616485 0.1016093 -0.058741786
000050 2f b3 e1 3d 27 c0 93 bc 68 4b aa 3d 6e b1 61 3c
       0.11020505 -0.018035961 0.08315164 0.013775213
000060 c4 cb f3 3d 97 e6 8b bd 4d ca 73 bd 13 4e 91 3d
       0.119040996 -0.06831091 -0.0595191 0.070949696
000070 e2 35 1a 3d cc 69 dd bd a7 a8 ab bd b7 30 d3 bd
       0.037649043 -0.10811195 -0.08381777 -0.10312026
000080 1e 24 cb bd 5e bd 1d 3d 9c 35 d8 bc b2 b3 f3 3d
       -0.09918998 0.038510673 -0.02639275 0.118995085
000090 b0 9b 71 3d 94 3f c0 bd 52 03 b5 bd f2 62 c8 bc
       0.058986366 -0.093871266 -0.08838524 -0.024461243
0000a0 87 ae a5 bd 12 a6 a7 3d 3b f4 e0 bd 91 05 1b 3d
       -0.08089929 0.08185972 -0.10984083 0.037847105
0000b0 70 da ec bd cc 74 bd bc 80 39 b5 3a ec 10 fc bc
       -0.11565101 -0.023126982 0.001382634 -0.030769788
0000c0 8b 9b 6b 3d 24 00 a2 bc a5 61 96 3d 1b d7 89 3d
       0.057521384 -0.019775458 0.07342843 0.06730481
0000d0 7e 09 a8 3d 3f 79 86 3c 5e d4 4d 3d 85 b4 6a bc
       0.082049355 0.016415237 0.050251357 -0.014325266
0000e0 db cd 29 bd 06 bc 87 bd 2e a0 9b 3d c8 a0 d9 bb
       -0.041456085 -0.066276595 0.07598911 -0.006641481
0000f0 2e 78 fd bd 46 e6 e6 bd d8 a9 b4 ba f4 67 48 3c
       -0.12376438 -0.1127439 -0.0013783528 0.012231816
000100 1b 3e 47 3d 1e 16 14 be e6 f1 04 3d 1c 1d 25 bd
       0.048643213 -0.14461562 0.032457255 -0.040310964
000110 77 01 a4 3d d2 af 10 3d 81 f9 86 3d 2a 81 0f 3d
       0.08008092 0.035323925 0.06590558 0.03503529
000120 dd ce d9 bd 51 a7 a4 bd 87 cd be bd 80 9c 01 bc
       -0.10635159 -0.080397256 -0.09316545 -0.007910848
000130 18 6d 3a bb 87 c4 35 bc 27 69 20 3d 94 62 12 3d
       -0.0028446373 -0.011094219 0.03916278 0.035738543
000140 b3 ac e5 bd ab 8d 50 bd 00 c0 4e 3d 3e 65 27 bd
       -0.112145804 -0.050916355 0.050476074 -0.040868036
000150 17 ee ab bd 15 ef f0 3b 80 da 9c bd 48 d6 61 3d
       -0.083950214 0.0073527195 -0.07658863 0.055135995
000160 94 80 ad bd 6d b3 83 bd de 56 12 bd e8 8b b9 bc
       -0.0847179 -0.06430707 -0.035727374 -0.02264972
000170 c4 86 29 bd 6b e0 91 3d c2 84 f7 bc c9 ef 54 bd
       -0.04138829 0.071228825 -0.030214671 -0.05198649
000180 25 ea 5a 3c 21 1d 02 be 89 41 e9 bc 80 0f e3 bc
       0.0133614885 -0.12706424 -0.028473632 -0.027717352
000190 90 37 38 3a 1b a4 82 3c aa 62 0c 3d e7 f2 1e 3d
       0.00070273224 0.015947392 0.03427378 0.03880587
0001a0 0c 31 78 bc 09 fc 02 be c8 d8 d0 3a 7e 36 8d bd
       -0.015148412 -0.12791456 0.0015933746 -0.06895159
0001b0 83 53 8d bd 08 9b d2 bc 4c 29 27 3d d4 39 b0 bb
       -0.06900694 -0.02570869 0.04081087 -0.0053779874
0001c0 bf 6e cb bc 86 7f be bd d6 0b 89 bd da 14 96 3b
       -0.024833081 -0.09301667 -0.06691711 0.0045801224
0001d0 52 77 a6 3b 8c ac da 3d 00 0f da bd 8f 58 3a 3d
       0.005080142 0.10677442 -0.10647392 0.045494612
0001e0 2d d6 73 3d 60 f5 bc 3b 62 b1 de bd f7 72 69 3d
       0.059530426 0.0057665557 -0.10873677 0.056994405
0001f0 a8 ab 7b 3d 90 d6 ad bc 2b 4f c6 bd 91 03 a5 3b
       0.061443 -0.021220475 -0.09683069 0.0050358255
000200 f1 87 2c bd e7 de 58 bd b2 1e 71 3b d2 88 97 bc
       -0.04212183 -0.05294695 0.0036791977 -0.018497858
000210 8e 74 49 bd ba 08 13 bd c2 e7 ef bc 0c 8f 41 bd
       -0.04918342 -0.035896994 -0.029285315 -0.04725556
000220 ef 48 57 bd 2c c1 9a bc f2 b6 49 bd e5 e8 89 bd
       -0.05255979 -0.01889094 -0.049246736 -0.06733874
000230 6c b9 90 3d 38 6f b3 bd e5 67 b9 3d 82 8b eb bc
       0.070666164 -0.08761448 0.090530194 -0.028753046
000240 ff 5a a6 3d 40 cc 08 be fd 3c e9 3d b4 ac fc bc
       0.08122825 -0.13359165 0.11388586 -0.03084407
000250 15 d0 10 3c 98 b6 6f 3d 40 af 02 bc a4 9b a5 3d
       0.008838673 0.058523744 -0.007976353 0.08086327
000260 d6 3d aa 3d 7a d9 2d bd c5 96 50 3d 76 f5 89 3b
       0.083125755 -0.04244373 0.050925035 0.0042101694
000270 bf 3a 42 bd 31 85 e4 bd dd 81 83 3d bb 43 03 be
       -0.047419306 -0.11158217 0.06421254 -0.12818806
000280 77 08 44 bd 6b a9 c9 bd d6 b8 be 3d 5f 6e 3c 3b
       -0.047859635 -0.09846767 0.093125984 0.002875231
000290 26 6e 7f 3c f0 d0 f7 bb 32 3a 0f bd 9a 90 3f bd
       0.015590226 -0.007562749 -0.03496761 -0.046768762
0002a0 f2 25 fb 3b 49 24 a7 bd ce 13 0b 3b eb 78 9d bd
       0.0076644355 -0.08161218 0.0021221521 -0.07689079
0002b0 e3 24 8d bd 45 4f 39 3d 88 f1 fc bc 0f 6a fc 3d
       -0.06891801 0.045241613 -0.03087689 0.123249166
0002c0 54 e4 7f 3c eb 76 7f 3d dc 61 7e 3d 37 af 2f bd
       0.0156184025 0.06236927 0.062105045 -0.042891707
0002d0 f5 2e ab 3d ef a9 9d bd 0a 2a 30 3d 80 11 61 bd
       0.08358566 -0.07698428 0.04300884 -0.05494833
0002e0 ee 41 59 3d 85 90 6f bd ac 70 f6 3d 81 02 4c bd
       0.05304139 -0.058487434 0.12033209 -0.049807075
0002f0 03 99 fe bd 15 d1 84 3c 58 43 1b bd 16 57 7a 3c
       -0.124315284 0.01621298 -0.03790602 0.015279552
000300 9a 69 95 bd cc 98 3c bd f9 6d 51 bd 66 aa 7d bd
       -0.072955325 -0.046044156 -0.05113027 -0.061930083
000310 89 9f fb 3b 8b 53 f3 3d c7 24 d3 bd bc 90 d0 bb
       0.00767893 0.11881169 -0.10309749 -0.00636491
000320 2e a5 3a bc c3 33 c1 bd 0a f6 4b 3d f6 71 d1 bc
       -0.011391921 -0.09433701 0.049795188 -0.025567036
000330 2c ea ca bc 3c 98 17 bd e3 fc 9a bd 78 8a 26 3a
       -0.024769865 -0.037010416 -0.075677656 0.0006353031
000340 b4 af 5b 3b b4 2b 03 bd 57 2c d0 bd 40 6d 2f ba
       0.0033521475 -0.0320241 -0.10164707 -0.0006692
000350 ff b7 6b bd 54 68 21 3d 16 80 03 3c 9b 0d 7a 3d
       -0.05754852 0.039406136 0.008026144 0.06104813
000360 6c 71 a4 bd e1 69 65 3d e8 c8 81 3d e9 8b 96 bd
       -0.08029446 0.056009177 0.06337148 -0.073509045
000370 0a 63 31 bc 93 d8 85 bc ad f9 0f be 25 4d c2 3b
       -0.010826835 -0.016338622 -0.14060088 0.0059296065
000380 3e 6f d3 3c 7d d5 e8 bd 84 9d 76 3d 32 05 00 be
       0.02580988 -0.11368845 0.060208812 -0.12501982
000390 07 7e 22 bc da 87 6a 3d 42 72 cf bd 15 b5 5a 3d
       -0.009917743 0.057258464 -0.10129215 0.05339535
0003a0 3b 84 0f 3d c9 89 8e bc ab e5 d8 bc 41 31 84 bd
       0.035038214 -0.017399685 -0.026476702 -0.06454707
0003b0 c8 51 fc bc f3 96 8c 3c fa 2a 76 bd 57 a6 ed bd
       -0.030800715 0.017161822 -0.06009958 -0.116039924
0003c0 e6 bc 47 3c 44 be a9 bd 55 2c 40 3c b1 4f a5 3d
       0.012191033 -0.082882434 0.01172932 0.080718406
0003d0 23 49 41 bc 0c 75 eb ba 63 54 59 3d 21 22 35 3d
       -0.011797222 -0.001796396 0.053058993 0.044222
0003e0 9b f4 45 bd 73 3a c4 3d c8 49 ec bd cf f3 0b 3d
       -0.048328977 0.09581461 -0.1153751 0.03416806
0003f0 61 86 90 3d ec fe b2 bd 42 05 0c be fc b7 88 bd
       0.07056881 -0.08740029 -0.1367388 -0.06675717

lstm.bias_hh_l0 f4 [512]
000000 9d 07 0c bd 19 5a 24 3d 73 06 e0 3c b6 3b a4 3b
       -0.034186948 0.040124986 0.027346825 0.005012001
000010 ba 62 ec bd 1d 3b 9e bd a4 f9 0b be 39 4a 1c 3d
       -0.11542268 -0.07726119 -0.13669449 0.03815672
000020 c3 c0 9b bd 3b 48 ce 3b 69 cd 09 bd 1f 10 11 be
       -0.07605126 0.0062952316 -0.03364316 -0.14166306
000030 18 36 2f bc 62 86 f1 bd ab 2b 5f bd 34 57 17 bd
       -0.010694049 -0.117932096 -0.054485004 -0.036948398
000040 34 36 49 3d 50 ef 30 bd 14 e5 95 bb 60 38 4c bd
       0.049123958 -0.043196976 -0.0045744274 -0.04985845
000050 51 80 15 3e b1 5b 95 3d 2b 24 d8 3d a3 67 4f 3d
       0.1459973 0.072928794 0.105537735 0.050635945
000060 4a d7 c5 bc 09 1e f5 bb 46 93 7f 3d 10 7c 85 3c
       -0.02415051 -0.007480387 0.06239631 0.01629451
000070 d6 62 63 bd fd 91 56 bd 1c 9a cd bd bc 97 07 bd
       -0.05551418 -0.05238532 -0.1003916 -0.03310369
000080 e6 9e 13 3d c0 9a 83 38 30 5e be 3d ef a9 75 3d
       0.03604021 6.275391e-05 0.092953086 0.059976514
000090 bf 9b 0c bd 6b 48 df 3b 7c bf 89 bd 9d 4e 92 3b
       -0.03432822 0.006814053 -0.06725976 0.004464938
0000a0 0c fe 1b 3d 0a af b4 3d 79 1b 1c 3d d7 74 b3 bd
       0.038084075 0.088224486 0.038112137 -0.0876252
0000b0 96 29 ea bd fa f8 0c 3d 1c 5d 65 3c 7f fb 6a 3b
       -0.11433713 0.03441713 0.01399925 0.003585547
0000c0 27 33 ce bd a7 9f 86 3b a9 f6 81 bc 10 00 1c b9
       -0.1006835 0.0041083875 -0.015864687 -0.00014877343
0000d0 2a f8 dd 3b 8e 4e 1b 3d a4 59 e3 3d 79 13 00 bd
       0.006773968 0.037916712 0.11101082 -0.03126857
0000e0 87 31 30 bc 3a bf 4d bd 86 72 39 3d 0a 49 4e bc
       -0.010753996 -0.050231196 0.045275234 -0.012590656
0000f0 6d 8c 5c 3c c8 a4 60 bd 9b 06 b2 bd 14 a4 9b 3d
       0.0134612145 -0.054844648 -0.08692666 0.07599655
000100 e6 b5 af bd 1b 83 13 be 96 d8 17 3d 69 56 2a 3d
       -0.08579616 -0.14405482 0.037071787 0.041586313
000110 ab 24 a3 3d 93 29 30 3d c0 66 80 b9 9e 52 82 bc
       0.07965978 0.0430084 -0.00024490617 -0.015908536
000120 cf 54 b9 bd f8 37 f7 bc b9 b9 37 3d d9 59 a7 bd
       -0.09049379 -0.030178055 0.044854853 -0.08171434
000130 5c c5 95 bd 3a 16 a4 3b cf 3c d0 bc 01 01 47 bc
       -0.07313034 0.0050075324 -0.02541962 -0.012146235
000140 b9 ea 96 bd 2a 6e 69 3c 82 40 8f ba d8 63 6c 3d
       -0.073689885 0.014247457 -0.0010929259 0.057712406
000150 5f 43 c6 bc 21 29 ba bd c8 e1 87 bd 28 71 eb 3c
       -0.024202047 -0.09089876 -0.06634861 0.02874048
000160 6d 1f e6 bd 15 03 0f bd e3 70 23 3d d0 49 86 bd
       -0.11236463 -0.03491505 0.03990258 -0.06557047
000170 bd f9 fd 3c cf 18 95 bd 32 05 96 3c 16 27 63 3d
       0.031002874 -0.072801225 0.018313024 0.055457197
000180 eb a8 c1 bd ba 56 b1 bc f8 7d 22 bd 63 45 c1 bd
       -0.09456047 -0.0216478 -0.039670914 -0.094370626
000190 4c e7 8c bd 59 d5 a2 bd 6e 46 c3 bd b3 0d 19 3d
       -0.06880054 -0.07950849 -0.09534918 0.03736658
0001a0 31 fe 70 3d bb 07 25 3d 9e ae 84 bd 05 6d 4e bc
       0.058836166 0.040290575 -0.06478618 -0.0125992345
0001b0 10 c2 7e bd fc c5 0f 3d c1 be 85 3c a1 26 99 bd
       -0.06219679 0.035100922 0.01632631 -0.07478071
0001c0 cf 62 a1 bb 82 4b df 3c 40 b8 99 3d 33 41 80 bd
       -0.004925109 0.027257685 0.07505846 -0.06262436
0001d0 20 0b 32 39 97 30 8c 3c 82 36 33 bd b4 04 7a bc
       0.00016979547 0.017113013 -0.043753155 -0.01525991
0001e0 fb ae a9 bd 66 6e 9a 3d b5 ce c4 bd f9 0d ae bd
       -0.08285328 0.07540588 -0.09609739 -0.08498759
0001f0 db f3 b3 3c 5a 97 aa bc 96 c0 dc bc 04 b6 55 bc
       0.021966865 -0.020824123 -0.0269473 -0.013043884
000200 bf 58 d1 3d e8 e8 1e 3c 87 06 91 bd 67 00 f0 bd
       0.10222005 0.009699084 -0.07081323 -0.11718827
000210 58 65 71 bd 08 fa d5 bc c3 bc a6 bd a9 b9 cc bd
       -0.05893454 -0.0261202 -0.08141472 -0.09996349
000220 44 c8 e8 bd 60 b9 48 b9 d5 5c ce bd 58 a1 c4 bd
       -0.11366323 -0.00019142544 -0.100763 -0.096010864
000230 4a 1a 3c bd 22 70 e8 bd f4 7e e9 3c 9b 59 3d 3d
       -0.04592351 -0.11349513 0.028502919 0.046228033
000240 ae 4f f3 3d 4b 4e 9c bc 96 ed 0f 3e a0 1d 91 bd
       0.11880432 -0.019080302 0.14055476 -0.07085729
000250 98 ad e9 3d e0 42 2b bd 2f ef 86 3d 4f f5 6d bc
       0.114100635 -0.041811824 0.065885894 -0.014523818
000260 ea 80 49 bd 52 05 e4 bd 37 38 de 3d de 6e 8c 3d
       -0.049195208 -0.11133827 0.10850566 0.06857084
000270 ba 2d 0d be 8e d3 28 3c 66 49 89 3d ab da ff bd
       -0.13786975 0.010304345 0.06703453 -0.124928795
000280 f9 4f 99 3c 08 78 ea bd 17 ed 0a 3e 2b 91 e7 3d
       0.018714892 -0.114486754 0.13567005 0.113069855
000290 b2 8e 82 3c d0 5f de bd 94 b2 1a bd ea a1 3c bd
       0.015937183 -0.108581185 -0.03776796 -0.04605285
0002a0 c9 ab b2 3b 3a 50 5e bd 0f 1e e4 bc 0b 05 d6 3c
       0.0054526073 -0.05427573 -0.027846364 0.026125452
0002b0 92 74 cb bd f5 32 78 3d 92 df d6 bc 99 16 e3 3d
       -0.099343434 0.06059547 -0.026229654 0.110882945
0002c0 3b 6a 90 3d 94 ae 6e bd 07 05 44 3c cd cf 3f bd
       0.07051512 -0.05827196 0.011964089 -0.046829034
0002d0 dc d6 db 3c 2a 0f e3 3c bc 6b 3d 3d f3 cf 01 3c
       0.026835851 0.027717192 0.04624532 0.007923114
0002e0 97 84 b4 bd f2 9c 98 bd d1 8c fb 3d 4c 90 5f bc
       -0.08814352 -0.0745181 0.12282718 -0.013645243
0002f0 7a 21 79 3c 88 01 41 3a ef 08 9e bc fe db 8a 3d
       0.015205735 0.0007362594 -0.01929137 0.067802414
000300 2b 66 2b bd ce 0e d7 bd 2d 46 9d 3d 9b d6 95 bd
       -0.04184548 -0.10500871 0.076794006 -0.07316323
000310 50 15 77 3a 85 9e 25 3d bb 1a cc bd d5 ab 97 bc
       0.0009425478 0.04043438 -0.09966036 -0.018514553
000320 88 81 41 bc ea 8a c1 bd fc 4c ac bd fd d0 3e bd
       -0.011810668 -0.09450324 -0.08413121 -0.046586026
000330 22 52 4b bd fc 38 5f bd f6 e3 62 3d a7 8d aa 3d
       -0.049638875 -0.054497704 0.05539318 0.08327799
000340 6a cc 12 3b c7 d7 d1 bd 4b ac 89 bc 46 5b 88 bd
       0.0022399672 -0.102462344 -0.016805789 -0.06658034
000350 ce 79 5d 3c 93 06 a4 bd ce 73 e1 3d b9 42 bd bb
       0.01351781 -0.080090664 0.11008416 -0.005775776
000360 b7 42 bb bd fc 47 02 3d b6 42 e0 3d 9f 94 77 bd
       -0.09143584 0.03180693 0.10950224 -0.06044447
000370 c6 d4 ce bd e9 da c1 3d 61 b9 15 be db 31 67 bd
       -0.10099177 0.09465582 -0.14621498 -0.05644403
000380 df 27 63 3d 17 1b 1b bd 94 02 83 3d f0 40 09 bd
       0.055457946 -0.03786763 0.06396976 -0.033509195
000390 35 f3 08 bd f5 e8 9d bd 0d ff 27 bd c4 64 40 3d
       -0.033435065 -0.07710449 -0.04101472 0.046971098
0003a0 e8 0c 6c bd e6 16 a8 bd aa fc 5a 3d 60 81 da 38
       -0.057629496 -0.082074925 0.053463615 0.00010419148
0003b0 23 1f e7 bb 7a 81 1e bd fa 40 c5 3c 24 64 69 3d
       -0.0070532723 -0.038697697 0.024078835 0.056980267
0003c0 7a 6d d9 bc de 0b 16 3d ec 6e 95 bd ba 5c 59 3c
       -0.02654146 0.03663241 -0.07296547 0.013266737
0003d0 d2 d1 d7 3c 80 71 b4 3d be fa 8d 3c 7f bf ed bb
       0.026345167 0.08810711 0.017331477 -0.007255494
0003e0 68 53 00 3d 87 37 48 bd 88 a9 66 3c af 1f 09 3d
       0.031329542 -0.04888108 0.014078505 0.03347748
0003f0 f6 c8 a0 bc 40 96 83 3c 7c 70 1d bd 0b e9 a6 bb
       -0.019627076 0.016062856 -0.03843735 -0.005093699

fc_block.0.weight f4 [64, 128]
000000 d5 da 79 bd 8a 48 64 bd 6b 95 23 3e 88 7f 9f 3d
       -0.06099971 -0.05573324 0.15974967 0.077879965
000010 4b 3b 9b bd bb 6f 10 3d 79 e6 d0 3d 93 ca cc bd
       -0.075796686 0.035262804 0.10200209 -0.099995755
000020 fd 84 47 bd aa 7d 13 3d e8 2d 40 bd 3e ca 02 bb
       -0.048710812 0.036008514 -0.04691878 -0.0019956972
000030 6a 04 87 3d 2f ab ae bc 63 f4 41 3c 5e 2a 30 3d
       0.06592639 -0.021321861 0.0118380515 0.043009154
000040 85 50 05 3c a3 90 3b bd 79 97 05 3e 94 3e 3d 3c
       0.008136873 -0.045792233 0.13046063 0.011550564
000050 37 ec ad 3d 4a d7 17 3e 1a 81 aa 3d 72 06 6f bc
       0.0849232 0.1482822 0.083254054 -0.014588939
000060 29 19 9c bc 7f 78 9a bd 29 a1 84 bc 15 2f b9 3d
       -0.019054966 -0.07542514 -0.016190128 0.09042183
000070 84 37 07 bb 12 31 c0 3d 34 c8 cd 3d 96 5b 11 be
       -0.0020632455 0.093843594 0.10047951 -0.14195094
000080 f2 51 c2 3b a4 df b0 bd 4d 2d ad 3d ae c8 a4 3d
       0.005930179 -0.08636406 0.08455906 0.08046089
000090 e2 ec 46 bd eb 8b ca 3c 23 db a4 3d bd 28 07 bc
       -0.048565753 0.024724921 0.080496095 -0.008249459
0000a0 1e 4e cb bc f6 f5 b8 bd ae 4d c0 bd 31 72 bf 3d
       -0.024817523 -0.09031288 -0.09389816 0.09347952
0000b0 24 e0 4d bd 09 e8 9c 3d 03 4c ee 3d 7d 5d a4 bd
       -0.050262585 0.07661445 0.11635592 -0.08025644
0000c0 be bd dc bd 29 d8 a1 bd 4f ce b3 bc 53 30 9a bb
       -0.10778378 -0.079025574 -0.021948962 -0.0047054677
0000d0 41 f6 9b 3d d3 9e 88 3d 5c 76 15 be 60 ad 52 bd
       0.076153286 0.06670918 -0.14595932 -0.051434875
0000e0 e2 34 f8 3b 16 7b 2a 3d 0e fb af bd 46 8a d9 bb
       0.0075746635 0.04162129 -0.08592807 -0.006638798
0000f0 44 63 ce bd 48 ba 02 3c 44 98 81 bd d4 fc 49 3d
       -0.10077527 0.007978983 -0.063278705 0.04931338
000100 cf d4 af bc 84 71 19 3c 5a 07 00 3e e5 61 27 bd
       -0.02146378 0.009365443 0.12502804 -0.040864844
000110 6c 80 e4 bd 2d f2 01 3e e0 35 bd 3d fd 9d 64 bd
       -0.11157307 0.12690039 0.092387915 -0.055814732
000120 74 3e 6b 3b 66 03 0c 3d d2 be 47 3d f6 ee d4 3d
       0.003589538 0.03418293 0.048765965 0.10397141
000130 0b ed 31 bc f0 91 12 bd 90 f8 98 3d f4 d3 92 bb
       -0.010859738 -0.035783708 0.074692845 -0.004480833
000140 fc e1 4f 3d 81 c3 38 bd cf a6 4c bb 11 14 ad 3b
       0.050752625 -0.045108322 -0.0031227355 0.005281933
000150 93 6c 0f 3c 2c aa f4 bc 05 ca 82 bd bd 45 d5 3c
       0.008753913 -0.0298663 -0.063861884 0.02603423
000160 65 0c 96 3c 3e 30 8c bd f6 9b a3 3c 75 5c 3a bc
       0.018316457 -0.06845139 0.019971829 -0.011374583
000170 37 cc 0b bd 82 ab f2 3c a9 74 00 3d b7 f8 fe 3d
       -0.0341303 0.029622797 0.031361256 0.12449782
000180 88 00 c6 bc 92 47 00 3c 9f 1d 5a 3b 60 f2 d9 bd
       -0.024170175 0.007829564 0.0033281816 -0.106419325
000190 62 42 be 3d f3 96 1a 3e c5 4e e7 3c 47 8e 6b 3d
       0.09290005 0.15096645 0.028235802 0.057508733
0001a0 55 ae 21 be 02 de 3e 3c 51 0a b3 3b 91 4b e7 3d
       -0.15789159 0.0116496105 0.0054638763 0.1129371
0001b0 a6 e5 16 3e 9b 80 fc bc da 7b 58 3c 0c c6 bf 3c
       0.14736041 -0.030823043 0.013213122 0.023409866
0001c0 0b b8 ea 3d da 7a 48 3d b7 b3 a6 bd 4b 12 1c 3d
       0.11460885 0.048945285 -0.08139747 0.038103383
0001d0 8c df cc 3d 9c b1 ab bc 67 8b 7b bd 32 0d cd bd
       0.10003576 -0.020958714 -0.06141224 -0.100122824
0001e0 dd 84 7d 3d 11 08 b6 bd fc 20 bc 3d d5 a4 ba bd
       0.061894286 -0.08888257 0.09185979 -0.091134705
0001f0 02 aa 4c 3d 3c 5a a7 3d 5d d5 e0 3c 7e 50 cd bc
       0.04996682 0.08171508 0.02744549 -0.025062796
000200 79 e3 ee bd 14 0e 90 3d c9 08 d9 3d ae 87 81 3d
       -0.11664481 0.07033935 0.10597379 0.06324707
000210 4a e2 87 bd c7 38 82 bd 05 6a 02 3e 97 72 02 be
       -0.06634958 -0.06358486 0.12735756 -0.12739025
000220 e8 fb ef bd 00 e9 ad bc 5a 11 e7 bd 67 3b 44 3d
       -0.11717969 -0.021229267 -0.112826064 0.047908213
000230 84 3d 7d bd 84 85 bf bc 83 d3 a0 bc 99 25 71 3d
       -0.061826244 -0.023379095 -0.019632107 0.058873747
000240 b4 7c e7 bd 30 33 c0 3d a8 70 be 3d 76 6e 8e bd
       -0.11303082 0.09384763 0.09298831 -0.069546625
000250 41 c5 f7 3d 98 c7 b6 3d 80 96 25 3d 70 4b 89 3c
       0.1209817 0.08924788 0.04042673 0.016759604
000260 f1 17 fc 3d 27 75 9e 3d 6a 43 98 3d 97 24 15 3e
       0.12309254 0.07737189 0.07434733 0.14564739
000270 ee 95 5f 3b 28 eb 0d 3d 34 19 11 3d 3c 1f 17 3d
       0.0034116465 0.03464809 0.035424426 0.03689502
000280 b9 83 83 3d f2 fe 56 bd 42 74 8b 3d de ad c9 3c
       0.064216085 -0.05248923 0.06809284 0.02461904
000290 bf d1 9a 3d 05 82 2b bd 52 9a 8b 3d d6 49 d4 bd
       0.07559537 -0.041872043 0.06816544 -0.103656456
0002a0 55 34 8b 3d 65 da ff bd 23 70 43 3d 70 b5 ad bc
       0.06797091 -0.12492827 0.047714364 -0.02120468
0002b0 74 2f 02 bd 6b d8 8a 3d 9d b5 c6 3d 68 0c 9e bc
       -0.031783536 0.0677956 0.09702609 -0.019293025
0002c0 63 63 04 be ca fe de bd db da 78 3c 1e d7 aa bd
       -0.12928538 -0.10888441 0.015188898 -0.083418116
0002d0 49 8c b8 3d 9b 70 14 3d 60 8e 83 bd 2e 66 5a bc
       0.09011132 0.0362402 -0.0642364 -0.013330026
0002e0 63 a3 e7 bb 9c 48 2d bc 35 93 06 be 3b 7e 90 3d
       -0.0070690378 -0.010576393 -0.13142093 0.070553266
0002f0 ae ad 17 3d 1c 5c 2c 3d b6 70 f7 bc 92 22 20 bd
       0.03703087 0.04208003 -0.030205112 -0.03909547
000300 7e 85 43 bd e5 02 b7 3d f1 4b 1b 3e 40 65 f2 bc
       -0.04773473 0.08936099 0.15165688 -0.029589295
000310 e2 d1 c1 bd 62 ef 91 3d ed 3f 58 bd cb 74 68 3c
       -0.0946386 0.07125737 -0.05279534 0.014188002
000320 25 06 77 3d 8f b1 75 3d 28 0a c8 3d 0f 99 82 bc
       0.060308594 0.059983786 0.09767562 -0.015942125
000330 92 fa 25 3c 14 5a ef 3c 8c 6e 4e 3d 6e 25 3f bd
       0.010130541 0.029217757 0.050398394 -0.046666555
000340 2f cf d5 bd 00 75 0e bd ee 5e e7 bd 25 6e 57 bd
       -0.10439908 -0.03477955 -0.11297403 -0.052595276
000350 40 6f 43 bd f0 98 08 be bd 07 3b bc 93 8c 56 3d
       -0.04771352 -0.13339591 -0.011415419 0.052380156
000360 07 3c 1d 3d 78 b3 19 be e9 bb 45 3c d3 a4 b6 bd
       0.038387325 -0.15009868 0.012068727 -0.089181565
000370 49 f4 c2 3d 04 06 14 3e 3a 93 55 3c 36 d0 12 3e
       0.0951925 0.1445542 0.01303559 0.14337239
000380 b4 bc 18 be 42 ca 93 3b b6 96 ea 3d b9 a7 e6 bd
       -0.14915735 0.004510195 0.11454527 -0.11262459
000390 ef 8e f7 3c d9 5e bf 3d 16 cd 1e bd 28 c8 22 bd
       0.030219523 0.09344263 -0.038769804 -0.039741665
0003a0 39 90 ca bd fa a5 1e be 92 3a ef 3d 35 ee 29 3d
       -0.098907895 -0.15493003 0.11681093 0.041486938
0003b0 df 6e 10 3e a1 25 11 bd e8 e2 fe 3d ce 9b 6a bc
       0.14104794 -0.035436276 0.12445623 -0.014319373
0003c0 c5 03 e9 3d 1f 99 fe 3d 22 ff c7 bc d2 fa d0 3c
       0.11377672 0.12431549 -0.024413649 0.025510225
0003d0 73 fa cb 3c 0d 2f ce bd a2 40 5e bd cc d1 a0 bc
       0.024899697 -0.10067568 -0.054260857 -0.019631289
0003e0 54 19 0a 3e 3a c9 03 be a9 6a 6e 3d c9 f8 b7 3c
       0.13486224 -0.1286973 0.058207188 0.022457497
0003f0 36 01 c5 bc 07 ad d3 bb 2c fc 6f bd 94 73 d8 bd
       -0.024048429 -0.0064598355 -0.0585901 -0.1056892

fc_block.0.bias f4 [64]
000000 33 9d a4 bd 1e 3e a7 bd 6d ba 1b be ab 10 3f bd
       -0.08037796 -0.08166145 -0.15207835 -0.046646755
000010 f9 ab 15 3b 50 f1 07 be b9 66 6e bd bb a4 c2 bd
       0.00228381 -0.13275647 -0.058203433 -0.09504076
000020 b9 49 28 3d 38 59 ce bc 15 be ca bd bc 19 05 bd
       0.041085932 -0.025189027 -0.098995365 -0.032495245
000030 ac 06 c6 3a 55 78 38 bd ae 54 19 3c 59 34 46 3d
       0.001510819 -0.045036633 0.009358568 0.048389766
000040 e9 a3 07 bd 59 00 e0 bd 21 9c fa bd 14 1c a9 bd
       -0.0331153 -0.10937566 -0.122368105 -0.082573086
000050 03 40 9f bc b8 f8 69 bd c6 ff a5 bd 2f 3b b7 3c
       -0.019439703 -0.057121962 -0.081054255 0.022367088
000060 3e 1f eb bd 08 c1 f1 3c ec 55 1d be 83 2a f2 bd
       -0.11480568 0.02951099 -0.15364808 -0.11824515
000070 42 2d 10 be 42 42 f1 bb 1c 3e 94 bc 46 fd 71 bd
       -0.14079764 -0.007362635 -0.018096022 -0.05907943
000080 04 51 b0 bd a4 59 0b 3d 2a fa 08 be c6 20 c2 bd
       -0.086092025 0.034021035 -0.1337668 -0.09478907
000090 13 ec 56 bd 6e 10 8c 3c 1c 74 e5 3c 7c a2 0a bc
       -0.05247123 0.017097678 0.028009467 -0.008461591
0000a0 bd 5f 9f 3c 80 43 88 3b 32 27 e6 bd 75 da 7b bd
       0.019454831 0.0041584373 -0.11237945 -0.061487634
0000b0 4c 4a 12 be 1f f3 05 be d2 78 c3 bc 1d f0 c9 3c
       -0.14286155 -0.13081025 -0.023861323 0.024650628
0000c0 a1 ed 23 3d 8d 41 31 bd e2 1d aa bd 42 a8 69 bd
       0.040021542 -0.043275405 -0.08306481 -0.05704523
0000d0 6c cd 7a bd 1b 26 e0 bd 94 58 61 bc a9 f8 8e bd
       -0.06123106 -0.10944768 -0.013754029 -0.06981022
0000e0 97 b1 70 3c f7 c4 ed bd 37 ae 2c bd 51 0f ac bd
       0.014690778 -0.11609834 -0.04215833 -0.08401359
0000f0 f4 b6 88 bd 84 8e 98 bd 18 8f 9d bd 08 60 29 3d
       -0.066755205 -0.07449058 -0.076933086 0.04135135
