models/NER/weights/model_lstm_fixed.pt (torch, 346695 bytes, 11 tensors)

embeddings.weight f4 [33, 16]
0	0x00000000	0.0
1	0x00000000	0.0
2	0x00000000	0.0
3	0x00000000	0.0
4	0x00000000	0.0
5	0x00000000	0.0
6	0x00000000	0.0
7	0x00000000	0.0
8	0x00000000	0.0
9	0x00000000	0.0
10	0x00000000	0.0
11	0x00000000	0.0
12	0x00000000	0.0
13	0x00000000	0.0
14	0x00000000	0.0
15	0x00000000	0.0
16	0xbf290d96	-0.66036355
17	0x3fa01c9e	1.2508733
18	0xbf4b173d	-0.79332334
19	0xbcbda8cb	-0.023151776
20	0xbec3399a	-0.38129884
21	0x3dc34427	0.095344834
22	0x3f869cc8	1.0516596
23	0x3fc5a49a	1.5440857
24	0x3e9f1cf5	0.3107678
25	0x3fa1e757	1.2648724
26	0xbd881fbd	-0.066466786
27	0x3fb9a2d4	1.4502816
28	0x3f96d315	1.1783167
29	0x3eb1ff42	0.3476506
30	0xbf86e23c	-1.0537791
31	0xbf2e4d9d	-0.6808718
32	0xbcf4b92e	-0.029873457
33	0x3f049059	0.5178276
34	0x3e14d22b	0.14533298
35	0xbe43dc15	-0.19126923
36	0xbfc5b7cb	-1.5446714
37	0xc003a59b	-2.0569828
38	0xbf961b88	-1.1727152
39	0x3fe78de7	1.809018
40	0xbf30c76e	-0.69054306
41	0xbe9c9afb	-0.3058699
42	0xbec22942	-0.37922102
43	0x3eeb0323	0.4590083
44	0xbe9afaff	-0.3026962
45	0x3edb48ac	0.42828882
46	0x3ee9c225	0.45655933
47	0x3f286074	0.65772176
48	0xbe1909c5	-0.14945133
49	0xbf5623a6	-0.83648145
50	0xbd4f2f49	-0.050582204
51	0xc048281d	-3.1274483
52	0xbe25dba0	-0.16197062
53	0x3ef82267	0.48463747
54	0xbf503516	-0.81331
55	0xbf9654d6	-1.174464
56	0x3fd82a09	1.6887828
57	0xbf5ef56b	-0.8709323
58	0xbfae8179	-1.3633262
59	0x3f7976f6	0.97447145
60	0x3ec0e29e	0.37672895
61	0x3ea28aae	0.3174643
62	0x3eda949b	0.42691502
63	0xbfde4785	-1.7365576
64	0x3dabeeb4	0.083951384
65	0x3f6fce19	0.93673855
66	0x3c41a00b	0.011817942
67	0xbfdb4e75	-1.7133318
68	0x3f52f920	0.82411385
69	0xbf315129	-0.69264466
70	0x3e8d634e	0.27614826
71	0x3ea0f461	0.31436446
72	0x3e8a4531	0.27005914
73	0x3fe540f4	1.7910447
74	0xbff40fad	-1.9067284
75	0x3edd3b66	0.4320938
76	0x3e3e0301	0.18555833
77	0xbec0308b	-0.37537035
78	0xbf134397	-0.5752501
79	0xbf902391	-1.1260854
80	0x3f52c7f0	0.8233633
81	0x400118a8	2.01713
82	0x3f1190e1	0.5686169
83	0xbf10ebe1	-0.5660992
84	0xbd59b57c	-0.053151593
85	0xbdfd0fe0	-0.123565435
86	0xbf9eba9b	-1.2400697
87	0x3f53c232	0.82718194
88	0xbea9c683	-0.33159265
89	0x3f8c8b78	1.0980062
90	0xbe3a38e9	-0.18185772
91	0x3f31d6db	0.6946847
92	0xc004100f	-2.0634801
93	0x3f5bc3ed	0.85845834
94	0x3dce89e2	0.10084893
95	0x3f1256a7	0.5716347
96	0xbefb37ac	-0.49065912
97	0xbf8a4fc5	-1.0805594
98	0x3efe7ebe	0.49706072
99	0x3f0d7427	0.5525536
100	0x3d9fc974	0.07802096
101	0xbf8701cc	-1.0547423
102	0xbf19c2b2	-0.60062706
103	0x3f48a694	0.7837918
104	0x3fe4702c	1.7846732
105	0x3f8b9850	1.0905857
106	0x3f8eba8b	1.1150678
107	0x3f78e295	0.97220737
108	0x3fbf5bca	1.4949887
109	0xbf7a828e	-0.9785546
110	0x3fdb9cf6	1.7157276
111	0x3fcbae10	1.5912495
112	0x3cbf9fd4	0.023391642
113	0x3f12cd3d	0.5734442
114	0x3f8e7b99	1.1131469
115	0xbfb97407	-1.4488534
116	0xbcfd4c88	-0.030920282
117	0xbecf7219	-0.40516737
118	0xbd34b6d0	-0.044119656
119	0x40180da6	2.375833
120	0xbf88b1fb	-1.0679315
121	0x3f5e5490	0.8684778
122	0x3e6c5e9e	0.23082969
123	0x3f9ec206	1.2402961
124	0xbef114df	-0.47086236
125	0xbf077a06	-0.5292057
126	0xbeb42016	-0.3518073
127	0x3fa7a240	1.309639
128	0xbf68a73f	-0.908802
129	0x3fb4415a	1.4082444
130	0xbfd70818	-1.6799345
131	0x3f79b6be	0.9754447
132	0x3e917240	0.28407478
133	0xbedcb213	-0.4310461
134	0x3ebdce6c	0.3707155
135	0xbdb7d8e2	-0.08976914
136	0xbeeab4e0	-0.45841122
137	0xc0193f17	-2.3944757
138	0x3fafbc67	1.3729371
139	0x3e09eab9	0.13468446
140	0xbfd2d814	-1.6472192
141	0xbfbe7eaa	-1.4882405
142	0xbe2d8d65	-0.16948469
143	0xbe54886c	-0.20755166
144	0xbfb107e7	-1.3830537
145	0xbf62fa80	-0.8866348
146	0x3f4ee154	0.80812573
147	0xbe90a94a	-0.28254157
148	0xbf9799a5	-1.1843764
149	0xbf4f47d6	-0.8096899
150	0x3e9d2ec3	0.3069974
151	0xbe9e4638	-0.30912948
152	0xbdaa27c2	-0.083083645
153	0x3e14bce6	0.14525184
154	0xc0018ab5	-2.024091
155	0x3f86d3f1	1.0533429
156	0x3f4f297c	0.80922675
157	0xbf13ea44	-0.57779336
158	0x3f969215	1.1763331
159	0xbf00e4aa	-0.50348914
160	0xbf78e265	-0.9722045
161	0x3c8cfd8b	0.017210742
162	0xbdf673d0	-0.12033808
163	0xbf4c83a3	-0.7988836
164	0x3fe8454a	1.8146145
165	0x3d26fd72	0.040769048
166	0xbf8fb829	-1.1228076
167	0xbf0d06c4	-0.5508845
168	0x3e13fa93	0.14451055
169	0x3dc66588	0.09687334
170	0x4002f5b8	2.0462475
171	0xbf900807	-1.125245
172	0x3ce15a9d	0.027509028
173	0xbf82788a	-1.0193036
174	0x4061f18b	3.5303676
175	0xbea05ebf	-0.31322286
176	0x3db37520	0.08762574
177	0x3fe2c6fb	1.7716974
178	0x3f4fc99f	0.81167024
179	0xbf83bcea	-1.0292027
180	0xbf86233b	-1.0479501
181	0x3fae647a	1.3624413
182	0x3e9ccce5	0.30625072
183	0x3ecf5c7c	0.40500247
184	0x3ef41164	0.47669518
185	0x3f982c0c	1.1888442
186	0xbf148501	-0.5801545
187	0x3f130d50	0.5744219
188	0xbe44011e	-0.19141051
189	0xbf0a03b5	-0.53911906
190	0x3f3f298e	0.7467278
191	0x3f97f8b9	1.1872779
192	0xbc5972bf	-0.0132719865
193	0xbf7b19f3	-0.9808647
194	0x3e639445	0.22224529
195	0x3deac959	0.11464185
196	0x3f86270c	1.0480666
197	0x400bf54b	2.1868465
198	0xbeb01142	-0.34388167
199	0x3f03cfce	0.5148896
200	0xc00ddbcc	-2.2165403
201	0xbf62e85b	-0.88635796
202	0x3da94f8b	0.08267125
203	0xbf8a6004	-1.0810552
204	0xbf2cfd87	-0.6757435
205	0x3fa6a056	1.3017681
206	0x3f1e7733	0.61900634
207	0x3f7c3e3c	0.9853246
208	0xbf59ae80	-0.8503189
209	0x3fb4638b	1.4092878
210	0x3ef934ca	0.48673087
211	0xbfdfdf1f	-1.7489966
212	0x3f450a24	0.769686
213	0x3ed1ff79	0.41015223
214	0x3d9c3009	0.076263495
215	0xc02d5efe	-2.7089229
216	0x3e5c9526	0.2154127
217	0x3f049c11	0.5180064
218	0xbee2c6be	-0.44292253
219	0x3c1478e4	0.009062026
220	0xbfd8c268	-1.6934328
221	0xbfa6d611	-1.3034078
222	0xbd4b9383	-0.049701225
223	0x3ea7dd91	0.3278623
224	0xbfbbf6b7	-1.4684666
225	0xbe891f44	-0.26781666
226	0x3f25c89e	0.6475924
227	0x3f30fdee	0.69137466
228	0x3f0cc1ae	0.5498303
229	0xbdcd2eaa	-0.10018666
230	0xbf8f499a	-1.1194336
231	0xbea97162	-0.33094317
232	0x3f0362f9	0.51322895
233	0xbfec4f21	-1.8461648
234	0xbf33f1f9	-0.70291096
235	0x3f83f0eb	1.0307897
236	0x3efb7e4b	0.4911979
237	0x40140e3c	2.3133688
238	0xbdef8920	-0.116960764
239	0xbe1ed81e	-0.1551213
240	0xbf36fb78	-0.7147746
241	0xbeefca9e	-0.46834272
242	0xbf61251a	-0.8794724
243	0xbf0153e0	-0.5051861
244	0xbe6fd347	-0.2342044
245	0xbec2ef16	-0.38073033
246	0x3f97a008	1.1845713
247	0x400738a9	2.1128333
248	0x3f0dfa17	0.5545973
249	0xbeec959c	-0.46207893
250	0x3eb2589b	0.34833226
251	0xbedfa361	-0.43679336
252	0xbfdd20af	-1.7275599
253	0x3edff260	0.43739605
254	0x3f8570cb	1.0425047
255	0x3f4fd9ea	0.81191885

lstm.weight_ih_l0 f4 [512, 16]
0	0xbcb44290	-0.022004396
1	0x3d4dedae	0.050275497
2	0xbc2a5aa0	-0.010397583
3	0xbd26922c	-0.040666744
4	0x3d3d3932	0.046197124
5	0xbd9fb117	-0.07797449
6	0x3bb807b0	0.005616151
7	0xbc8baa70	-0.017049044
8	0xbda0e194	-0.078555256
9	0xbd31f70e	-0.0434485
10	0xbd20282f	-0.039100822
11	0x3d9a2781	0.07527066
12	0x3cfce17c	0.030869238
13	0xbda29bbb	-0.079398595
14	0x3ce224f0	0.027605504
15	0x3d34b50a	0.044117965
16	0xbca5ad44	-0.020224221
17	0x3d4bd00e	0.049758963
18	0xbd02988a	-0.031883754
19	0x3daa32f5	0.083105005
20	0x3d8fde2f	0.070248
21	0x3d87b09d	0.06625483
22	0xbd15e8e8	-0.03659907
23	0x3c0f9660	0.00876388
24	0x3d653f46	0.055968545
25	0xbd978902	-0.07399179
26	0xbd5ce76b	-0.053931635
27	0x3c92ff34	0.017943956
28	0x3c1665c0	0.0091795325
29	0x3cbe3b80	0.023221731
30	0xbd697704	-0.056998268
31	0x3c634570	0.013871536
32	0xbd9d35f3	-0.076763056
33	0x3d669fe2	0.05630482
34	0x3bc64fb0	0.00605198
35	0xbd8590e8	-0.06521779
36	0x3bba7a20	0.005690828
37	0x3bb65ce0	0.005565271
38	0x3d8fc18d	0.07019339
39	0x3db32235	0.08746759
40	0xbc007700	-0.007840872
41	0xbcca9194	-0.02472762
42	0xbd97bd37	-0.07409137
43	0xbd32dbfe	-0.043666832
44	0xbcb1e344	-0.021714814
45	0xbd34913d	-0.044083823
46	0x3db4bf19	0.088255115
47	0x3d85db07	0.06535917
48	0x3c0e5e80	0.008689523
49	0xbb602d80	-0.0034206808
50	0xbcc228c4	-0.02370108
51	0xb9bd9f00	-0.00036167353
52	0x3cb9a3d4	0.022661127
53	0xbbd80150	-0.0065919533
54	0x3d3411d2	0.043962307
55	0xbb8c8fb0	-0.00428959
56	0x3c4afe40	0.0123897195
57	0xbdae87d8	-0.08522004
58	0x3d3300aa	0.043701805
59	0xbd40ed47	-0.047101285
60	0xbd756388	-0.059909374
61	0x3d11d148	0.035599977
62	0xbd840f18	-0.064481914
63	0xbd7ac67a	-0.06122444
64	0xbd8e851e	-0.06958984
65	0xbcc47b18	-0.023984477
66	0xbbaf8740	-0.005356699
67	0x3daf5075	0.08560268
68	0xbd156e41	-0.0364821
69	0x3d5e29d2	0.0542391
70	0x3d1ebf1e	0.038756482
71	0x3da0762d	0.0783504
72	0x3d99d3fd	0.07511137
73	0xbc286690	-0.010278359
74	0x3be83660	0.00708656
75	0x3d735b7e	0.059413426
76	0x3daa337b	0.083106
77	0x3d6456b6	0.055746756
78	0x3d313c02	0.04327012
79	0x3c2f6210	0.010704532
80	0x3db475d3	0.08811536
81	0x3d7a87c2	0.061164625
82	0xbd19220b	-0.03738598
83	0xbda4c009	-0.0804444
84	0x3d89038b	0.06690129
85	0xbd7df89c	-0.06200467
86	0x3c1fded0	0.0097577125
87	0xbca4e45c	-0.020128421
88	0xbc916ab4	-0.017751075
89	0xbdaa1975	-0.08305637
90	0x3d922627	0.07136183
91	0x3d85c919	0.06532497
92	0x3d5b8da6	0.053601883
93	0xbd9a08bb	-0.075211965
94	0x3cd36510	0.025805026
95	0x3d9662e1	0.073430784
96	0x3c9551e8	0.018227533
97	0x3cf30874	0.029667117
98	0x3c3f3e58	0.011672579
99	0x3d49f416	0.049305044
100	0x3d6822fe	0.056673996
101	0x3d2b3992	0.04180295
102	0xbda11898	-0.07866019
103	0xbd9c09fc	-0.07619092
104	0x3d234ace	0.03986626
105	0xbd8a4636	-0.06751673
106	0x3cd90c20	0.02649504
107	0xbd3c7e64	-0.046018973
108	0x3d25a8ae	0.04044407
109	0xbb84ec70	-0.004056506
110	0xbc221430	-0.009892508
111	0xbc2ad4d8	-0.0104267225
112	0x3da87551	0.08225501
113	0x3d9088db	0.07057353
114	0x3d54dede	0.051970355
115	0xbc93aab8	-0.018025741
116	0x3d81f0d5	0.06344763
117	0xbda018fc	-0.078172654
118	0x3dae1d2b	0.08501657
119	0xbd43dffe	-0.047821037
120	0x3c01a898	0.007913731
121	0xbd322217	-0.04348954
122	0x3d8abecd	0.067746736
123	0x3d6fbce2	0.058529742
124	0x3d007a66	0.03136673
125	0x3d53a99e	0.05167543
126	0x3c36ddd0	0.011161283
127	0x3d0143f8	0.03155896
128	0x3d1bb7da	0.03801713
129	0xbdb4d446	-0.088295504
130	0xbda1c974	-0.07899752
131	0x3d24f25a	0.040270187
132	0xbd8a669e	-0.06757854
133	0x3daa3a5d	0.08311913
134	0x3d99544d	0.07486782
135	0x3d63d16a	0.055619635
136	0x3d844af3	0.06459608
137	0x3c704028	0.014663734
138	0xbcc8fe10	-0.024535209
139	0xbd4bc66d	-0.04974978
140	0xbd25d610	-0.04048735
141	0x3dabd923	0.08391025
142	0x3d91285d	0.07087777
143	0xbc7af980	-0.0153182745
144	0x3db413b9	0.08792824
145	0x3d5ec8de	0.05439078
146	0xbd6b672c	-0.05747144
147	0xbce01404	-0.027353294
148	0xbcfa27e6	-0.030536603
149	0xbc3f1f60	-0.011665195
150	0x3a3d2e80	0.0007216707
151	0xbcec7314	-0.028863467
152	0xbd196b0d	-0.037455607
153	0x3da8dcd3	0.08245244
154	0xbca01d08	-0.019545093
155	0xbccb4210	-0.024811774
156	0xbd96df2a	-0.07366784
157	0x3d8b2351	0.067938454
158	0x3cfe79b8	0.0310639
159	0x3a749a80	0.00093308836
160	0xbdaede36	-0.08538477
161	0x3d012716	0.031531416
162	0x3cd2bc44	0.025724538
163	0x3cfcbfc4	0.03085316
164	0x3dadb305	0.08481411
165	0xbbefe0f0	-0.007320516
166	0xbceb651e	-0.02873474
167	0x3d04fdc6	0.03246858
168	0x3da055c7	0.07828861
169	0xbd9f10ee	-0.07766901
170	0x3daabf0d	0.08337221
171	0x3d3556ea	0.04427234
172	0xbdaeb9cd	-0.085315324
173	0xbc2e79f0	-0.010649189
174	0xbd949e3e	-0.07256745
175	0xbd9be155	-0.07611338
176	0x3d9ee041	0.07757617
177	0x3d95a759	0.0730731
178	0xbd75c5da	-0.06000314
179	0xbd9990d9	-0.074983306
180	0x3daeb4cb	0.08530577
181	0x3d5ede7a	0.05441139
182	0xbc830854	-0.015995182
183	0xbca829b4	-0.020527698
184	0x3d040738	0.032233447
185	0x3cb0dc4c	0.02158942
186	0x3ca9e294	0.020737924
187	0xbd3e382e	-0.046440296
188	0xbc9480b8	-0.018127784
189	0x3d1f3b22	0.038874753
190	0xbd9f1955	-0.077685036
191	0x3d8310f3	0.06399717
192	0xbc6db850	-0.014509276
193	0x3bda7310	0.0066665486
194	0x3ca5f130	0.020256609
195	0x3d7b4662	0.06134642
196	0xbd6a10a0	-0.05714476
197	0x3ca0998c	0.019604467
198	0xbd7c81cd	-0.061647225
199	0x3d6ff86a	0.058586515
200	0xbccf5628	-0.025309637
201	0xbbc64f10	-0.0060519055
202	0xbd90a701	-0.070631035
203	0x3d662e9e	0.0561968
204	0xbd6f21c8	-0.058381826
205	0xbdb1ffbd	-0.08691356
206	0x3d15abd4	0.03654082
207	0xbd6a40c9	-0.05719069
208	0x3c943118	0.018089816
209	0x3d95c0fb	0.07312199
210	0x3da65d1f	0.0812323
211	0xbc84cd68	-0.016211227
212	0x3d3b7996	0.04577025
213	0xba615200	-0.0008595288
214	0x3da336d7	0.07969444
215	0x3bd3bb30	0.0064615235
216	0x3d9fa977	0.07795995
217	0xbd553c9c	-0.052059755
218	0xbc201858	-0.009771429
219	0xbdb3d7d6	-0.08781402
220	0xbdb41cf8	-0.08794588
221	0x3d72090a	0.05909065
222	0x3d38fb32	0.045161434
223	0xbd8c00b0	-0.06836069
224	0x3c8dabcc	0.017293833
225	0xbc5196a8	-0.012792267
226	0x3d7d4cda	0.06184087
227	0x3d0b3b40	0.033992052
228	0x3c366618	0.0111327395
229	0xbd9c310f	-0.07626545
230	0x3d64759a	0.055776216
231	0xbc9b7578	-0.018976912
232	0x3d7fb3ca	0.06242732
233	0xbd27d8a8	-0.040978104
234	0xbbada810	-0.0052995756
235	0x3d69171a	0.056906797
236	0x3d772f42	0.060347803
237	0x3cbc7860	0.023006618
238	0x3d8ba7bd	0.06819103
239	0x3c847fac	0.01617416
240	0xbcdaae04	-0.026694305
241	0xbd8010b6	-0.06253187
242	0x3da2fe4d	0.0795866
243	0xbc8418ac	-0.016125046
244	0x3d937d73	0.07201662
245	0xbda5ff7d	-0.08105371
246	0x3c72f590	0.0148290545
247	0x3ccc39f8	0.024929985
248	0x3a141280	0.00056485087
249	0x3dac050b	0.08399399
250	0x3c5960b8	0.013267688
251	0x3da25009	0.07925422
252	0xbdadeff3	-0.08493032
253	0xbbbf43e0	-0.0058369488
254	0xbd872e0e	-0.06600581
255	0xbced30da	-0.028953958

lstm.weight_hh_l0 f4 [512, 128]
0	0x3aea4280	0.0017872602
1	0xbd014ecb	-0.031569283
2	0x3d016196	0.031587206
3	0x3ced98cc	0.029003523
4	0xbda0a0a2	-0.07843138
5	0x3da8545f	0.082192175
6	0xbd957882	-0.07298376
7	0xbd6bcd1c	-0.057568654
8	0x3cc84b84	0.024450071
9	0xbdb10235	-0.08642999
10	0xbb82e620	-0.003994718
11	0x3d3fa0be	0.046784155
12	0xbd3f4f49	-0.04670647
13	0xbd528e3e	-0.051405184
14	0xbd3e70e7	-0.04649439
15	0xbd0d892e	-0.034554653
16	0xbd17b711	-0.03703982
17	0x3d6f8cca	0.058483876
18	0xbda95530	-0.08268201
19	0x3d47081a	0.04859171
20	0x3d744bbe	0.059642546
21	0x3c42d7d0	0.011892274
22	0x3d2c4e8e	0.042067103
23	0x3d92c1ef	0.07165896
24	0xbd705e0e	-0.058683448
25	0x3daa62d1	0.08319629
26	0x3daf2d6f	0.08553588
27	0xbc0c8680	-0.008576989
28	0x3d47604e	0.048675828
29	0xbc0d9b28	-0.008642949
30	0xbcb15250	-0.021645695
31	0xbcef2ee4	-0.029197164
32	0xbd353c86	-0.044247173
33	0x3d368a6a	0.044565596
34	0x3d1b417e	0.037904255
35	0x3c8eaa98	0.01741533
36	0xbd5ea3bc	-0.054355368
37	0x3ce6224c	0.028092526
38	0x3db46da1	0.088099726
39	0xbc2280d8	-0.009918414
40	0xbd9d95ae	-0.07694565
41	0xbdaf70c2	-0.08566429
42	0xbd99ef18	-0.07516307
43	0x3d68ad32	0.056805797
44	0xbda9b2ac	-0.08286032
45	0xbdaedb3c	-0.085379094
46	0xbd7aba70	-0.061212957
47	0x3c1f2c50	0.009715155
48	0xbd85da76	-0.06535809
49	0xbda5b065	-0.08090285
50	0x3d515f5e	0.05111634
51	0x3c9015ec	0.017588578
52	0xbd590e8a	-0.05299238
53	0x3d5ac2c6	0.053408407
54	0xbd85c124	-0.06530979
55	0x3d7fa516	0.062413298
56	0xbd835d34	-0.064142615
57	0xbd0b8243	-0.034059774
58	0xbc8678c8	-0.016415015
59	0x3d91a71f	0.07111954
60	0x3cc39760	0.023875892
61	0x3d97a703	0.07404902
62	0x3da63d43	0.081171535
63	0xbc7668c8	-0.01503963
64	0xbcd2637c	-0.025682203
65	0x3da9b9eb	0.08287414
66	0xbd97c0b3	-0.07409801
67	0x3b55f240	0.0032645613
68	0xbc0105f8	-0.007874958
69	0xbd8310ef	-0.06399714
70	0xbd0bb13b	-0.034104567
71	0xbb3d7d00	-0.0028913617
72	0x3d3fd556	0.046834312
73	0xbc907aac	-0.01763662
74	0x3d9ea9bf	0.0774722
75	0xbd9b5399	-0.07584304
76	0x3cfd0b00	0.030889034
77	0x3cd9abc4	0.026571162
78	0xbda86d40	-0.08223963
79	0x3d9a64e5	0.07538775
80	0x3da2a57d	0.07941721
81	0x3bbcea90	0.0057652667
82	0xbd83a0aa	-0.064271286
83	0xbb046980	-0.0020204484
84	0x3cc47c6c	0.02398511
85	0xbcdb3fb4	-0.026763774
86	0xbd66a59a	-0.056310274
87	0xbd9e0b94	-0.07717052
88	0x3d448402	0.047977455
89	0x3ca0961c	0.019602828
90	0x3d75712e	0.05992239
91	0xbcd6e504	-0.02623225
92	0xbd4465be	-0.04794859
93	0x3d941107	0.0722981
94	0xbda788ac	-0.08180365
95	0x3d66f85a	0.05638919
96	0x3d7709de	0.060312144
97	0x3c8016e4	0.015635915
98	0xbca973c4	-0.020685084
99	0xb9dc9100	-0.00042069703
100	0xbd775188	-0.06038049
101	0x3d886a47	0.06660896
102	0x3d42c022	0.047546513
103	0x3c844024	0.016143866
104	0xbc062318	-0.008187078
105	0xbd53d766	-0.05171909
106	0x3da41f39	0.08013768
107	0xbdaad49c	-0.08341333
108	0x3d958e97	0.073025875
109	0x3bc38780	0.0059670806
110	0x3b82aea0	0.003988102
111	0xbd90280d	-0.07038889
112	0xbd9e4f5a	-0.07729979
113	0x3db42f17	0.08798044
114	0x3d2fc80e	0.042915396
115	0x3d7207ea	0.05908958
116	0x3c99a2bc	0.018754356
117	0x3c178eb0	0.009250328
118	0x3c8273d4	0.015924372
119	0x3d9c6da3	0.07638099
120	0x3ca03a68	0.0195591
121	0xbdaf77d9	-0.08567781
122	0xbc7b4b40	-0.015337765
123	0x3cce0318	0.02514796
124	0x3cd26880	0.025684595
125	0x3daa0073	0.08300867
126	0x3d81523b	0.06314512
127	0x3ceda350	0.029008538
128	0xbbe8fbd0	-0.0071100965
129	0x3cbd3f98	0.023101613
130	0xbd1e1e5f	-0.038603183
131	0x3dabb8c1	0.083848484
132	0xbd26125d	-0.040544856
133	0x3c829450	0.015939862
134	0x3cb6ff48	0.022338524
135	0xbd00280d	-0.031288195
136	0x3d62685e	0.055275314
137	0x3d83083d	0.06398056
138	0xbdb19fb4	-0.08673039
139	0xbc47d458	-0.012196623
140	0x3d1c93b6	0.038226806
141	0x3d809907	0.06279188
142	0x3d9084b5	0.07056562
143	0xbd48196c	-0.04885237
144	0x3d922ae1	0.07137085
145	0x3d85757b	0.06516548
146	0xbd6b3fad	-0.057433773
147	0xbd9a527f	-0.07535266
148	0xbd3f0666	-0.04663696
149	0xbcf4a636	-0.029864412
150	0xbbdaca70	-0.0066769645
151	0x3d16e512	0.036839552
152	0xbd5095ad	-0.050923992
153	0x3bbee9a0	0.00582619
154	0xbccfe61c	-0.02537828
155	0x3d4eb876	0.050468884
156	0x3d4eca46	0.05048587
157	0x3d194222	0.037416585
158	0xbd36d31c	-0.044634923
159	0xbba3cf90	-0.0049991086
160	0x3d57c176	0.052674733
161	0x3da6c5af	0.08143174
162	0xbd93c67e	-0.07215594
163	0xbccb2d08	-0.024801746
164	0xbd82b233	-0.06381645
165	0xba3fbc00	-0.0007314086
166	0xbcac6300	-0.0210433
167	0x3da5e8cd	0.08101044
168	0xbda972d3	-0.08273854
169	0x3d11e394	0.035617426
170	0xbd0af983	-0.03392936
171	0x3d1bce0a	0.03803829
172	0xbd9c316e	-0.076266155
173	0xbd8e987b	-0.06962677
174	0xbbb890d0	-0.0056324974
175	0xb89f8400	-7.606298e-05
176	0xbd0e5ba7	-0.034755375
177	0xbd6bfbd5	-0.057613213
178	0x3d993f1d	0.07482741
179	0xbc198cc8	-0.009371944
180	0x3d979af1	0.074025996
181	0x3b391700	0.0028242469
182	0x3d180256	0.037111603
183	0xbd6f6a2c	-0.058450863
184	0x3bfed100	0.0077763796
185	0x3dab8bdd	0.08376286
186	0x3d96c5c9	0.07361943
187	0x3bc53920	0.0060187727
188	0x3ce17e94	0.027526177
189	0xbd8db16a	-0.06918605
190	0x3d2b4c42	0.041820772
191	0xbcc507f0	-0.024051636
192	0x39c33f00	0.00037240237
193	0xbd951120	-0.07278657
194	0xbc2a9788	-0.010412104
195	0xbd9d5959	-0.07683057
196	0x3d3344fe	0.043766968
197	0xbd762130	-0.060090244
198	0x3d0eb846	0.034843706
199	0x3c9d00c0	0.019165397
200	0x3bb9ae30	0.0056665167
201	0xbc92c528	-0.017916277
202	0xbd9ed5af	-0.07755601
203	0x3d7c5f7a	0.06161449
204	0xbd3e777a	-0.04650066
205	0xbc230838	-0.00995069
206	0xbb2b6560	-0.0026152954
207	0x3d91fa63	0.071278356
208	0x3cddd1f4	0.027077653
209	0xbca8cc68	-0.020605281
210	0x3cbeedd4	0.023306765
211	0xbd90f0bd	-0.07077167
212	0xbbc89850	-0.0061216727
213	0x3d2ac6f2	0.041693635
214	0x3d6f2232	0.05838222
215	0xbd47f2c0	-0.04881549
216	0x3bd05280	0.006357491
217	0x3c487ea8	0.012237228
218	0xbbd1a8c0	-0.0063982904
219	0x3bf25700	0.007395625
220	0x3d06a190	0.03286892
221	0xbd961c5c	-0.07329628
222	0xbc9e29a4	-0.019306965
223	0x3ca74f54	0.020423569
224	0xbd5d6d26	-0.05405917
225	0x3a9a8f40	0.0011791959
226	0x3c139568	0.009007789
227	0xbd9ca9f0	-0.076496005
228	0xbd37348f	-0.04472786
229	0xbd2dd9d7	-0.042444076
230	0x3d5a5f92	0.0533138
231	0xbcae2348	-0.021257058
232	0x3da123f1	0.078681834
233	0x3cc6b04c	0.024253987
234	0x3d67edc2	0.056623228
235	0x3db3da15	0.0878183
236	0x3bd83550	0.006598152
237	0xbdaf8512	-0.08570303
238	0xbd45149c	-0.048115358
239	0xbd840372	-0.0644597
240	0x3cec3350	0.028833061
241	0xbcb58c88	-0.022161737
242	0xb9b04000	-0.0003361702
243	0x3d87236b	0.06598552
244	0xbda70a9d	-0.08156321
245	0x3c494828	0.01228527
246	0xbd14b80b	-0.03630833
247	0x3d20d49a	0.039265253
248	0x3d4c7ada	0.049921848
249	0xbc2fdf20	-0.0107343495
250	0xbd81c6b0	-0.06336725
251	0x3ce919a0	0.028454602
252	0xbd216e72	-0.03941197
253	0xbda72a36	-0.08162348
254	0xbdb3697b	-0.08760353
255	0xbd1bd41a	-0.038044073

lstm.bias_ih_l0 f4 [512]
0	0xbc0eeea0	-0.008723885
1	0xbbdafe00	-0.006683111
2	0xbc25bba8	-0.0101155415
3	0xbce024b2	-0.027361248
4	0xbdaf54a8	-0.08561069
5	0x3d882903	0.06648447
6	0x3d0e6a04	0.034769073
7	0xbd91483b	-0.07093855
8	0x3d9ad7cd	0.07560692
9	0x3da4e485	0.08051399
10	0x3cfd1958	0.030895874
11	0xbdae8731	-0.085218795
12	0xbd599a94	-0.053125933
13	0x3da483fd	0.08032987
14	0xbd79e17a	-0.061006047
15	0x3ba48c80	0.0050216317
16	0xbd870b86	-0.06593995
17	0x3d14571a	0.03621588
18	0xbd008611	-0.031377856
19	0x3d910e67	0.07082825
20	0xbd730ab0	-0.059336364
21	0xbab08140	-0.0013466254
22	0xbd374e23	-0.04475225
23	0x3d68147a	0.056660153
24	0xbda16cc9	-0.07882077
25	0xbd588970	-0.052865446
26	0x3d8cc753	0.068739556
27	0x3d95adc1	0.073085316
28	0xbcee89ac	-0.029118381
29	0xbc0030d0	-0.007824138
30	0xbd1be707	-0.03806212
31	0xbce43ef4	-0.02786205
32	0x3d96bad5	0.07359854
33	0x3c17e628	0.009271182
34	0x3b5c9120	0.0033655837
35	0xbcdfd4d6	-0.027323168
36	0x3ce9411c	0.02847343
37	0xbcc77e18	-0.024352118
38	0xbd8abe68	-0.06774598
39	0x3ca237bc	0.019801967
40	0x3da8f399	0.082495876
41	0xbcacf760	-0.021114051
42	0xbd5f1d20	-0.054471135
43	0xbcacda04	-0.021100052
44	0x3dacd115	0.08438317
45	0xbb1bd2e0	-0.0023776814
46	0xbc73f0e0	-0.014888972
47	0x39064800	0.00012806058
48	0x3c695170	0.014240608
49	0xbd9714eb	-0.07377037
50	0x3d6f2ab6	0.05839034
51	0x3d6f8d96	0.058484636
52	0x3d1becda	0.038067676
53	0xbd68daea	-0.056849398
54	0x3c621330	0.01379852
55	0x3da75103	0.08169749
56	0xbc930eb8	-0.017951354
57	0x3d87dfd9	0.066344924
58	0x3db357f9	0.08757014
59	0xbc9fef0c	-0.019523166
60	0x3ccb216c	0.02479621
61	0xbd55c0f6	-0.052185975
62	0xbd8a7a05	-0.06761555
63	0xbdac8e02	-0.08425523
64	0xbc252688	-0.010079987
65	0xbc749ab0	-0.0149294585
66	0x3d2a0e56	0.041517578
67	0x3ca081a4	0.019593067
68	0x3cb9e680	0.022692919
69	0xbcc4c144	-0.024017937
70	0xbd777a4e	-0.060419373
71	0xbd0a7154	-0.033799484
72	0xbd98a2e6	-0.074529454
73	0x3c6d3648	0.014478274
74	0xbc374410	-0.011185661
75	0x3d46569e	0.04842245
76	0x3d949007	0.072540335
77	0xbd71eb68	-0.05906239
78	0xbc8afb5c	-0.01696556
79	0xbd61fb5b	-0.055171352
80	0xbd8ba7c1	-0.06819106
81	0xbbdee780	-0.0068024993
82	0x3d95c39f	0.073127024
83	0x3cc76e20	0.024344504
84	0xbd8cd124	-0.06875828
85	0x3cc41e48	0.02394022
86	0xbda0f844	-0.07859853
87	0x3d5a5b66	0.05330982
88	0xbcd138a8	-0.025539711
89	0x3d35e39e	0.044406526
90	0xbd190231	-0.037355606
91	0xbd5ccaf7	-0.0539045
92	0x3daf783b	0.08567854
93	0x3d95f4e1	0.073220976
94	0x3c1b2760	0.009469837
95	0x3da28c45	0.079369105
96	0xbd99f805	-0.07518009
97	0xbd5d48c7	-0.054024484
98	0xbbb4a3e0	-0.0055126995
99	0xbd78dfb9	-0.060760234
100	0x3d06ceae	0.03291195
101	0x3d0783b2	0.03308458
102	0x3cda1d28	0.02662523
103	0x3d64b9ba	0.055841185
104	0xbd8953aa	-0.06705411
105	0x3d839269	0.0642441
106	0xbd934685	-0.07191185
107	0xbd55e273	-0.052217912
108	0xbd6ec518	-0.058293432
109	0xbd8c104c	-0.06839046
110	0xbd4bfd76	-0.049802266
111	0xbd809ab1	-0.06279505
112	0xbd91a2b1	-0.07111109
113	0x3d6959aa	0.056970276
114	0x3cbce3e0	0.023057878
115	0x3da67595	0.08127896
116	0x3babf3d0	0.0052475706
117	0xbd825067	-0.06362992
118	0x3d222086	0.039581798
119	0x3d858819	0.06520099
120	0xbd0a7e2b	-0.03381173
121	0x3d7985be	0.060918562
122	0x3da9259b	0.08259126
123	0x3d9b32a7	0.075780205
124	0x388a7400	6.6019595e-05
125	0x3db4f1f7	0.08835214
126	0xbcc9e5ec	-0.024645768
127	0xbcc5dd74	-0.024153449
128	0xbc987bfc	-0.018613808
129	0xbcdc2cac	-0.02687677
130	0x3d9d698f	0.07686149
131	0x3d6a1a26	0.057153843
132	0x3daab3e3	0.08335092
133	0x3d65b276	0.056078397
134	0x3ca420e8	0.020035222
135	0xbb2657e0	-0.0025381967
136	0x3c997708	0.018733516
137	0xbd0a574f	-0.03377467
138	0xbd08286e	-0.03324168
139	0x3d9f463d	0.07777069
140	0xbda0e532	-0.078562155
141	0x3d95706f	0.07296836
142	0x3c7916f8	0.01520323
143	0x3db3b795	0.0877525
144	0xbc168b68	-0.0091885105
145	0x3c0c8928	0.0085776225
146	0xbd8d02ab	-0.068852745
147	0xbd8e35fc	-0.069438905
148	0xbd738c90	-0.059460223
149	0xbcacb63c	-0.02108299
150	0x3cf69cec	0.030104123
151	0x3d96c4fd	0.07361791
152	0xbda12b12	-0.07869543
153	0x3d2fb70e	0.042899184
154	0xbda59763	-0.08085515
155	0xbd1e9042	-0.038711794
156	0x3d5a6c76	0.053326093
157	0xbd8f534a	-0.06998308
158	0xbd1d8c74	-0.038464025
159	0xbd8e5ba3	-0.06951072
160	0x3d8fec1f	0.070274584
161	0xbcfdf552	-0.031000767
162	0xbcd1b128	-0.02559717
163	0xbd762df6	-0.060102426
164	0xbd52dd81	-0.051480774
165	0xbdacd0fe	-0.084382996
166	0x3c8211fc	0.015877716
167	0x3dadf643	0.08494236
168	0x3d9a9ae5	0.07549075
169	0xbd0e5bda	-0.034755565
170	0x3da87f71	0.082274325
171	0x3d22686a	0.03965036
172	0xbcdb0e2a	-0.026740152
173	0xbc3e26c8	-0.011605926
174	0xbcb550b4	-0.022133209
175	0xbc2dc6c8	-0.010606475
176	0xbc527c28	-0.012846984
177	0xbd4d4298	-0.050112337
178	0x3d5cf5b2	0.05394525
179	0x3d702242	0.05862642
180	0x3cd092b8	0.025460586
181	0x3d8b5d45	0.06804899
182	0x3d62b382	0.055346973
183	0xbd19e9d0	-0.037576497
184	0xbc220ba8	-0.009890474
185	0xbda84a46	-0.082172915
186	0xbbe798b0	-0.0070677623
187	0xbc9107a4	-0.017703839
188	0x3d9b59b1	0.07585467
189	0x3c3b8c18	0.011446975
190	0x3da9008f	0.0825206
191	0x3d825a3d	0.06364868
192	0x3c850b70	0.016240805
193	0x3d8f2983	0.069903396
194	0x3d3198e2	0.04335869
195	0x3c3da930	0.011575982
196	0xbd9d4af1	-0.076803096
197	0xbd82279a	-0.0635521
198	0xbd0cf904	-0.034417167
199	0x3cdd4374	0.027009703
200	0x3da8ff5d	0.08251832
201	0x3d9bfa7d	0.07616136
202	0xbb20bf80	-0.0024528205
203	0xbd77522c	-0.0603811
204	0xbd21d796	-0.03951224
205	0x3d259e52	0.04043419
206	0xbca56610	-0.020190269
207	0x3ce03928	0.027371004
208	0xbc9874e8	-0.018610433
209	0x3c5f5c50	0.013632849
210	0xbd091651	-0.03346855
211	0xbd01cf14	-0.031691626
212	0x3d208b72	0.039195485
213	0xbd76ecd4	-0.06028445
214	0xbd847a29	-0.06468613
215	0x3d5f3406	0.054492973
216	0xbdafb576	-0.08579533
217	0xbd68c0ea	-0.056824602
218	0xbd8476d2	-0.06467976
219	0x3d85285b	0.06501838
220	0xbdaeb384	-0.08530334
221	0x3be1f400	0.006895542
222	0x3d008e74	0.031385854
223	0x3d152fb8	0.03642246
224	0x3ae62640	0.0017559007
225	0x3c5bdfd0	0.01342006
226	0x3c6d8f38	0.014499478
227	0xbd8a016e	-0.06738554
228	0xbd169324	-0.036761418
229	0x3cd53a04	0.02602864
230	0xbd98842c	-0.07447085
231	0x3bd56370	0.006512098
232	0x3abfc440	0.0014630631
233	0xbb15dc40	-0.0022866875
234	0x3dab6ca5	0.08370332
235	0xbc0e6868	-0.008691885
236	0xbd3ab06e	-0.045578413
237	0xbd7aa9fc	-0.061197266
238	0x3c98047c	0.018556826
239	0xbda805b8	-0.08204216
240	0xbb1b8d20	-0.002373524
241	0xbd3fd47d	-0.046833504
242	0xbd52f2fe	-0.051501267
243	0x3cb4b0bc	0.02205693
244	0xbbc4ba60	-0.006003663
245	0xbc9fd00c	-0.019508384
246	0xbda36e68	-0.07980043
247	0x3d2f034a	0.042727746
248	0xbd7a68d2	-0.06113512
249	0xbdb36ddf	-0.087611906
250	0x3d6f26ca	0.0583866
251	0xbd8b88f5	-0.06813232
252	0xbd9d5562	-0.07682301
253	0x3c8a8ad8	0.016911909
254	0x3d99d497	0.075112514
255	0xbd661c45	-0.056179304

lstm.bias_hh_l0 f4 [512]
0	0x3bd4ef20	0.0064982325
1	0x3d3d0d0a	0.046155013
2	0xbcd181bc	-0.025574557
3	0x3d9bf479	0.07614989
4	0x3b427640	0.0029672533
5	0x3d9cc40f	0.07654583
6	0xbd89eee4	-0.06735018
7	0xbbb33150	-0.005468525
8	0x3d13464a	0.035955705
9	0xbc9a3cf0	-0.018827885
10	0x3bebf6a0	0.007201031
11	0xbd52f194	-0.051499918
12	0x3d7c0a4e	0.061533265
13	0xbd9170d6	-0.071016
14	0x3d328dba	0.043592192
15	0x3d9ebc0b	0.0775071
16	0x3bee5330	0.0072731003
17	0x3beab660	0.007162854
18	0x3d256b5a	0.04038558
19	0x3da80dd9	0.08205766
20	0x3d803b2d	0.06261287
21	0xbda3beba	-0.079953626
22	0x3d6e00d2	0.05810625
23	0xbd8f4a4d	-0.069965936
24	0x3cf707e4	0.03015513
25	0xbd7da8e8	-0.06192866
26	0xbda69099	-0.081330486
27	0x3cd67ac8	0.026181594
28	0xbd93ced0	-0.07217181
29	0xbcdcec90	-0.02696827
30	0xbd9fec77	-0.07808774
31	0x3cc52b7c	0.024068587
32	0x3d9440d9	0.07238931
33	0xbcebd0d8	-0.028786108
34	0xbd292905	-0.041298885
35	0x3c37ff90	0.011230364
36	0xbd0df3e8	-0.034656435
37	0xbd9010e3	-0.07034471
38	0x3d9489d9	0.07252855
39	0x3d94e03f	0.07269334
40	0xbda11083	-0.078644775
41	0xbcedc332	-0.02902374
42	0x3d4c10f6	0.049820863
43	0x3dac0a09	0.084003516
44	0xbda8f85d	-0.082504965
45	0xba0ed280	-0.0005448237
46	0x3c3ca170	0.011513099
47	0xbbf277b0	-0.007399522
48	0xbd96d9c6	-0.07365756
49	0x3dafa441	0.08576251
50	0x3d572a92	0.052530833
51	0xbd993f8a	-0.07482822
52	0x3baedca0	0.005336359
53	0x3d042714	0.03226383
54	0x3c5db230	0.013531253
55	0x3d9f4057	0.07775944
56	0x3cc92d20	0.02455765
57	0xbbeedb50	-0.0072893277
58	0xbcd6e110	-0.026230365
59	0xbd8c9047	-0.06863456
60	0xbd80d347	-0.06290298
61	0xbd08b3d2	-0.033374615
62	0x3d56932a	0.05238644
63	0xbd91ad26	-0.071131036
64	0xbd83df5f	-0.06439089
65	0xbd8f6e1b	-0.07003423
66	0xbbba9c60	-0.005694911
67	0xbc30f4b8	-0.010800533
68	0xbbaa3510	-0.005194314
69	0x3d34c74e	0.044135384
70	0xbcffa720	-0.031207621
71	0xbcfd97fc	-0.03095626
72	0xbd3898f6	-0.04506775
73	0x3c94785c	0.018123798
74	0x3c99e1bc	0.018784396
75	0x3da15133	0.07876816
76	0xbbf8a1f0	-0.007587664
77	0xbd220c5a	-0.03956256
78	0xbc7b86b0	-0.015351936
79	0xbdad9c0f	-0.084770314
80	0x3c5e5cc8	0.013571925
81	0x3c2060b0	0.009788677
82	0x3d77d9fa	0.060510613
83	0x3c97c928	0.018528536
84	0x3d94cccd	0.07265625
85	0xbbf77640	-0.0075519383
86	0xbbe7b990	-0.0070716813
87	0x3d6ba0a6	0.057526253
88	0xbcc76220	-0.024338782
89	0x3bdcdf30	0.006740473
90	0xbdb44b2b	-0.088034
91	0xbd827637	-0.06370204
92	0xbd9d2541	-0.07673121
93	0x3db40ba7	0.08791285
94	0x3d7a88ba	0.06116555
95	0x3d8901e7	0.06689816
96	0x3d3b42f2	0.04571814
97	0x3d97cbf9	0.074119516
98	0x3cfb6514	0.030687846
99	0x3d111838	0.035423487
100	0xbd7dcf6f	-0.061965402
101	0xbbd5ea70	-0.0065281913
102	0xbd5124ad	-0.051060367
103	0x3d9b56fd	0.07584951
104	0x3d80c601	0.06287766
105	0x3ce617e0	0.028087556
106	0xbdade912	-0.0849172
107	0xbd7a5cf7	-0.061123814
108	0xbcf7c8bc	-0.030247085
109	0xbd6196db	-0.055075508
110	0xbdaa4c33	-0.08315315
111	0x3cf29940	0.02961409
112	0x3d279296	0.04091128
113	0x3c9d54b0	0.019205421
114	0x39e9ee00	0.00044618547
115	0x3c3e2990	0.011606589
116	0xbd7aa1f0	-0.061189592
117	0xbac28500	-0.0014840662
118	0xbda09a6a	-0.07841952
119	0x3c5ea588	0.01358927
120	0xbd5885b9	-0.052861903
121	0x3c7588f0	0.014986262
122	0xbd909e6c	-0.070614666
123	0x3c64ebd0	0.013972238
124	0xbd9bdfce	-0.07611047
125	0x3d858525	0.06519536
126	0xbd8dcb62	-0.06923558
127	0xbd868354	-0.065680176
128	0xbd74b1ed	-0.059739996
129	0xbda7bcc5	-0.08190302
130	0xbbea2ff0	-0.007146828
131	0x3d33cbd2	0.04389555
132	0xbda94132	-0.08264388
133	0x3cbf4688	0.023349062
134	0x3d5e4202	0.05426217
135	0xbb952cb0	-0.0045524463
136	0x3d3aa042	0.04556299
137	0xbd2655fb	-0.04060934
138	0x3d33b596	0.043874346
139	0xbcfd4a5a	-0.030919243
140	0x3d31eba6	0.043437622
141	0xbd1e9e15	-0.038724978
142	0x3cecd110	0.028908283
143	0xbd729985	-0.05922844
144	0xbd6c38c6	-0.05767133
145	0x3d0117cc	0.031516835
146	0xbd8a3f65	-0.06750373
147	0xbd8d72c6	-0.06906657
148	0xbcf899e2	-0.030346815
149	0x3c6cffe0	0.014465302
150	0x39d35800	0.0004031062
151	0xbdaadbec	-0.08342728
152	0x3d7bb17a	0.06144855
153	0x3d3d8b8a	0.046275653
154	0xbc579870	-0.0131589025
155	0xbd65e959	-0.05613074
156	0xbbd435b0	-0.0064761266
157	0xbd9c7e48	-0.07641274
158	0x3b913a40	0.004431993
159	0x3d9f2697	0.07771032
160	0x3da4ef7d	0.08053491
161	0x3d982ccd	0.0743042
162	0x3d127634	0.03575726
163	0x3b848520	0.00404419
164	0x3db4258f	0.08796226
165	0xbd35f6fd	-0.044425
166	0xbd3d9a0d	-0.046289492
167	0x3da465bb	0.08027216
168	0xbd0aeb95	-0.033916075
169	0xbb1ba380	-0.0023748577
170	0x3cd34604	0.025790222
171	0xbd77f3e7	-0.060535338
172	0xbc2a5b00	-0.010397673
173	0x3db27c43	0.08715107
174	0x3d87028f	0.06592285
175	0xbd48b039	-0.048996184
176	0x3cdafdec	0.026732408
177	0x3c1fc508	0.009751566
178	0x3daaa723	0.0833266
179	0xbd5fbd2f	-0.05462378
180	0x3d6c2882	0.05765582
181	0x3dadbdbf	0.08483457
182	0xbac1c780	-0.0014784187
183	0xbda495cf	-0.08036386
184	0xbd9b6b7f	-0.07588863
185	0xbd94b0ba	-0.072602704
186	0x3d84c571	0.064829715
187	0x3daf718d	0.0856658
188	0x3d2e7c5a	0.04259906
189	0x3cdc7280	0.026910067
190	0x3cdec044	0.027191289
191	0x3d9697f9	0.07353205
192	0x3ccc7f44	0.024963029
193	0x3d7e8ae6	0.062144183
194	0x3ca53468	0.02016659
195	0x3d445146	0.04792907
196	0x3d3f3d6a	0.04668943
197	0x3d59b27a	0.053148724
198	0xbc912784	-0.017719038
199	0xbcd77122	-0.026299063
200	0x3c8bf7b0	0.01708588
201	0x3d5d85d6	0.054082714
202	0xb8d26400	-0.00010032207
203	0xbd9c6acf	-0.076375596
204	0x3c456138	0.012047105
205	0x3d90d3c5	0.07071642
206	0x3db21c3b	0.08696791
207	0xbd815606	-0.06315236
208	0x3d97ecf1	0.0741824
209	0xbd97bc7b	-0.07408997
210	0xbc14c6e8	-0.009080626
211	0x3cd57770	0.026057929
212	0x3d152030	0.03640765
213	0x3c7442b8	0.014908485
214	0x3d2cdcda	0.042202808
215	0x3d74f592	0.059804507
216	0x3d96d151	0.07364143
217	0x3d69f732	0.05712051
218	0xbcbdf4f4	-0.023188092
219	0xbd944610	-0.07239926
220	0xbbf59a10	-0.0074951723
221	0x3d6c365a	0.05766902
222	0x3db37a3b	0.08763548
223	0xbc7d5c28	-0.015463866
224	0x3c6c8d48	0.014437981
225	0xbc8c66dc	-0.01713889
226	0x3c9384d8	0.01800768
227	0xbdad8ad5	-0.08473746
228	0xbd6ffb37	-0.058589187
229	0xbb5af700	-0.0033411384
230	0xbd809690	-0.062787175
231	0x3cfc2054	0.030777134
232	0xbccd37b8	-0.025050983
233	0x3d84ea3b	0.064899884
234	0x3d754f16	0.059889875
235	0x3cd44f30	0.025916666
236	0x3c93e5c8	0.018053904
237	0xbd863149	-0.06552369
238	0xbd523566	-0.051320456
239	0x3d5d82b6	0.054079734
240	0xbdb40635	-0.087902464
241	0xbd61b22b	-0.055101555
242	0x3da37dc7	0.079829745
243	0xbd74d4fc	-0.05977343
244	0x3d463efe	0.048399918
245	0x3c8c7bfc	0.017148964
246	0x3c8143e0	0.015779436
247	0x3d566cca	0.052349843
248	0xba625200	-0.0008633435
249	0x3c7fd240	0.015614092
250	0x3d9454f3	0.07242765
251	0xbdac82b6	-0.08423369
252	0x3dae78c7	0.0851913
253	0xbd903a7c	-0.07042405
254	0x3d957f99	0.07299728
255	0x3cd1ac80	0.02559495

fc_block.0.weight f4 [64, 128]
0	0x3d793792	0.06084401
1	0xbd4345f1	-0.047674123
2	0xbd157a85	-0.036493797
3	0x3aa67240	0.0012698844
4	0x3daba479	0.0838098
5	0x3d39b79a	0.04534111
6	0x3d006f64	0.03135623
7	0x3d690076	0.056885205
8	0xbd5fae7a	-0.054609753
9	0x3da93f5d	0.08264039
10	0x3db32a49	0.087483
11	0x3cb0a8a8	0.021564797
12	0xbda6e1a1	-0.08148504
13	0x3db3d0d5	0.08780066
14	0xbd7891cc	-0.060685918
15	0x3dafcae9	0.08583624
16	0xbb62a000	-0.003458023
17	0xbd9b31b9	-0.07577843
18	0xbd418556	-0.0472463
19	0x3daefd9d	0.08544467
20	0xbd5bdfee	-0.053680353
21	0xbadd3300	-0.0016876161
22	0x3d76ca7a	0.06025169
23	0x3d9e625f	0.077336065
24	0xbc6b0e60	-0.014346689
25	0xbcb63834	-0.022243597
26	0x3d264442	0.04059244
27	0xbd8765bd	-0.06611202
28	0xbd236177	-0.03988787
29	0x3b418ba0	0.0029532686
30	0xbdb497e4	-0.08818033
31	0x3cb40aa4	0.02197773
32	0x3da8777d	0.082259156
33	0x3d0cfe8e	0.03442245
34	0x3d5a9ad2	0.053370304
35	0xbbe25730	-0.006907366
36	0x3c26bb78	0.010176532
37	0x3bf66490	0.007519312
38	0xbd2645dc	-0.040593967
39	0xbba7ce80	-0.0051210523
40	0x3d96c9e1	0.07362724
41	0xbad81a40	-0.0016487315
42	0x3ca2bd9c	0.019865803
43	0xbd13a2a8	-0.036043793
44	0x3dab070f	0.08350956
45	0xbdad9e84	-0.084775
46	0xbd2f4409	-0.042789493
47	0x3d948367	0.072516255
48	0xbba1ef30	-0.0049418435
49	0xbd546da9	-0.051862393
50	0x3db29e85	0.087216415
51	0x3d981071	0.07425011
52	0xbd64da10	-0.055872023
53	0x3d181eaa	0.03713862
54	0xbc738f68	-0.014865734
55	0x3cf005b8	0.029299602
56	0xbcb34b40	-0.021886468
57	0x3d96f319	0.07370586
58	0xbd9ddbaf	-0.07707917
59	0x3d4607d6	0.048347317
60	0xbc455618	-0.012044452
61	0xbcd2eba0	-0.02574712
62	0x3978ac00	0.00023715198
63	0x3d287c0e	0.041133933
64	0x3d40cd2e	0.047070675
65	0xbd1f7535	-0.038930137
66	0xbda4ee83	-0.08053305
67	0xbd53149a	-0.05153332
68	0xbd59d81c	-0.053184614
69	0xbd900a92	-0.07033266
70	0xbb05bea0	-0.002040781
71	0xbd1337eb	-0.035942
72	0x3d98f99f	0.074694864
73	0xbd7432a6	-0.059618615
74	0x3d09829a	0.033571817
75	0xbd9d7a0c	-0.07689294
76	0x3cd65b2c	0.026166521
77	0x3d7666ca	0.06015662
78	0x3da9dffb	0.08294674
79	0x3bf4ab50	0.007466711
80	0x3db1bbcd	0.08678398
81	0xbd8cf366	-0.06882362
82	0x3cf732d0	0.030175596
83	0x3d5c69d2	0.053811856
84	0x3d11c1ca	0.035585202
85	0xbc6dd9a8	-0.014517225
86	0xbd2fe7d4	-0.042945698
87	0x3c1d7fa0	0.009612948
88	0x386e9800	5.6885183e-05
89	0xbda1c36e	-0.078986034
90	0x3cd5ac54	0.026083149
91	0x3da41c7f	0.08013248
92	0xbd8a9baa	-0.06767972
93	0xbd35ee62	-0.044416793
94	0x3c820afc	0.015874378
95	0xbce6d4d4	-0.028177656
96	0xbcd657f4	-0.026164986
97	0xbbd09140	-0.0063649714
98	0x3daf4a3d	0.08559082
99	0x3ce5d5c8	0.02805604
100	0x3d6ec632	0.058294483
101	0xbdaa809e	-0.08325313
102	0x3d4e5db6	0.05038234
103	0xbd0af7b6	-0.03392764
104	0xbc655a40	-0.013998568
105	0x3d5935e6	0.053029917
106	0x3d7a806a	0.06115762
107	0xbd9bc4a8	-0.076058686
108	0x3da9b705	0.08286861
109	0x3d74dce2	0.059780963
110	0xbced16dc	-0.028941564
111	0xbc12fb68	-0.008971073
112	0x3d0889ba	0.03333447
113	0xbc34cc90	-0.0110351
114	0x3c8d10ec	0.017219983
115	0x3d537702	0.051627167
116	0x3daa1f3d	0.083067395
117	0xbbed6060	-0.007244155
118	0x3bc9eaf0	0.00616204
119	0xbc355df8	-0.011069767
120	0xbd46fe48	-0.048582345
121	0xbd9ce214	-0.076603085
122	0xbd2f2f43	-0.04276968
123	0xbda5724f	-0.08078443
124	0xbd34a972	-0.04410691
125	0x3cc7f390	0.024408132
126	0x3da2e607	0.079540305
127	0x3d4d4716	0.05011662
128	0x3da74635	0.08167688
129	0xbce86a4e	-0.028371003
130	0xbd872a1b	-0.06599828
131	0xbdaa114b	-0.083040796
132	0x3a311200	0.00067546964
133	0x3d8a3a99	0.06749458
134	0x3c7d1ff0	0.015449509
135	0xbd1888a5	-0.03723969
136	0xbda2fb48	-0.07958084
137	0x3d4f36f2	0.05058951
138	0x3da8de35	0.08245508
139	0x3d9f0e57	0.07766407
140	0xbd6c63d5	-0.057712395
141	0xbcbfcef4	-0.023414113
142	0x3c96e800	0.018421173
143	0xbd73993d	-0.05947231
144	0xbda2df64	-0.07952765
145	0x3d1e75ba	0.03868649
146	0xbd634bce	-0.055492215
147	0x3d847af5	0.06468765
148	0xbd873c1c	-0.06603262
149	0x3d2de91a	0.04245863
150	0xbd9b712c	-0.07589945
151	0xbd1cf5bb	-0.038320284
152	0x3d0f4026	0.034973286
153	0x3d3b2046	0.045685075
154	0x3d6dfed6	0.05810436
155	0x3d48f9d2	0.049066372
156	0xb93e6a00	-0.000181593
157	0x3db069eb	0.08613952
158	0x3d3debda	0.046367504
159	0x3d9b5927	0.07585364
160	0xbd6484b3	-0.055790614
161	0xbd54aba7	-0.051921513
162	0x3d64647a	0.055759884
163	0xbd4b9fa0	-0.049712777
164	0xbd76222c	-0.060091183
165	0xbd5fcc8d	-0.054638434
166	0x3caca0d8	0.02107279
167	0x3c5df080	0.013546109
168	0xbc6a3710	-0.0142953545
169	0xbd67033d	-0.056399573
170	0x3d2db062	0.04240454
171	0x3d84fc63	0.064934514
172	0xbda7fdc2	-0.08202697
173	0x3d3dd29e	0.04634344
174	0xbd86068e	-0.06544219
175	0xbc2e2cc0	-0.010630786
176	0xbdb3afb6	-0.087737486
177	0x3ca90c98	0.020635888
178	0x3d7fe5e2	0.062475093
179	0xbd93717c	-0.0719938
180	0xba32c700	-0.00068198144
181	0xb904e200	-0.00012672693
182	0xbb322ae0	-0.00271862
183	0x3d39931a	0.045306303
184	0x3d1048b4	0.035225585
185	0xbda62bf5	-0.08113853
186	0x3da4a8dd	0.080400206
187	0xbdadfe46	-0.084957644
188	0xbd6310df	-0.05543601
189	0xbd134ebc	-0.03596376
190	0x3db2922f	0.087192886
191	0x3db2f27d	0.08737657
192	0x3d0b54ce	0.034016423
193	0x3c9fd044	0.019508488
194	0x3dada8cd	0.08479462
195	0x3dadcacd	0.08485947
196	0x3d6ef6e2	0.058340915
197	0xbd5ed9c3	-0.054406893
198	0xbd803da3	-0.06261756
199	0xbcb2d084	-0.021827944
200	0x3cb7df00	0.022445202
201	0x3da71ecb	0.0816017
202	0xbda84540	-0.082163334
203	0xbdaa3613	-0.08311095
204	0xbcb4b238	-0.022057638
205	0x3d3eac86	0.04655125
206	0x3daf3c63	0.0855644
207	0xbc401e80	-0.011726022
208	0xbce76ee8	-0.028251126
209	0x3d62ac6e	0.055340223
210	0xbcfd8050	-0.030944973
211	0x3c9cad80	0.0191257
212	0x3ca56b24	0.02019269
213	0x3d85a9d1	0.065265305
214	0xbcc99ebc	-0.024611823
215	0xbd939214	-0.072055966
216	0x3d98fa51	0.07469619
217	0x3d8687c1	0.06568862
218	0x3d905617	0.0704767
219	0xbced754e	-0.0289866
220	0x3d8dafad	0.06918273
221	0xbd40bbbc	-0.047054037
222	0xbcdf291a	-0.027241278
223	0x3c8715d4	0.0164899
224	0x3d71691e	0.05893814
225	0xbcac75c4	-0.021052249
226	0x3d8a9c9f	0.06768154
227	0xbd278a31	-0.040903274
228	0xbbc45320	-0.0059913546
229	0xbd4a560f	-0.049398478
230	0x3c6c0668	0.014405824
231	0xbd6d3614	-0.0579129
232	0x3da4a979	0.08040137
233	0x3c8ff9f8	0.01757525
234	0xbd4bba24	-0.049738064
235	0x3ca24494	0.019808091
236	0x3db2c1a5	0.08728341
237	0xbd169aa5	-0.036768574
238	0xbd6df194	-0.058091715
239	0xbcc2c464	-0.023775287
240	0xbd12d133	-0.03584404
241	0x3d0cbe90	0.034361422
242	0xbd499945	-0.049218435
243	0xbd31f4e9	-0.043446455
244	0x3da3fe61	0.08007503
245	0xbd7f2702	-0.06229306
246	0xbd722d90	-0.059125483
247	0x3daeff23	0.08544757
248	0xbd576c6e	-0.05259364
249	0xbda8528e	-0.08218871
250	0x3d28495e	0.041085593
251	0x3d2fd352	0.04292614
252	0x3d803d67	0.062617116
253	0xbd799286	-0.06093075
254	0x3ba73980	0.00510329
255	0xbd8c518f	-0.068514936

fc_block.0.bias f4 [64]
0	0xbd253255	-0.040331203
1	0xbd9166ae	-0.07099663
2	0xbd9c3c6e	-0.076287135
3	0x3d9d82a5	0.07690934
4	0x3c66df08	0.014091261
5	0xbccc4578	-0.024935469
6	0x3d76149e	0.060078256
7	0x3d427252	0.047472306
8	0x3d739ff6	0.059478723
9	0x3a397780	0.0007074997
10	0x3d224756	0.039618813
11	0x3d9f101f	0.07766747
12	0x3daf6acd	0.085652925
13	0xbd437346	-0.047717355
14	0xbb851910	-0.0040618256
15	0xbc88f650	-0.016719013
16	0xbdb39fb0	-0.08770692
17	0xbd41b0d9	-0.047287796
18	0xbc6bfcd0	-0.014403537
19	0xbd010180	-0.03149557
20	0x3c7d24e8	0.015450694
21	0x3c504ae8	0.012713172
22	0x3daa5577	0.083170824
23	0x3da160e5	0.07879809
24	0x3daf1361	0.08548618
25	0xbd64bb48	-0.055842668
26	0x3ad2ea40	0.001609154
27	0x3d372cee	0.044720583
28	0x3d914b99	0.07094497
29	0xbd5d71ec	-0.054063722
30	0x3cfcdeac	0.030867897
31	0xbd23d18d	-0.039994765
32	0x3c3cc190	0.011520758
33	0xbc9ce95c	-0.019154243
34	0xbd07d99c	-0.033166513
35	0x3c38f858	0.0112896785
36	0x3d5c129e	0.053728692
37	0xbcf5b7cc	-0.029994868
38	0xbdad9721	-0.08476091
39	0x3c2d81e0	0.010590047
40	0x3d11791a	0.035515882
41	0xbc0dda18	-0.008657955
42	0x3d01c9b6	0.031686507
43	0x3da2d0cb	0.0794998
44	0xbd119f17	-0.03555211
45	0x3c543608	0.012952335
46	0x3da92faf	0.08261048
47	0x3cd53d2c	0.026030146
48	0xbd62497d	-0.055245865
49	0xbaf51a80	-0.0018699914
50	0xbd51ad0a	-0.051190414
51	0xbd0ec717	-0.034857836
52	0x3c85d404	0.016336448
53	0x3d959f53	0.07305779
54	0x3cddfe6c	0.027098857
55	0x3c8e15f4	0.017344452
56	0xbd812283	-0.06305411
57	0xbd3dcdac	-0.046338722
58	0xbcbf5bf4	-0.023359276
59	0x3c90d64c	0.01768031
60	0x3d0bd736	0.034140788
61	0xbccc5aec	-0.024945699
62	0x3d072478	0.032993764
63	0xbd4e861e	-0.050420873

fc_block2.0.weight f4 [32, 64]
0	0xbdd18bc0	-0.10231733
1	0x3de85cca	0.11345823
2	0xbdc2ba64	-0.095082074
3	0x3da48e94	0.08035007
4	0xbd064318	-0.03277883
5	0x3bc20da0	0.0059220344
6	0xbd3913d8	-0.04518494
7	0x3c543360	0.012951702
8	0x3dc69e6c	0.09698185
9	0xbc9743f0	-0.018465012
10	0x3da488d2	0.08033909
11	0xbc97f670	-0.018550128
12	0x3cfc4cd0	0.030798346
13	0x3b8dd700	0.0043286085
14	0xbdf98e10	-0.121852994
15	0x3dfea02c	0.12432894
16	0xbd640548	-0.0556691
17	0x3d8a3800	0.067489624
18	0xbdfc1efc	-0.12310597
19	0xbdbc805a	-0.092041686
20	0x3cab8f70	0.02094242
21	0xbd426978	-0.047463864
22	0x3caf59f8	0.021405205
23	0xbda7d994	-0.081957966
24	0x3ddeb2ae	0.10873924
25	0xbdd79ad0	-0.10527575
26	0xbc6a3b50	-0.014296368
27	0xbd1618ec	-0.03664486
28	0x3d22bc00	0.039730072
29	0xbcdf3550	-0.027247101
30	0xbdac4086	-0.08410744
31	0x3da51486	0.08060555
32	0x3d336fa0	0.043807626
33	0x3df90c0c	0.12160501
34	0xbde29d1e	-0.11065124
35	0xbcb34300	-0.021882534
36	0x3db811d2	0.08987774
37	0x3c9c13f0	0.019052476
38	0xbdd0ab5e	-0.10188936
39	0xbda938a2	-0.08262755
40	0x3df1f8ce	0.11815034
41	0x3cac1458	0.021005794
42	0x3c8c22c8	0.017106429
43	0xbd7dc754	-0.061957672
44	0xbc547090	-0.01296629
45	0x3c900950	0.017582566
46	0xbdb635ba	-0.08896966
47	0x3df8a1e0	0.1214025
48	0x3c164df0	0.009173855
49	0x3dd65fec	0.104675144
50	0x3bb74500	0.0055929422
51	0x3d64d0b0	0.055863082
52	0xbd38c350	-0.04510814
53	0xbdd2e8e6	-0.10298328
54	0x3dd91fe8	0.10601789
55	0x3dff6114	0.12469688
56	0xbd9e1d24	-0.07720402
57	0xbd684408	-0.056705505
58	0x3df0125e	0.11722253
59	0x3db78dc4	0.089625865
60	0xbcd33d68	-0.025786117
61	0x3df5d01c	0.12002584
62	0x3dbf6a14	0.09346405
63	0x3c8ff688	0.01757361
64	0x3db33482	0.087502494
65	0xbd39ce14	-0.045362547
66	0xbd2191a4	-0.039445534
67	0xbd163050	-0.03666717
68	0x3d9512c8	0.07278973
69	0x3cbc7518	0.023005053
70	0x3d1693c0	0.036762
71	0xbb03dc40	-0.0020120293
72	0x3d5883bc	0.052860007
73	0x3d2c90b0	0.042130172
74	0x3de46d10	0.111536145
75	0xbd6890ec	-0.056778833
76	0xbdb3a38e	-0.0877143
77	0xbd84f3e0	-0.06491828
78	0xbd960d5a	-0.07326765
79	0x3db804ac	0.08985266
80	0xbcc9d648	-0.02463831
81	0x3d079008	0.033096343
82	0x3d1fa098	0.038971514
83	0x3c9f4c48	0.019445553
84	0x3dc9c866	0.09852676
85	0xbd7040e0	-0.05865562
86	0x3db30b12	0.08742346
87	0xbc8714f0	-0.016489476
88	0x3df826ee	0.121168
89	0x3cef3690	0.029200822
90	0x3c4be580	0.012444854
91	0x3dc675e4	0.096904546
92	0x3ddf30b6	0.10897963
93	0xbd165068	-0.036697775
94	0xbc118770	-0.0088823885
95	0xbc6c9f50	-0.01444228
96	0x3dde84c2	0.10865165
97	0x3d985e3c	0.07439849
98	0x3d8ec648	0.06971413
99	0x3c3b3c30	0.011427924
100	0xbc90e058	-0.0176851
101	0xbd74bc14	-0.059749678
102	0xbbe195a0	-0.006884292
103	0x3d367e40	0.044553995
104	0xbdd0a7a4	-0.10188225
105	0xbd336aa0	-0.043802857
106	0x3d43568c	0.04768996
107	0x3c60f130	0.013729379
108	0xbdc37262	-0.09543301
109	0xbd972ae0	-0.07381225
110	0xbd3035a0	-0.04301989
111	0x3d47e248	0.048799783
112	0xbd980962	-0.07423665
113	0x3d51fefc	0.051268563
114	0xbdf0efd4	-0.117644936
115	0x3df95a12	0.12175383
116	0xbd812bc4	-0.06307176
117	0x3d7c63f8	0.061618775
118	0x3da20eae	0.07912956
119	0x3d9419e8	0.07231504
120	0x3d4ce1cc	0.050020024
121	0xbd4ba8f8	-0.049721688
122	0xbd8b6c34	-0.068077475
123	0xbcf28490	-0.029604226
124	0x3c8d8138	0.01727353
125	0xbd34dba0	-0.044154763
126	0xbd4fb280	-0.05070734
127	0x3c73aaa0	0.014872223
128	0xbdd757a4	-0.10514763
129	0x3db58e9c	0.08865091
130	0x3a34ec00	0.0006901622
131	0x3c3bcc30	0.011462256
132	0xbd6d677c	-0.05796002
133	0x3d9a5e40	0.07537508
134	0xbd16ebbc	-0.036845908
135	0x3ae04880	0.001711145
136	0xbdb1b5b6	-0.08677237
137	0xbdfb2ff0	-0.12265003
138	0xbd937e0c	-0.07201776
139	0xbdd6f13c	-0.104952306
140	0x3db78b4a	0.08962114
141	0xbd622cd0	-0.055218518
142	0x3cd6eb80	0.026235342
143	0xbc9f7ce8	-0.01946874
144	0x3cb4a008	0.022048965
145	0x3d84fa7a	0.06493087
146	0xbdefb2ce	-0.11704026
147	0x3d08e55c	0.03342186
148	0xbd577158	-0.052598327
149	0xbdae3fc0	-0.08508253
150	0x3db2f670	0.087384105
151	0xbda66eb2	-0.08126582
152	0x3c7caaa0	0.01542154
153	0x3d54b12c	0.051926777
154	0x3de3a5d4	0.111156136
155	0xbde0267a	-0.10944839
156	0x3cc438c8	0.023952857
157	0xbc8e0058	-0.017334148
158	0xbb710f00	-0.0036782622
159	0x3ddebf3a	0.10876317
160	0x3cd1a088	0.025589243
161	0x3df32bbe	0.118735775
162	0xbdb125a6	-0.08649759
163	0x3d0b3580	0.03398657
164	0x3d8fdafe	0.07024191
165	0xbd8f86fa	-0.070081666
166	0x3c04be80	0.008102059
167	0xbdc3d666	-0.09562378
168	0x3da7350c	0.08164415
169	0xbd0e0884	-0.03467609
170	0xbc2eec90	-0.010676518
171	0x3d4c8684	0.04993297
172	0x3d89bf80	0.06725979
173	0x3dfff24c	0.12497386
174	0x3dacb8d4	0.08433691
175	0x3d9a57e8	0.07536298
176	0x3c48bc00	0.012251854
177	0xbd4a6418	-0.049411863
178	0x3c3d7de0	0.0115656555
179	0xbdd52f6e	-0.10409437
180	0x3d0fb284	0.035082355
181	0x3d859df8	0.06524271
182	0x3dc8c79c	0.098036975
183	0xbdcb4356	-0.09924953
184	0x3d266190	0.040620387
185	0xbac9df00	-0.0015401542
186	0x3d5d7360	0.05406511
187	0x3dbf4dee	0.09341036
188	0x3cda9310	0.026681453
189	0x3d0466c8	0.032324582
190	0x3ca08b68	0.019597724
191	0xbd356508	-0.044285804
192	0x3dafa590	0.085765004
193	0x3de81acc	0.11333236
194	0x3db9086a	0.09034808
195	0xbd809244	-0.06277898
196	0x3d88dc4a	0.06682642
197	0xbdeb8efa	-0.1150188
198	0xbd0024dc	-0.03128515
199	0xbda2593e	-0.07927178
200	0xbdb042bc	-0.086064786
201	0x3c5a9800	0.013341904
202	0x3d3d0d44	0.04615523
203	0xbddf3eda	-0.1090066
204	0xbdd800f0	-0.10547054
205	0xbdcd1034	-0.10012856
206	0x3c715670	0.014730081
207	0x3d1108fc	0.03540896
208	0x3c74e980	0.014948249
209	0xbccd55c8	-0.025065318
210	0xbd6aec14	-0.057354048
211	0x3d246084	0.040131107
212	0x3d2df540	0.042470217
213	0x3ddc5d88	0.10760027
214	0xbd6e2a5c	-0.058145866
215	0xbc8c3650	-0.017115742
216	0x3dd1ffca	0.10253866
217	0x3d871580	0.06595898
218	0x3da11e00	0.0786705
219	0x3dabc5ac	0.08387312
220	0x3dc6635c	0.0968692
221	0x3deb6f98	0.11495894
222	0xbb1fe9c0	-0.00244008
223	0xbdc626ee	-0.09675394
224	0xbd90a850	-0.07063353
225	0xbdd30c32	-0.103050604
226	0x3d5c6960	0.05381143
227	0xbdc513ac	-0.09622893
228	0xbd82477a	-0.06361289
229	0x3d1941d0	0.03741628
230	0x3d42ef2c	0.047591373
231	0xbc2e41c0	-0.010635793
232	0x3c2cfe50	0.01055868
233	0x3d5e6e24	0.054304257
234	0xbdb94fe8	-0.09048444
235	0x3dc16606	0.094432876
236	0x3c696c50	0.014247015
237	0xbd140684	-0.036139026
238	0x3da6cc84	0.08144477
239	0xbdb5bb28	-0.08873588
240	0xbd65a258	-0.056063026
241	0x3ca54b90	0.020177633
242	0x3ac6f300	0.0015178621
243	0xbd8df962	-0.069323316
244	0xbd62b7a0	-0.0553509
245	0xbc546720	-0.01296404
246	0x3dc5d63e	0.09660004
247	0x3dae743c	0.08518264
248	0x3cd45888	0.025921121
249	0x3def2888	0.116776526
250	0xbcd114d8	-0.025522634
251	0xbcb0bb70	-0.021573752
252	0xbcff2590	-0.03114584
253	0xbdbfa2c2	-0.093572155
254	0xbde50e26	-0.11184339
255	0xbd4ee158	-0.050507873

fc_block2.0.bias f4 [32]
0	0xbdb9368e	-0.090436086
1	0xbd78dd80	-0.060758114
2	0x3de09644	0.10966161
3	0xbd843b46	-0.06456618
4	0xbb55d740	-0.003262952
5	0xbd7c5cec	-0.061612055
6	0xbd129b64	-0.035792723
7	0x3c32f1f0	0.01092194
8	0x3db15978	0.08659643
9	0xbdbfbe96	-0.09362523
10	0xbde347c6	-0.11097674
11	0xbdd773ac	-0.105201095
12	0x3c638d30	0.013888642
13	0xbd53ebf4	-0.051738694
14	0xbdfb2774	-0.122633845
15	0x3d97357c	0.07383248
16	0x3cb63190	0.02224043
17	0x3c5f11d0	0.013615087
18	0x3d5e5750	0.054282486
19	0x3d523b54	0.05132611
20	0xbdd7afb8	-0.105315626
21	0xbd540b1c	-0.051768407
22	0x3c807b78	0.015683874
23	0x3d08c398	0.033389658
24	0x3ddf6bc8	0.109092295
25	0xbccbd1e0	-0.02488035
26	0x3cbbb620	0.022913992
27	0x3d4ae64c	0.049536034
28	0x3df4de92	0.119565144
29	0xbd2ba624	-0.04190649
30	0xbde8e768	-0.11372262
31	0x3dff060a	0.12452324
