models/NER/weights/model_lstm_fixed.pt (torch, 346695 bytes, 11 tensors)

embeddings.weight f4 [33, 16]
0.0 0.0 0.0 0.0 0.0 0.0 0.0 0.0
0.0 0.0 0.0 0.0 0.0 0.0 0.0 0.0
-0.76071465 0.5501042 0.79461765 -1.6092675 0.72575366 0.27390113 1.416653 0.8511257
0.46848312 -0.21201889 -0.064154476 0.15246972 -1.3070612 0.38395283 0.8902363 0.83657944
0.07557436 -0.690147 -0.83032894 0.6762078 -0.59734637 2.625462 -1.2678449 0.34109896
1.2911489 1.0263995 0.4619125 -0.44344234 -1.5241367 1.5548491 -0.30300063 0.90019953
0.44675106 0.3823688 -0.14885248 -1.9817168 -2.8568444 -0.9620958 0.64549136 0.49178296
-0.8715189 0.7723841 0.5844609 0.06329222 0.080073886 -1.7921884 -0.6092276 1.2797092
0.8664113 -1.9586648 -1.0981191 -0.58538246 1.3029552 -1.3583591 -0.037122626 -1.8575794
0.16406065 1.1853732 -0.094882704 0.78070754 -1.6608859 -0.78926325 0.09808915 0.40981326
0.16433054 -1.4678506 -0.29085022 -0.3136011 -0.34832615 -0.5677908 0.24370736 -1.5504669
1.1745465 -1.0692462 0.5015674 1.3518549 -0.63896203 -0.2773868 0.59064305 -0.2854123
-1.7791884 0.737468 1.6157124 -0.63039154 -1.5298892 1.486207 0.23936327 -1.1245166
-0.7388705 -0.846608 0.48603287 -0.9501943 -0.42210704 -0.21846054 0.31544754 0.8625826
-2.1389914 -1.1672478 1.4296246 2.6180735 -1.2305021 -1.1050055 0.55488575 -0.15609989
-0.22934556 -0.546595 -1.2216998 -0.066459596 -0.61130595 -1.1366231 -1.2374461 0.7898566
-1.2886819 0.015762117 0.64267355 -1.0760185 -0.59907466 -0.027322425 0.95182395 -1.0172348
-2.1071572 1.932145 -0.63395995 0.18359919 -0.23558545 -0.75716066 -0.11157591 -0.87720364
-0.86534375 0.68944013 1.1061304 -1.1977191 -1.3340007 -1.1910235 -0.8735976 1.2854813
-0.8785731 -0.98876524 1.560084 -0.7235094 0.20534538 -1.917395 1.3541182 0.3452902
0.55489045 -0.12036754 -0.53217703 0.1357746 0.9174264 0.5005343 0.7209745 -2.55059
0.61203974 0.446766 -0.75648755 -0.299171 -1.0785275 -0.81049937 0.65578437 -0.0011140034
0.552896 0.7350532 -1.7596488 0.2727491 -1.5293847 -0.065887 -1.0336498 0.91436124
-2.0597153 1.0565901 0.4966086 0.8739523 1.8537482 -0.08707592 1.5594507 0.3218956
0.80356693 -0.21069753 -1.1577728 1.1173275 2.179596 -2.1591065 -0.6157474 -0.29605278
-0.57110935 -0.46313354 1.5085348 0.18435335 -2.0237703 1.0632981 2.1996655 1.9521426
-0.18972299 -0.11096127 -0.41104853 0.5568805 -1.1613859 0.22523773 0.13553399 0.3566658
0.30348963 0.5871477 0.62846 0.8675518 0.4274859 -1.259728 -0.20578471 -1.3944706
1.1589113 1.344939 -1.1524283 -1.3501202 -1.4694247 0.43892416 0.21993838 0.13214947
0.97446656 -0.5672376 -0.19832209 0.66814786 0.42988703 0.42181402 0.09471925 1.2423038
0.32826468 1.0401155 0.22089013 1.1337208 0.65776485 -0.6554014 0.47566277 -0.47999123
-1.3843739 -0.5661026 -0.13746856 -1.5211337 0.19711538 0.17171109 1.6262888 0.4393408
00000000: 0000 0000 0000 0000 0000 0000 0000 0000
00000010: 0000 0000 0000 0000 0000 0000 0000 0000
00000020: 0000 0000 0000 0000 0000 0000 0000 0000
00000030: 0000 0000 0000 0000 0000 0000 0000 0000
00000040: 32be 42bf a1d3 0c3f 106c 4b3f 7afc cdbf
00000050: feca 393f c53c 8c3e e354 b53f 60e3 593f
00000060: 05dd ef3e 7b1b 59be 6c63 83bd 0621 1c3e
00000070: c84d a7bf 7795 c43e 87e6 633f 122a 563f
00000080: bbc6 9a3d 79ad 30bf 7090 54bf f41b 2d3f
00000090: b1eb 18bf 9207 2840 be48 a2bf 86a4 ae3e
000000a0: 5e44 a53f 0f61 833f cc7f ec3e e00a e3be
000000b0: e916 c3bf 4c05 c73f e622 9bbe 7a73 663f
000000c0: 8ebc e43e d8c5 c33e c96c 18be e5a8 fdbf
000000d0: 8ad6 36c0 e94b 76bf ec3e 253f faca fb3e
000000e0: dd1b 5fbf f7ba 453f 3b9f 153f 5a9f 813d
000000f0: c7fd a33d 6e66 e5bf 57f6 1bbf 83cd a33f
00000100: 22cd 5d3f 87b5 fabf 2b8f 8cbf a0db 15bf
00000110: 3cc7 a63f b6de adbf e50d 18bd 29c5 edbf
00000120: 84ff 273e 4fba 973f dd51 c2bd 73dc 473f
00000130: e997 d4bf 280d 4abf f7e2 c83d 0bd3 d13e
00000140: 4446 283e 87e2 bbbf 52ea 94be 5390 a0be
00000150: ce57 b2be bd5a 11bf 6c8e 793e b375 c6bf
00000160: 8a57 963f 0fdd 88bf b966 003f 9509 ad3f
00000170: 0493 23bf a505 8ebe 6234 173f 9021 92be
00000180: 72bc e3bf b4ca 3c3f aacf ce3f 5761 21bf
00000190: 69d3 c3bf 083c be3f a51b 753e 29f0 8fbf
000001a0: 9e26 3dbf 4dbb 58bf 4dd9 f83e ef3f 73bf
000001b0: 6a1e d8be 1fb4 5fbe 5782 a13e 37d2 5c3f
000001c0: 3ce5 08c0 6068 95bf f0fd b63f 848e 2740
000001d0: 1881 9dbf d270 8dbf fe0c 0e3f a6d8 1fbe
000001e0: 90d9 6abe a6ed 0bbf a960 9cbf f81b 88bd
000001f0: 8c7e 1cbf de7c 91bf a264 9ebf 0b34 4a3f
00000200: 87f3 a4bf 8e1f 813c 4186 243f f9ba 89bf
00000210: f55c 19bf 47d3 dfbc bcaa 733f c034 82bf
00000220: aadb 06c0 8750 f73f 334b 22bf 6d01 3c3e
00000230: 503d 71be 48d5 41bf e981 e4bd 6b90 60bf
00000240: 2b87 5dbf 267f 303f ae95 8d3f dc4e 99bf
00000250: 89c0 aabf 7573 98bf 18a4 5fbf a78a a43f
00000260: 2bea 60bf b81f 7dbf d5b0 c73f e937 39bf
00000270: 0f46 523e 336d f5bf bf53 ad3f e1c9 b03e
00000280: 4d0d 0e3f 4283 f6bd c13c 08bf 7f08 0b3e
00000290: 75dc 6a3f 0423 003f c991 383f de3c 23c0
000002a0: a3ae 1c3f 83be e43e 2ba9 41bf f12c 99be
000002b0: 300d 8abf e37c 4fbf 7ce1 273f c003 92ba
000002c0: 988a 0d3f 722c 3c3f 2c3c e1bf c5a5 8b3e
000002d0: e1c2 c3bf c3ef 86bd a34e 84bf 9413 6a3f
000002e0: 60d2 03c0 583e 873f 7b43 fe3e 57bb 5f3f
000002f0: 9f47 ed3f dc54 b2bd 159c c73f 80cf a43e
00000300: 90b6 4d3f 18c1 57be e631 94bf 9604 8f3f
00000310: 807e 0b40 cd2e 0ac0 9fa1 1dbf 3b94 97be
00000320: 3934 12bf d71f edbe ab17 c13f 20c7 3c3e
00000330: 7485 01c0 271a 883f 52c7 0c40 cfdf f93f
00000340: be46 42be aa3f e3bd f474 d2be b88f 0e3f
00000350: 4ba8 94bf b8a4 663e 6cc9 0a3e e69c b63e
00000360: fe62 9b3e 504f 163f c1e2 203f e017 5e3f
00000370: 6fdf da3e c43e a1bf 3ab9 52be 037e b2bf
00000380: 3557 943f f626 ac3f c582 93bf bdd0 acbf
00000390: 1c16 bcbf abba e03e 8737 613e 3152 073e
000003a0: a476 793f 7c36 11bf f214 4bbe bd0b 2b3f
000003b0: 271a dc3e 02f8 d73e 2bfc c13d d003 9f3f
000003c0: 4f12 a83e 8122 853f 0631 623e c31d 913f
000003d0: 4763 283f 63c8 27bf 128a f33e 69c1 f5be
000003e0: 2a33 b1bf 1aec 10bf 8fc4 0cbe 82b4 c2bf
000003f0: 9dd8 493e 08d5 2f3e 3b2a d03f 47f1 e03e

lstm.weight_ih_l0 f4 [512, 16]
0.029664852 0.00090801436 -0.06158019 -0.06430512 -0.10394297 0.03773067 -0.05440273 -0.058262743
0.022138158 0.039243456 0.03178311 0.03400238 0.080208205 -0.10458136 0.03139707 -0.022733532
0.08324516 -0.0217736 -0.08500561 -0.054567643 -0.058760688 -0.04709773 -0.014711542 -0.090640716
-0.03263213 0.05326004 -0.027737256 0.046005722 0.06827872 -0.06812059 -0.01229095 0.033935316
-0.03460783 -0.0077857403 -0.083965436 0.12279835 -0.033072196 -0.031836193 -0.039205752 -0.112507604
0.006511789 -0.07180209 -0.021811705 -0.11922185 0.099064454 -0.044578772 -0.06070906 0.0407956
0.063674785 0.01644317 -0.14803316 0.05675913 -0.0759923 -0.14018917 -0.116640136 -0.11711964
-0.060106255 0.013880425 0.1168779 -0.07333431 0.0058657415 -0.09332108 -0.07038814 0.016790414
0.046579435 -0.10769302 0.015704812 0.0034285504 0.062140353 -0.0012873479 0.008961114 -0.08216618
0.032202054 -0.029019266 -0.033294782 -0.03902291 -0.03164024 -0.055650573 -0.015191732 -0.052891687
0.061531313 -0.059725806 -0.024205944 -0.031275995 -0.122025505 -0.026865087 -0.112110235 -0.050373387
-0.09032064 0.1620067 0.059385158 0.08119096 0.040026683 0.01156877 -0.064628944 -0.021984803
0.0079428665 -0.11969804 0.00044567557 0.10423596 0.00559764 -0.088194996 -0.124635465 -0.021329885
-0.043006774 -0.002442218 0.06035159 -0.05394194 0.026183955 -0.02379469 -0.018802505 -0.04435234
0.08387658 -0.015511744 0.0029233964 0.10453872 0.003365525 0.09884722 -0.033127952 -0.08832764
-0.077182844 0.094013214 0.08376886 -0.07032182 0.11275 0.008456057 -0.0033857082 -0.100595474
-0.034448862 0.010867689 -0.02128043 0.05530612 -0.11005424 0.045212477 -0.033691693 -0.03825286
-0.1155121 -0.044743583 -0.13804282 -0.053048003 -0.04948795 -0.057452284 -0.105905965 -0.095174775
0.044633456 0.019142283 -0.06713249 -0.03571653 0.07323679 0.039022405 -0.0994249 -0.062149044
0.028229615 0.07029044 0.0016695661 0.02443068 0.026164528 -0.076898 -0.035257973 0.041332904
-0.05004774 0.029920772 -0.04246143 0.0989246 -0.07847421 -0.108594 0.029016234 -0.07654725
-0.077340804 -0.09321319 0.13003257 -0.018722586 -0.017757144 -0.12474219 0.025159087 0.086891316
-0.07293197 -0.07042158 -0.04651346 -0.062147412 0.08647189 -0.028064433 -0.07984714 0.026916161
-0.032358106 -0.02949318 -0.03789188 0.024766665 -0.0240003 0.058468163 0.06451655 0.0040833354
-0.084360145 -0.049212668 -0.020338973 -0.0140412375 -0.0059020594 0.13469633 0.012318118 0.0027428132
-0.038595386 -0.007904999 -0.05344072 -0.07124617 0.07271754 -0.033043902 -0.09861734 0.003242186
-0.0065177474 -0.13001937 -0.01744498 0.11556901 -0.029225497 0.09598629 0.040590644 -0.12503359
0.013990227 0.062299587 0.012301992 -0.036155943 0.10075112 0.063230895 0.028770372 0.015754763
-0.013220613 0.001869637 -0.08492187 0.14801343 -0.10221515 -0.14946382 0.007829752 -0.0978405
-0.13297294 0.0612272 0.05539806 -0.05850981 0.10198517 -0.017269572 0.025575718 -0.105466835
0.06261959 0.006419233 -0.09148801 0.026878936 -0.07801077 -0.12177397 -0.055125766 -0.043751307
-0.10262634 0.14131287 0.08262054 -0.17696069 0.18598469 -0.13010176 -0.07206986 -0.038490787
00000000: b403 f33c d007 6e3a 823b 7cbd 67b2 83bd
00000010: 0de0 d4bd 7a8b 1a3d 66d5 5ebd eaa4 6ebd
00000020: 155b b53c bfbd 203d 022f 023d 1446 0b3d
00000030: 3344 a43d c12e d6bd 379a 003d ac3b babc
00000040: 707c aa3d 8c5e b2bc 6c17 aebd 5282 5fbd
00000050: 0caf 70bd 8de9 40bd ae08 71bc d7a1 b9bd
00000060: 45a9 05bd 3327 5a3d 3e39 e3bc 7f70 3c3d
00000070: b7d5 8b3d cf82 8bbd fb5f 49bc c2ff 0a3d
00000080: f1c0 0dbd 861f ffbb 12f6 abbd b47d fb3d
00000090: b676 07bd ab66 02bd 3696 20bd 636a e6bd
000000a0: d860 d53b f90c 93bd 76ae b2bc 962a f4bd
000000b0: 4ee2 ca3d 3b98 36bd 10aa 78bd 4919 273d
000000c0: ed67 823d d4b3 863c 0196 17be 437c 683d
000000d0: daa1 9bbd c08d 0fbe 06e1 eebd 6cdc efbd
000000e0: fa31 76bd b96a 633c ae5d ef3d 4c30 96bd
000000f0: 6835 c03b 1f1f bfbd a827 90bd 0d8c 893c
00000100: 14ca 3e3d 288e dcbd 61a7 803c 88b1 603b
00000110: e286 7e3d 3abc a8ba a3d1 123c be46 a8bd
00000120: 4de6 033d d0b9 edbc 1c60 08bd 7dd6 1fbd
00000130: 3299 01bd dbf1 63bd bee6 78bc f4a4 58bd
00000140: 4208 7c3d 0ca3 74bd 8b4b c6bc 421b 00bd
00000150: 82e8 f9bd 2c14 dcbc 0d9a e5bd 5354 4ebd
00000160: 07fa b8bd 16e5 253e da3d 733d 7247 a63d
00000170: 05f3 233d f08a 3d3c 2e5c 84bd 7919 b4bc
00000180: cc22 023c 3f24 f5bd 90a9 e939 aa79 d53d
00000190: 686c b73b 949f b4bd e140 ffbd 03bc aebc
000001a0: df27 30bd 9e0d 20bb 3b33 773d 39f2 5cbd
000001b0: bc7f d63c 15ed c2bc b607 9abc cdaa 35bd
000001c0: 7cc7 ab3d f824 7ebc 7496 3f3b 6518 d63d
000001d0: 2490 5c3b 6970 ca3d 2db1 07bd 1fe5 b4bd
000001e0: 0a12 9ebd 008a c03d 028f ab3d e304 90bd
000001f0: 79e9 e63d 468b 0a3c c2e2 5dbb 0005 cebd
00000200: 401a 0dbd 640e 323c 4c54 aebc ac88 623d
00000210: 1e64 e1bd b830 393d 4d00 0abd 08af 1cbd
00000220: 9c91 ecbd 0c45 37bd 195b 0dbe dd48 59bd
00000230: e0b3 4abd 1653 6bbd 3ae5 d8bd feea c2bd
00000240: 92d1 363d 47d0 9c3c c27c 89bd 7f4b 12bd
00000250: 2cfd 953d f5d5 1f3d 489f cbbd ff8f 7ebd
00000260: cb41 e73c 6ff4 8f3d 58d5 da3a d922 c83c
00000270: fe56 d63c b37c 9dbd aa6a 10bd b14c 293d
00000280: dcfe 4cbd 681c f53c 09ec 2dbd fb98 ca3d
00000290: 16b7 a0bd 8866 debd 74b3 ed3c cec4 9cbd
000002a0: db64 9ebd 8fe6 bebd 4227 053e 1c60 99bc
000002b0: 6e77 91bc d578 ffbd 6e1a ce3c 13f4 b13d
000002c0: 5b5d 95bd 3039 90bd e684 3ebd 498e 7ebd
000002d0: 2d18 b13d 62e7 e5bc e686 a3bd 487f dc3c
000002e0: ef89 04bd ae9b f1bc 8434 1bbd 76e3 ca3c
000002f0: 479c c4bc 507c 6f3d 4121 843d 80cd 853b
00000300: 03c5 acbd 3993 49bd eb9d a6bc 380d 66bc
00000310: 1066 c1bb d6ed 093e eed1 493c c5c0 333b
00000320: 3216 1ebd f883 01bc a8e4 5abd 83e9 91bd
00000330: efec 943d 0b59 07bd e3f7 c9bd db7a 543b
00000340: d492 d5bb cc23 05be c6e8 8ebc 72af ec3d
00000350: 4f6a efbc 7694 c43d 6042 263d ce08 00be
00000360: 4437 653c da2d 7f3d 4b8e 493c 4118 14bd
00000370: 9a56 ce3d 337f 813d d8af eb3c 2210 813c
00000380: 459b 58bc 9c0e f53a 84eb adbd d590 173e
00000390: 2d56 d1bd 0b0d 19be 5c48 003c 9a60 c8bd
000003a0: 0f2a 08be 5fc9 7a3d 13e9 623d fca7 6fbd
000003b0: 9add d03d eb78 8dbc 2b84 d13c fffe d7bd
000003c0: b33e 803d 6e58 d23b 115e bbbd 3731 dc3c
000003d0: 1cc4 9fbd a264 f9bd 8ecb 61bd 9234 33bd
000003e0: c22d d2bd 52b4 103e f534 a93d 2f35 35be
000003f0: c572 3e3e 6539 05be 5d99 93bd 84a8 1dbd

lstm.weight_hh_l0 f4 [512, 128]
0.0006915623 -0.02065336 -0.015480356 0.059646446 -0.009568666 0.11555957 -0.07302955 0.07474613
-0.05095918 0.0751845 -0.0932624 0.0065967534 0.025486235 0.021195913 -0.018732375 -0.049629718
-0.03227698 -0.036320195 -0.06453829 0.029916227 -0.14087674 -0.025741866 -0.017520752 0.05478227
-0.01623933 -0.04550824 0.083964214 -0.027486702 -0.06755038 -0.0028392824 0.051024437 -0.022691462
0.05771447 -0.018927574 -0.03601735 -0.02514348 0.005765266 0.01289973 0.1227971 -0.020054782
-0.10216765 -0.018416487 0.10424928 0.03228179 0.04944466 0.09104233 -0.07379603 -0.03139371
0.06875357 -0.077825986 -0.079314 -0.013212912 0.033735853 0.03279386 -0.033099532 -0.0032640607
0.041283634 -0.06880344 0.07236614 0.06995509 0.036230665 -0.02484562 -0.019850178 -0.042344153
0.05823848 0.04101654 -0.04949751 0.052163973 -0.016075762 0.012256309 -0.034809314 0.048107732
0.027922746 0.04921754 -0.07943089 -0.026090126 0.11794626 -0.059265845 0.06029838 -0.06890394
0.019792154 0.03831143 -0.030952284 -0.069838084 -0.033404645 -0.039467387 -0.0022332235 -0.027596127
-0.12208212 0.087162524 0.007006788 0.009960805 -0.008702635 -0.028922359 0.09965806 -0.014954831
0.04913952 0.10544732 0.0033652997 0.11680523 -0.06997968 -0.09162406 -0.04261667 0.04610615
0.009338183 0.009652458 0.12384611 -0.046826907 -0.010468558 -0.044340167 0.042988766 -0.01801685
0.059809648 -0.044399302 0.051195532 0.04284955 0.005619842 -0.0384411 0.03420759 -0.085115515
-0.012910749 0.08179393 0.05237801 0.0016761537 0.045237828 0.0593994 -0.06994612 0.08190747
0.06251705 0.0027435988 -0.032427605 -0.02924302 0.066149965 0.018770387 0.03326527 0.059847657
-0.06734075 0.015476631 -0.018278476 -0.018996365 0.053478226 0.07789518 -0.024739886 -0.083047524
0.06920191 -0.08731099 0.08550179 0.11065348 -0.13170585 -0.030058024 -0.015092695 -0.05243357
-0.03678732 -0.068294995 0.0886015 -0.036875375 -0.034158073 0.05992234 0.057715856 0.0018552346
-0.08779465 -0.12514591 0.04917627 -0.06498358 -0.002074299 0.062435143 0.056382895 -0.14153391
-0.10967523 0.09318767 -0.0069526443 0.074128516 -0.0004920787 -0.018940695 -0.00083835726 -0.05228176
0.10188033 -0.08303473 -0.0045454996 0.019340202 -0.0878571 -0.00556464 -0.047724687 -0.037482448
0.06871685 -0.017237768 0.11217797 -0.08932082 0.08212331 0.007437121 0.06799453 -0.03736464
-0.018390162 -0.020048523 0.1127107 0.07190397 -0.011342155 0.08020201 -0.0619599 0.06443308
0.10290633 0.0007454946 -0.093745925 0.08354638 0.1079638 -0.095087655 -0.03324599 -0.022761831
-0.043322932 -0.023585811 -0.04317199 0.017831774 0.10782659 -0.06076352 0.013595394 -0.053244647
0.012472862 0.037791226 -0.06568359 0.09651016 0.04862546 0.011416428 -0.056534667 -0.06401196
0.12491926 0.06779512 0.05806407 0.13603151 0.07354403 -0.085500516 -0.100180365 0.022172727
0.0357855 0.04278659 0.085836805 -0.05179203 0.022008153 0.022031972 -0.027158754 -0.055341132
-0.02848539 -0.08399358 0.03730301 0.008349011 -0.0068447553 -0.03954581 -0.082430035 -0.10541603
-0.009627612 -0.040346302 0.029081523 -0.0022509375 -0.028651932 0.05766033 0.026195176 -0.05996323
00000000: f649 353a 3c31 a9bc 52a1 7dbc d54f 743d
00000010: e5c5 1cbc 7faa ec3d 8490 95bd 8014 993d
00000020: 93ba 50bd 55fa 993d 5b00 bfbd 9429 d83b
00000030: 82c8 d03c 0da3 ad3c a374 99bc 8848 4bbd
00000040: de34 04bd 7cc4 14bd a72c 84bd e012 f53c
00000050: fe41 10be 9be0 d2bc ae87 8fbc 6063 603d
00000060: 5808 85bc d966 3abd 6ef5 ab3d cb2b e1bc
00000070: db57 8abd 4113 3abb 00ff 503d 72e3 b9bc
00000080: 0266 6c3d 000e 9bbc ee86 13bd b3f9 cdbc
00000090: 8eea bc3b 6459 533c 0c7d fb3d ed49 a4bc
000000a0: 463d d1bd 2cde 96bc a680 d53d e939 043d
000000b0: 7c86 4a3d 6774 ba3d 5f22 97bd b196 00bd
000000c0: acce 8c3d 3b63 9fbd 616f a2bd f87a 58bc
000000d0: 9b2e 0a3d db52 063d 6093 07bd dae9 55bb
000000e0: 0719 293d d1e8 8cbd b334 943d 9d44 8f3d
000000f0: 9b66 143d 0b89 cbbc d79c a2bc 1071 2dbd
00000100: 798b 6e3d f600 283d e7bd 4abd e4a9 553d
00000110: 51b1 83bc b0ce 483c 3694 0ebd 9d0c 453d
00000120: 3ebe e43c 5598 493d aaac a2bd f6ba d5bc
00000130: cf8d f13d bec0 72bd 6ffb 763d 821d 8dbd
00000140: 2823 a23c 72ec 1c3d a58f fdbc 4507 8fbd
00000150: 4fd3 08bd 8ea8 21bd 465b 12bb 4611 e2bc
00000160: 3106 fabd 4482 b23d 3399 e53b a532 233c
00000170: 7f95 0ebc 95ee ecbc 8619 cc3d 1c05 75bc
00000180: 8546 493d c4f4 d73d 5c8c 5c3b 9537 ef3d
00000190: 8251 8fbd 65a5 bbbd d18e 2ebd cdd9 3c3d
000001a0: 2eff 183c 5825 1e3c 08a3 fd3d 92cd 3fbd
000001b0: 5184 2bbc 099e 35bd fd14 303d 1398 93bc
000001c0: f6fa 743d 0bdc 35bd 68b2 513d 0283 2f3d
000001d0: a726 b83b 6a74 1dbd 421d 0c3d 0b51 aebd
000001e0: 9b87 53bc 9383 a73d 538a 563d 63b2 db3a
000001f0: 4d4b 393d c94c 733d e93f 8fbd 1bbf a73d
00000200: f008 803d f3cd 333b cfd2 04bd 0f8f efbc
00000210: a279 873d 5bc4 993c 2a41 083d d122 753d
00000220: f2e9 89bd b291 7d3c bebc 95bc 449e 9bbc
00000230: fc0b 5b3d 8287 9f3d 4dab cabc d214 aabd
00000240: bbb9 8d3d 1bd0 b2bd 901b af3d 4b9e e23d
00000250: e6dd 06be 3f3c f6bc 5a47 77bc 95c4 56bd
00000260: 4dae 16bd 3fde 8bbd b474 b53d a20a 17bd
00000270: 56e9 0bbd 2171 753d 7667 6c3d 582b f33a
00000280: aecd b3bd 4026 00be 0e6d 493d 1c16 85bd
00000290: f6f0 07bb febb 7f3d c0f1 663d 44ee 10be
000002a0: 689d e0bd 2dd9 be3d 02d3 e3bb b1d0 973d
000002b0: d8fe 00ba 8429 9bbc 34c5 5bba 6625 56bd
000002c0: a2a6 d03d 1d0e aabd 6af2 94bb 586f 9e3c
000002d0: 6cee b3bd 9557 b6bb f67a 43bd 3287 19bd
000002e0: 6bbb 8c3d 3836 8dbc 90bd e53d d6ed b6bd
000002f0: 4430 a83d 18b3 f33b b740 8b3d aa0b 19bd
00000300: f7a6 96bc cd3c a4bc ded4 e63d 6342 933d
00000310: 72d4 39bc f440 a43d aac9 7dbd 7ef5 833d
00000320: 8ec0 d23d 4c6d 433a ddfd bfbd 5d1a ab3d
00000330: 201c dd3d 51bd c2bd f22c 08bd 0577 babc
00000340: 6373 31bd 0837 c1bc 1dd5 30bd f113 923c
00000350: 30d4 dc3d 2be3 78bd 37bf 5e3c 0f17 5abd
00000360: fa5a 4c3c f9ca 1a3d 1e85 86bd 1ea7 c53d
00000370: 7e2b 473d f80b 3b3c e590 67bd b418 83bd
00000380: abd5 ff3d 2bd8 8a3d 97d4 6d3d d84b 0b3e
00000390: 419e 963d e51a afbd 5d2b cdbd 94a3 b53c
000003a0: d193 123d fe40 2f3d 35cb af3d e123 54bd
000003b0: 714a b43c 657c b43c 097c debc 62ad 62bd
000003c0: 315a e9bc d304 acbd 0acb 183d 4aca 083c
000003d0: f849 e0bb cafa 21bd 14d1 a8bd 5ce4 d7bd
000003e0: 22bd 1dbc 2a42 25bd 603c ee3c 7784 13bb
000003f0: 75b7 eabc 3d2d 6c3d 4497 d63c 019c 75bd

lstm.bias_ih_l0 f4 [512]
0.029377801 -0.07368473 -0.10924693 -0.01876812 -0.11141593 0.04092614 -0.002533427 0.004135093
0.04335879 -0.07213093 -0.06105875 -0.027929824 0.040427472 -0.12194791 -0.091559574 0.022025378
-0.107029006 -0.070345074 -0.11521268 -0.084558666 -0.057466388 -0.026091376 0.02165359 -0.0689147
0.011700161 -0.07984368 0.04334101 0.046662096 0.12375979 -0.016114468 -0.09806526 -0.023201782
-0.06567923 -0.03359154 -0.11157953 -0.044560056 0.027640019 -0.07461807 -0.092215516 0.026482496
-0.022084996 -0.10573924 -0.13093817 -0.0058842218 -0.08456561 -0.032350108 0.0058787647 0.03738376
0.033802185 0.018247977 -0.050268557 -0.038624197 0.035131395 0.060635924 -0.05833146 -0.06651015
-0.00845344 0.018337464 -0.026575059 -0.089316115 0.034460116 0.0022897213 0.045325935 -0.1473904
-0.084738865 0.014294785 -0.057818934 0.049818557 -0.023677258 -0.07522297 -0.04003498 -0.056889545
-0.0553758 0.010963848 -0.062314115 -0.10288493 -0.0030161021 0.050664302 -0.020026702 -0.035492532
-0.051994357 0.007918605 0.05274671 0.014602782 -0.063433774 0.047429454 -0.0861479 0.03648026
-0.05814304 -0.0626065 -0.050560266 -0.00896505 -0.024419133 -0.0041852416 -0.08312681 -0.05229705
-0.04878312 0.03836967 -0.014368713 -0.11526449 0.01689466 0.03688414 -0.08163802 -0.13703507
0.052672673 0.05121159 0.07207788 -0.1096456 -0.010942998 -0.11616668 0.0034594117 -0.12727292
0.048737198 -0.041693576 -0.1196509 0.03452417 -0.04546039 -0.00744659 0.04245633 0.015239814
0.0032018628 -0.091368854 -0.08651009 -0.07781188 -0.09048412 0.015884593 -0.041860934 0.017607098
0.026736643 -0.04263691 0.030136168 -0.07738069 -0.06363083 -0.0233051 0.002134848 0.09549422
0.06035709 0.067563035 0.050734375 0.03813065 -0.039855428 0.0018403393 0.05030925 -0.10005836
-0.053629097 0.01032121 -0.032003857 -0.09627194 -0.041001398 -0.10363183 -0.0048492495 -0.049792655
-0.025725039 0.0037515787 0.05951173 0.022881798 0.03664624 0.017586436 0.0044186334 -0.08438575
-0.03175297 -0.038245436 -0.046685822 -0.071037576 -0.07754466 -0.08140105 0.021095427 0.06815697
-0.056889508 0.03328051 -0.116087474 0.027618937 0.038430117 -0.086687095 0.028619422 -0.104675785
-0.0516792 0.05873615 -0.10573761 0.0008844272 -0.03541431 -0.080131434 -0.017019387 -0.015274541
0.008542451 0.06472938 -0.047792047 -0.05839027 -0.034712035 -0.08054631 -0.0236029 -0.028147656
0.07537879 0.016442876 -0.13275512 0.009697982 -0.052238293 -0.0030009826 -0.09082399 -0.038334593
-0.0069152657 -0.09515968 0.003319106 0.014757529 -0.07074818 -0.07353188 0.059436433 0.039964963
0.15363553 0.0036672712 -0.080787726 -0.03388105 0.030658921 0.01670857 0.022705916 -0.04164754
-0.06002883 0.04241356 -0.0779326 0.02016874 0.032430965 -0.09771537 -0.03269634 -0.061980322
-0.041493054 -0.07791609 -0.10705466 0.011121215 -0.05743645 -0.022874521 -0.10885227 0.021248892
0.10553518 0.0074914224 -0.025123201 -0.061199263 -0.01757011 -0.056611117 -0.024316957 0.024922466
-0.058116168 0.0034749573 -0.08502597 0.024365101 0.008051439 -0.04951552 -0.05083045 0.008111417
-0.008332991 -0.023608828 -0.058218203 -0.071249664 -0.08165841 -0.015924763 -0.09082625 0.0391199
00000000: b7a9 f03c 05e8 96bd dbbc dfbd 9abf 99bc
00000010: 092e e4bd 2ba2 273d da07 26bb ad7f 873b
00000020: fd98 313d 62b9 93bd bd18 7abd 16cd e4bc
00000030: 4797 253d d3bf f9bd 9683 bbbd 916e b43c
00000040: 0632 dbbd 1411 90bd a0f4 ebbd 182d adbd
00000050: e061 6bbd 95bd d5bc df62 b13c 2623 8dbd
00000060: 08b2 3f3c 1585 a3bd 5886 313d c120 3f3d
00000070: c675 fd3d 7d02 84bc 70d6 c8bd aa11 bebc
00000080: d582 86bd 4897 09bd cf83 e4bd 9b84 36bd
00000090: 526d e23c 5cd1 98bd 7ddb bcbd d2f1 d83c
000000a0: 98eb b4bc d18d d8bd a814 06be 6ed0 c0bb
000000b0: bc30 adbd 8c81 04bd a7a2 c03b b71f 193d
000000c0: 2974 0a3d c87c 953c 67e6 4dbd 6834 1ebd
000000d0: f0e5 0f3d 605d 783d f8ec 6ebd 7936 88bd
000000e0: 4c80 0abc 7338 963c f0b3 d9bc 5eeb b6bd
000000f0: 0d26 0d3d 260f 163b b0a7 393d 82ed 16be
00000100: 928b adbd ad34 6a3c 8cd3 6cbd 8b0e 4c3d
00000110: cff6 c1bc 800e 9abd b8fb 23bd 0305 69bd
00000120: bcd1 62bd b6a1 333c 163d 7fbd 56b5 d2bd
00000130: cca9 45bb 5f85 4f3d 0a0f a4bc 9e60 11bd
00000140: 09f8 54bd 09bd 013c ef0c 583d 8240 6f3c
00000150: 91e9 81bd 6345 423d 4f6e b0bd 536c 153d
00000160: 6527 6ebd d637 80bd 4818 4fbd 25e2 12bc
00000170: a20a c8bc 5a24 89bb 643e aabd 6e35 56bd
00000180: cfd0 47bd 8429 1d3d c06a 6bbc ca0f ecbd
00000190: ac66 8a3c d313 173d d631 a7bd ec52 0cbe
000001a0: 4dbf 573d 3fc3 513d 919d 933d df8d e0bd
000001b0: 434a 33bc cce8 edbd 4cb7 623b d553 02be
000001c0: a8a0 473d e2c6 2abd 880b f5bd 3769 0d3d
000001d0: ad34 3abd 8602 f4bb b0e6 2d3d 6ab0 793c
000001e0: 58d6 513b 981f bbbd 342c b1bd d65b 9fbd
000001f0: bd4f b9bd 6820 823c 5f76 2bbd c33c 903c
00000200: ce06 db3c 0aa4 2ebd 20e0 f63c c479 9ebd
00000210: e150 82bd 56ea bebc cee8 0b3b 7992 c33d
00000220: ff38 773d 7d5e 8a3d d9ce 4f3d e22e 1c3d
00000230: 723f 23bd 8a37 f13a 1211 4e3d 66eb ccbd
00000240: 2faa 5bbd 4b1a 293c 7a16 03bd 392a c5bd
00000250: 15f1 27bd ed3c d4bd 74e6 9ebb 62f3 4bbd
00000260: 51bd d2bc 0cdd 753b 92c2 733d 9c72 bb3c
00000270: 5e1a 163d 6e11 903c 2fca 903b 70d2 acbd
00000280: 670f 02bd 3fa7 1cbd a239 3fbd 267c 91bd
00000290: bccf 9ebd 98b5 a6bd 51d0 ac3c e295 8b3d
000002a0: f904 69bd 2551 083d 45bf edbd 1c41 e23c
000002b0: e668 1d3d 0189 b1bd 4773 ea3c 4260 d6bd
000002c0: 92ad 53bd 5195 703d f68c d8bd e8d8 673a
000002d0: 980e 11bd f31b a4bd 3e6c 8bbc 1242 7abc
000002e0: a3f5 0b3c d690 843d 98c1 43bd a32a 6fbd
000002f0: 352e 0ebd 77f5 a4bd de5a c1bc ea95 e6bc
00000300: 3260 9a3d 36b3 863c f5f0 07be 49e4 1e3c
00000310: d2f7 55bd 22ac 44bb ee01 babd bc04 1dbd
00000320: 7499 e2bb 14e3 c2bd 5c85 593b 90c9 713c
00000330: 6ce4 90bd e297 96bd 9e73 733d 4db2 233d
00000340: a252 1d3e 9a56 703b 0974 a5bd dbc6 0abd
00000350: 6b28 fb3c 69e0 883c c201 ba3c 9c96 2abd
00000360: cae0 75bd d7b9 2d3d 219b 9fbd ea38 a53c
00000370: 55d6 043d ff1e c8bd 99ec 05bd 14df 7dbd
00000380: 9ff4 29bd 7992 9fbd 793f dbbd c235 363c
00000390: 7c42 6bbd 5963 bbbc f0ed debd 2812 ae3c
000003a0: d422 d83d 9b7a f53b 2ccf cdbc 14ac 7abd
000003b0: 31ef 8fbc 0fe1 67bd 5b34 c7bc 332a cc3c
000003c0: 380b 6ebd 1cbc 633b 1922 aebd 5299 c73c
000003d0: 2fea 033c c9d0 4abd 9733 50bd c0e5 043c
000003e0: 1987 08bc 4d67 c1bc 3676 6ebd 58eb 91bd
000003f0: 863c a7bd a674 82bc 1d03 babd 303c 203d

lstm.bias_hh_l0 f4 [512]
0.031649504 -0.01092012 -0.119679384 -0.101837054 -0.05533917 0.002584969 0.00225044 0.014401766
0.033703085 -0.1044004 0.10232995 0.037099935 -0.005698 -0.090025924 -0.026974622 0.021511648
0.009558998 0.010946655 -0.05047256 0.01754124 0.0686698 0.06666212 -0.05488511 -0.017906059
-0.058902375 -0.034475736 -0.09003842 -0.017045802 0.06571155 0.033568196 0.021955 -0.10310297
0.0036818346 -0.03756485 -0.14979695 -0.016604083 -0.06112375 -0.05247236 0.029600851 0.001512263
0.05294651 -0.061599247 -0.023034617 0.090107955 -0.063327365 0.036681816 -0.111533545 0.042857766
0.050465018 0.061814137 0.03733528 -0.06737822 0.02960211 0.039487526 0.046966985 0.0462812
0.07827584 0.03890967 -0.07393877 -0.024875183 -0.106341384 -0.09505656 0.01789892 -0.14068267
0.060753513 0.034025755 -0.09763915 -0.08942283 -0.11600704 -0.08551794 -0.07077541 -0.094770186
-0.056777935 -0.0063978434 -0.0029707507 -0.10687767 -0.14011402 -0.06454734 0.04697729 -0.031826645
-0.030304268 -0.10267351 -0.003616126 -0.016688501 -0.053613927 -0.04522983 -0.0492211 -0.10691964
0.005263902 -0.036480896 0.009965073 -0.031067157 -0.13272397 0.056829907 0.020344168 0.029690383
-0.067203805 -0.07879358 -0.0013415476 -0.117075115 -0.07025956 -0.11390773 0.04187375 -0.076360546
0.06205208 -0.04209466 -0.044887677 -0.1074258 -0.06952539 0.0070643625 -0.12166053 -0.09337136
-0.028631909 -0.14447474 -0.12306395 -0.0237808 0.0033035178 0.033427693 -0.03346005 0.049351152
-0.054008823 -0.03862283 -0.095629126 -0.09056548 -0.10933801 -0.099799864 -0.0463446 -0.05233519
-0.0089509105 -0.09608599 0.06326622 0.021185264 0.061787948 -0.12325674 -0.07779419 0.06614836
0.073727645 -0.040552374 0.08436697 0.039933212 0.053281453 -0.093373075 -0.04620307 0.03140206
-0.08635 -0.025697444 0.05108498 -0.12075179 0.019820556 -0.051193725 0.029120285 0.0074262414
-0.023007106 0.06210968 0.0097350245 -0.03746734 -0.002709103 -0.050918512 -0.0038219653 0.03469095
-0.08252735 -0.11016634 -0.010086909 0.046240404 0.006250024 0.053534944 -0.011864851 -0.045777265
0.010014934 0.03612212 0.05670985 -0.093509056 -0.03679701 -0.043559488 0.046063546 -0.04003421
0.03935021 0.049177777 -0.001986721 0.05128082 -0.047136173 -0.108187206 -0.05790507 0.045414872
-0.07058929 -0.01897096 -0.040264793 0.045308944 -0.00018148078 -0.04874662 0.0011373002 -0.10858123
0.000799265 -0.03168238 -0.0193648 -0.071597345 -0.042166267 0.03767194 0.031169899 0.0375295
-0.016636584 -0.060039856 0.01409525 -0.1338527 -0.10248782 -0.08083907 -0.06906675 0.01138346
0.040963728 0.02537146 -0.0453651 0.0571295 -0.083352774 -0.032730512 -0.03485861 0.012501737
-0.040570162 -0.060595483 0.0014569208 -0.017626358 -0.05498917 -0.03724208 0.098669626 -0.046967264
-0.036462925 -0.017733876 -0.02479384 0.026558233 -0.06276831 -0.08228094 -0.014648772 0.015301763
-0.045735627 0.07046729 0.029460493 0.009922261 -0.014556463 -0.08853372 -0.004759541 -0.099832304
-0.08882489 0.027496593 -0.10576023 -0.06491264 -0.04855076 0.058008093 -0.01974189 -0.005168201
-0.035893183 -0.017905857 0.0019941053 -0.050826423 -0.08055012 0.0796653 0.0072460114 -0.07045277
00000000: e9a2 013d 4eea 32bc 771a f5bd f28f d0bd
00000010: 53ab 62bd 9568 293b 1e7c 133b 62f5 6b3c
00000020: 3f0c 0a3d e0cf d5bd 5d92 d13d 1af6 173d
00000030: 4ab6 babb 835f b8bd e2f9 dcbc 3239 b03c
00000040: 589d 1c3c 9959 333c 51bc 4ebd a6b2 8f3c
00000050: c1a2 8c3d 2686 883d 36cf 60bd baaf 92bc
00000060: 9e43 71bd 6e36 0dbd 1066 b8bd a3a3 8bbc
00000070: c793 863d ce7e 093d f9da b33c a627 d3bd
00000080: ef4a 713b 9add 19bd 5f64 19be 4905 88bc
00000090: e65c 7abd 42ed 56bd 7c7d f23c 2037 c63a
000000a0: 71de 583d 7e4f 7cbd 18b3 bcbc 858a b83d
000000b0: c7b1 81bd ac3f 163d b36b e4bd a08b 2f3d
000000c0: 68b4 4e3d d230 7d3d e1ec 183d 98fd 89bd
000000d0: 2080 f23c acbd 213d 7460 403d 5b91 3d3d
000000e0: 154f a03d bf5f 1f3d 366d 97bd 0ac7 cbbc
000000f0: 83c9 d9bd 04ad c2bd c2a0 923c 1e0f 10be
00000100: add8 783d 975e 0b3d 09f7 c7bd 5123 b7bd
00000110: 1995 edbd 0824 afbd b3f2 90bd df16 c2bd
00000120: fb8f 68bd 00a5 d1bb edb0 42bb aee2 dabd
00000130: 0d7a 0fbe 6531 84bd 426b 403d a85c 02bd
00000140: a840 f8bc 7d46 d2bd 87fc 6cbb 53b6 88bc
00000150: 479a 5bbd ea42 39bd 109c 49bd aff8 dabd
00000160: cf7c ac3b fe6c 15bd 8c44 233c 8d80 febc
00000170: cbe8 07be 7ac6 683d d0a8 a63c 3f39 f33c
00000180: 26a2 89bd 875e a1bd ded6 afba 14c5 efbd
00000190: 3fe4 8fbd 7548 e9bd cf83 2b3d eb62 9cbd
000001a0: 522a 7e3d 736b 2cbd 24dc 37bd 0f02 dcbd
000001b0: 5463 8ebd 2b7c e73b 2829 f9bd 7c39 bfbd
000001c0: 778d eabc 30f1 13be f408 fcbd f4cf c2bc
000001d0: d57f 583b 7aeb 083d 680d 09bd 6f24 4a3d
000001e0: 5b38 5dbd f932 1ebd 34d9 c3bd 657a b9bd
000001f0: 9bec dfbd df63 ccbd d6d3 3dbd 6d5d 56bd
00000200: d7a6 12bc bbc8 c4bd b891 813d b88c ad3c
00000210: 5c15 7d3d 086e fcbd 8f52 9fbd cb78 873d
00000220: 85fe 963d 3f1a 26bd 97c8 ac3d 0291 233d
00000230: a73d 5a3d 623a bfbd 6e3f 3dbd 729f 003d
00000240: 45d8 b0bd 7283 d2bc 7c3e 513d b74c f7bd
00000250: b85e a23c 83b0 51bd aa8d ee3c d457 f33b
00000260: 6679 bcbc b866 7e3d a77f 1f3c 5a77 19bd
00000270: 358b 31bb ee8f 50bd f079 7abb 1918 0e3d
00000280: 1904 a9bd e49e e1bd 9043 25bc 9466 3d3d
00000290: 00cd cc3b 7547 5b3d cb64 42bc f180 3bbd
000002a0: ae15 243c caf4 133d 9648 683d ad81 bfbd
000002b0: 76b8 16bd 6f6b 32bd 21ad 3c3d e9fa 23bd
000002c0: b02d 213d a36e 493d a633 02bb d60b 523d
000002d0: dc11 41bd 4191 ddbd de2d 6dbd f204 3a3d
000002e0: 1e91 90bd fd68 9bbc b2ec 24bd df95 393d
000002f0: e04b 3eb9 89aa 47bd 7611 953a d65f debd
00000300: c485 513a 62c5 01bd eea2 9ebc a1a1 92bd
00000310: 89b6 2cbd e44d 1a3d 0458 ff3c 88b8 193d
00000320: 7249 88bc 5aec 75bd c3ef 663c af10 09be
00000330: 22e5 d1bd f48e a5bd de72 8dbd b181 3a3c
00000340: 95c9 273d cfd7 cf3c c1d0 39bd 9f00 6a3d
00000350: dcb4 aabd 6e10 06bd e7c7 0ebd 16d4 4c3c
00000360: e62c 26bd f832 78bd 26f6 be3a 2765 90bc
00000370: 533c 61bd 278b 18bd 4d13 ca3d bf60 40bd
00000380: 265a 15bd a246 91bc 731c cbbc a790 d93c
00000390: ac8c 80bd e982 a8bd 6701 70bc 3fb4 7a3c
000003a0: 4855 3bbd 2851 903d 2257 f13c fb90 223c
000003b0: 3b7e 6ebc 2b51 b5bd ecf5 9bbb e174 ccbd
000003c0: d3e9 b5bd 8940 e13c d298 d8bd ebf0 84bd
000003d0: 29dd 46bd e599 6d3d beb9 a1bc 035a a9bb
000003e0: bb04 13bd 4eaf 92bc 89af 023b 5e2f 50bd
000003f0: 76f7 a4bd 9027 a33d f36f ed3b 8b49 90bd

fc_block.0.weight f4 [64, 128]
-0.0066566383 -0.037240237 -0.08430198 0.035992153 -0.007606567 0.023748564 -0.085577786 -0.049824048
-0.017883126 0.025527533 -0.06345806 -0.03549313 -0.033833005 -0.06619249 0.04085606 0.043851316
0.05437524 0.0708914 -0.05565642 0.093812294 -0.11321081 -0.049348507 -0.008700037 0.0106524695
-0.0039006046 0.00729555 -0.030302282 0.016874727 -0.05330858 -0.11572859 -0.09016691 0.029089645
0.06545612 -0.011680997 -0.006430449 -0.08036636 -0.09791425 -0.012539999 0.03719256 -0.084773734
0.019358223 0.09821421 0.07417359 0.12205619 -0.05287883 -0.05740106 -0.018538952 -0.0054410314
-0.0149489 0.025258213 -0.07776579 0.0049023204 -0.07824548 0.044338442 0.10252419 0.006762999
0.12064628 -0.024929492 0.13764735 -0.06837496 0.09714071 0.026777681 0.036469102 -0.056715365
-0.055174395 -0.051192116 0.017502079 0.056247625 0.10774866 0.004344726 -0.05742905 0.046769794
0.12077245 -0.08595724 -0.13113931 0.11177508 0.09031497 0.02781934 -0.0029436655 0.019165706
-0.096161805 -0.051273987 0.048308253 0.049410973 0.062714115 -0.09500406 0.08441575 -0.056238014
-0.12264276 0.042559464 -0.040534925 0.047538433 -0.0833462 -0.084882915 -0.0049009267 -0.008446103
0.13607493 0.08124984 -0.013015455 0.1097412 -0.009049777 -0.087169066 -0.023565 0.04205205
-0.07394143 0.064509004 0.07920007 0.073170386 0.04480739 -0.090368904 -0.006420154 0.02659145
-0.054633398 0.0594331 0.026499078 -0.07395965 -0.06623409 0.02637992 -0.06872734 -0.06788769
-0.09351679 0.020541532 -0.0053575183 -0.05806235 -0.051946744 -0.03410938 0.0278076 0.07727608
0.097585514 0.039176602 0.0030800586 0.031702112 -0.00972527 -0.010907108 -0.015732538 -0.032998454
0.031840414 0.024308518 -0.003016823 -0.06398017 -0.043915566 -0.037695486 -0.06332443 0.035865955
0.015502149 -0.09121208 0.0031024774 0.10009393 0.013705358 0.02074814 -0.05530243 -0.024281692
0.075293355 0.06220279 -0.06632627 0.07000238 -0.0080484385 -0.08697244 0.025649726 -0.002770774
0.056791514 -0.072695516 -0.048515823 -0.09775995 -0.12473795 0.06703776 0.069950715 -0.09676022
0.0462918 -0.06040099 0.09267482 0.11854614 -0.028830308 -0.022598566 0.068387166 -0.041620202
-0.05084144 0.008005962 -0.09564009 0.009682851 -0.009150656 0.040404193 0.016605427 0.019252522
0.1504077 -0.05944028 0.012242623 -0.08783334 0.057981048 -0.08809388 -0.059338644 0.011168637
-0.0023869486 -0.016202232 0.029885884 -0.060457576 0.04552679 0.018389108 -0.044184547 0.020976095
0.099430464 0.038146447 0.0134341065 0.00380291 0.034106 0.022475103 0.042836033 -0.0345731
-0.11251397 -0.11801214 0.055088483 -0.011860495 0.035452206 -0.10125158 0.014034059 -0.050969005
0.010760715 0.069806166 0.05165363 -0.06767973 -0.015641466 -0.041035917 -0.0575555 0.07490108
0.0011564409 0.0013931552 -0.03268309 0.016612787 -0.012338541 0.06556356 -0.08676021 0.058876153
-0.027823182 -0.07288698 0.057924334 0.011287825 -0.049403917 -0.089860275 0.05158638 0.032115865
0.05895753 -0.04302039 0.13377243 -0.06421167 0.0041275816 0.09346476 0.07410757 0.08486687
-0.10169126 -0.074010886 0.060147807 -0.011138256 0.061004627 0.031339224 -0.013914981 -0.010418338
00000000: ee1f dabb 3889 18bd 84a6 acbd 826c 133d
00000010: 8240 f9bb 598c c23c 6843 afbd 4d14 4cbd
00000020: a27f 92bc 1e1f d13c 4df6 81bd 3f61 11bd
00000030: 7a94 0abd ee8f 87bd af58 273d 709d 333d
00000040: 92b8 5e3d 832f 913d fcf7 63bd a920 c03d
00000050: 12db e7bd a921 4abd 9a8a 0ebc b287 2e3c
00000060: 49a1 7fbb 820f ef3b 7e3c f8bc de3c 8a3c
00000070: 195a 5abd 1c03 edbd 6ea9 b8bd 684d ee3c
00000080: dc0d 863d a761 3fbc 84b6 d2bb 1e97 a4bd
00000090: 4487 c8bd 9174 4dbc 3a57 183d da9d adbd
000000a0: 2395 9e3c 8824 c93d 53e8 973d 99f8 f93d
000000b0: 7997 58bd 601d 6bbd 00df 97bc ae4a b2bb
000000c0: 3bec 74bc 50ea ce3c ac43 9fbd a5a3 a03b
000000d0: 2b3f a0bd 3a9c 353d 34f8 d13d 269c dd3b
000000e0: 6615 f73d ef38 ccbc 6df3 0c3e 2c08 8cbd
000000f0: b5f1 c63d de5c db3c a060 153d 5f4e 68bd
00000100: 8cfe 61bd d3ae 51bd 8560 8f3c e963 663d
00000110: 54ab dc3d 345e 8e3b b93a 6bbd af91 3f3d
00000120: 8c57 f73d 590a b0bd 6249 06be 55ea e43d
00000130: 0ef7 b83d 62e5 e33c 83ea 40bb 6601 9d3c
00000140: 7bf0 c4bd ac04 52bd e0de 453d 2963 4a3d
00000150: 4270 803d 7d91 c2bd 2ae2 ac3d d559 66bd
00000160: 212c fbbd d552 2e3d f307 26bd a9b7 423d
00000170: 6ab1 aabd 18d7 adbd f497 a0bb 8661 0abc
00000180: 3a57 0b3e 5166 a63d c63e 55bc ffbf e03d
00000190: 8445 14bc b285 b2bd 630b c1bc c53e 2c3d
000001a0: 9b6e 97bd 4c1d 843d a533 a23d 5bda 953d
000001b0: f487 373d 5513 b9bd 2860 d2bb 50d6 d93c
000001c0: 45c7 5fbd 1f70 733d 9814 d93c 2878 97bd
000001d0: bda5 87bd b41a d83c ebc0 8cbd b408 8bbd
000001e0: bb85 bfbd b746 a83c 1f8e afbb c9d2 6dbd
000001f0: 1cc6 54bd 47b6 0bbd c4cc e33c ec42 9e3d
00000200: eada c73d a577 203d cfda 493b 13da 013d
00000210: bd56 1fbc bab3 32bc 86e1 80bc 6329 07bd
00000220: 186b 023d a822 c73c e4b5 45bb 0908 83bd
00000230: cfe0 33bd 9566 1abd 3db0 81bd 2ee8 123d
00000240: bafc 7d3c 66cd babd ef52 4b3b 0cfe cc3d
00000250: 708c 603c 01f8 a93c cd84 62bd 66ea c6bc
00000260: 6733 9a3d 5ac8 7e3d 11d6 87bd 685d 8f3d
00000270: 99dd 03bc 9b1e b2bd 601f d23c e095 35bb
00000280: 389e 683d 63e1 94bd 87b8 46bd 5e36 c8bd
00000290: 9c76 ffbd 184b 893d 5242 8f3d 392a c6bd
000002a0: 789c 3d3d 0767 77bd 4ccc bd3d 52c8 f23d
000002b0: 8a2d ecbc a120 b9bc 920e 8c3d f279 2abd
000002c0: 1d3f 50bd 702b 033c f4de c3bd d2a4 1e3c
000002d0: a2ec 15bc de7e 253d 1b08 883c 77b7 9d3c
000002e0: 7a04 1a3e a777 73bd 4895 483c f7e1 b3bd
000002f0: 897d 6d3d 906a b4bd 140d 73bd a9fc 363c
00000300: 5a6e 1cbb 8bba 84bc 3ed3 f43c 5da2 77bd
00000310: 4d7a 3a3d c1a4 963c dbfa 34bd 0fd6 ab3c
00000320: 33a2 cb3d 733f 1c3d ba1a 5c3c 3e3a 793b
00000330: bcb2 0b3d b51d b83c d674 2f3d 869c 0dbd
00000340: b96d e6bd 59b0 f1bd 76a4 613d 8652 42bc
00000350: 5536 113d fd5c cfbd 1cef 653c e0c4 50bd
00000360: b64d 303c 89f6 8e3d c292 533d ac9b 8abd
00000370: 8822 80bc 4715 28bd 51bf 6bbd bd65 993d
00000380: b893 973a 889a b63a b4de 05bd 8a17 883c
00000390: 9827 4abc 3046 863d 56af b1bd 1f28 713d
000003a0: 71ed e3bc c545 95bd 1142 6d3d 92f0 383c
000003b0: c35b 4abd aa08 b8bd 3d4c 533d ed8b 033d
000003c0: 737d 713d 2636 30bd a4fb 083e 6881 83bd
000003d0: aa40 873b 746a bf3d b6c5 973d aece ad3d
000003e0: 8243 d0bd 0593 97bd 8c5d 763d 3b7d 36bc
000003f0: fddf 793d 8f5d 003d a9fb 63bc adb1 2abc

fc_block.0.bias f4 [64]
-0.10492637 0.01169903 -0.0055098487 -0.009981541 0.01757162 -0.03234716 -0.04298539 0.050174527
-0.05540693 -0.01933523 -0.05707855 -0.13594545 -0.11023648 -0.07732151 -0.07593572 0.06759077
-0.07793243 -0.121279374 -0.0873349 -0.0069591184 -0.13698722 0.0042161965 -0.14441153 0.033282503
-0.062142495 -0.040397696 -0.0007743106 -0.019024331 0.08342649 0.014047212 -0.081023015 -0.071407355
-0.08252437 -0.07159855 -0.03377167 -0.11268745 0.059363622 -0.04301226 0.05509628 0.026662298
-0.0683058 0.08000277 -0.14400184 -0.05404144 -0.016598875 -0.12560348 -0.020721193 0.013416279
-0.042808797 -0.005006873 0.0030890047 -0.099650204 0.01873445 -0.04139858 0.049707185 0.01631432
-0.03754028 -0.06623151 -0.15766813 -0.072765306 -0.10201756 -0.1473766 0.022553949 0.01665417
00000000: a3e3 d6bd 4aad 3f3c f68b b4bb 9e89 23bc
00000010: 5cf2 8f3c 757e 04bd 7311 30bd ce83 4d3d
00000020: 61f2 62bd eb64 9ebc 33cb 69bd 4935 0bbe
00000030: aac3 e1bd bd5a 9ebd 3084 9bbd 086d 8a3d
00000040: 0a9b 9fbd 5261 f8bd a4dc b2bd 5109 e4bb
00000050: 6146 0cbe 0528 8a3b 9ee0 13be 3c53 083d
00000060: 2189 7ebd 0e78 25bd 1bfb 4aba ead8 9bbc
00000070: 82db aa3d 4726 663c 65ef a5bd 053e 92bd
00000080: 8902 a9bd 43a2 92bd 2a54 0abd aec8 e6bd
00000090: 4527 733d a02d 30bd a3ac 613d e46a da3c
000000a0: e9e3 8bbd 7ed8 a33d 3875 13be 8f5a 5dbd
000000b0: 5dfa 87bc 339e 00be 7ebf a9bc f4cf 5b3c
000000c0: 4758 2fbd b210 a4bb e670 4a3b 6815 ccbd
000000d0: fd78 993c 8f91 29bd c399 4b3d 9ca5 853c
000000e0: d6c3 19bd 63a4 87bd c173 21be fa05 95bd
000000f0: 95ee d0bd e4e9 16be 0fc3 b83c 536e 883c

fc_block2.0.weight f4 [32, 64]
-0.0021358537 0.027780937 -0.116994604 -0.036249865 -0.027362054 -0.1993099 -0.013158838 0.037558716
-0.14620991 -0.072799705 -0.036663268 -0.039475266 -0.15896887 0.036618173 -0.1554587 -0.13086611
-0.06721589 -0.08001261 -0.1282593 -0.023930073 -0.03063828 -0.20171072 -0.18619387 -0.1322252
-0.17047954 -0.040521275 -0.117321946 -0.17282824 -0.08085459 -0.0854801 -0.022221077 -0.18819714
-0.12789255 -0.024136372 -0.1738554 -0.0016775343 -0.16168743 -0.070263654 -0.068271644 -0.14434542
-0.18533947 -0.12699623 -0.1636762 -0.015795942 0.0045283744 -0.19522607 -0.026983332 0.015462309
0.03437714 -0.07818743 -0.101408064 -0.19156702 -0.07167576 -0.16414265 -0.1112654 0.006479917
-0.02107247 -0.046493195 -0.057464596 -0.037370726 -0.024459792 -0.064468995 -0.019021899 -0.19185208
-0.13785331 -0.16021632 0.059061214 0.022044819 -0.13941775 -0.105270945 0.03139663 -0.11893138
-0.006414408 -0.11700191 0.005716455 -0.05583973 -0.015591644 -0.06390633 -0.14661498 -0.12978056
-0.00012797059 -0.13264778 -0.11590278 0.048436128 -0.06347613 -0.015466272 -0.13847403 0.02812647
-0.028767264 0.020693038 -0.09653942 -0.005970287 -0.0064900485 -0.13075982 -0.047766335 0.009820463
0.011461642 -0.14836729 -0.17981082 0.010340816 -0.13048728 -0.09281484 -0.118190765 -0.08529547
-0.13765685 -0.15025015 -0.08763501 -0.14965917 0.05360942 -0.04614283 -0.14233524 -0.03008203
-0.11945558 -0.13717534 -0.16593678 0.05536936 -0.052759208 0.024736522 -0.014229817 -0.09936371
-0.16281441 -0.1656701 -0.011467895 0.022120392 -0.17000082 0.0017076329 -0.15097608 -0.06704865
0.08151817 0.027355816 -0.039016318 -0.011678782 -0.0076206694 -0.05615275 0.029579166 -0.13737284
0.07172921 -0.053778507 -0.012717386 0.008733614 -0.013533338 0.07497115 0.037266992 0.073532656
-0.11259491 -0.06887267 -0.12206893 0.08270065 0.0074147666 0.045134097 -0.08777007 -0.017106848
-0.14226393 0.027676385 0.05130784 -0.12470979 0.031124903 0.031408682 0.06221255 -0.09977615
-0.10593532 0.004179305 -0.096177995 -0.13772114 -0.1445594 -0.069273226 0.005788679 -0.1483363
0.063184254 -0.05579958 0.032268874 -0.13530359 -0.10237067 -0.037163813 0.05052092 -0.13611974
-0.13522911 -0.12106166 -0.12551415 -0.15413232 -0.13573872 -0.020813592 0.081611946 -0.075638
-0.06746659 -0.03622895 -0.11002415 -0.075179644 -0.1705973 -0.044933394 -0.15594308 -0.018692782
-0.12389221 0.022876428 -0.13246433 -0.040468663 -0.13027574 -0.114381805 -0.025936006 0.056166105
-0.06330215 -0.106847495 -0.14921992 -0.0685206 -0.11031759 0.0040994133 -0.13176388 0.08721677
-0.073687695 0.04857093 -0.14268667 0.0048766513 0.08376839 -0.13302918 -0.110163994 -0.05956796
-0.12857994 -0.10788698 -0.06327737 -0.026510494 -0.13738513 -0.053356692 0.083969176 -0.1486789
-0.07987243 0.07537842 -0.13856013 0.08547691 -0.06642275 0.079002865 -0.050566666 -0.08635814
-0.01099183 0.035111472 -0.14174356 0.016470153 -0.022550713 -0.14332771 0.024391245 -0.037422836
0.049703576 0.050056938 -0.00022666149 -0.053108793 -0.0748165 -0.12066013 -0.029064093 0.074739575
-0.03841835 -0.1164945 0.042357117 0.04681144 -0.01977421 -0.11037371 -0.026233932 -0.054878462
00000000: aef9 0bbb d994 e33c de9a efbd bd7a 14bd
00000010: 6326 e0bc e517 4cbe 2b98 57bc 2bd7 193d
00000020: 0db8 15be 0318 95bd 392c 16bd d1b0 21bd
00000030: bcc8 22be f0fc 153d 9130 1fbe c401 06be
00000040: 7ca8 89bd a7dd a3bd 6856 03be 0009 c4bc
00000050: 21fd fabc 418d 4ebe 9ba9 3ebe 0b66 07be
00000060: 3092 2ebe a3f9 25bd 7d46 f0bd e3f9 30be
00000070: 1797 a5bd 3110 afbd fa08 b6bc c0b6 40be
00000080: 44f6 02be a4b9 c5bc 2607 32be b6e0 dbba
00000090: 6491 25be 64e6 8fbd 01d2 8bbd 49cf 13be
000000a0: a1c9 3dbe 4d0b 02be bc9a 27be 7e66 81bc
000000b0: c262 943b 58e9 47be 260c ddbc a055 7d3c
000000c0: 0bcf 0c3d bb20 a0bd 08af cfbd 252a 44be
000000d0: beca 92bd 0315 28be 1ddf e3bd 7c55 d43b
000000e0: 2ca0 acbc a66f 3ebd ff5f 6bbd 0c12 19bd
000000f0: e75f c8bc 5208 84bd d0d3 9bbc df74 44be
00000100: 6b29 0dbe bf0f 24be 2cea 713d 5697 b43c
00000110: 87c3 0ebe 4b98 d7bd c199 003d 4c92 f3bd
00000120: f42f d2bb b39e efbd 1a51 bb3b 33b8 64bd
00000130: 1874 7fbc 52e1 82bd 3d22 16be 32e5 04be
00000140: d82f 06b9 d2d4 07be 705e edbd f664 463d
00000150: c6ff 81bd 3f66 7dbc 23cc 0dbe 7c69 e63c
00000160: 53a9 ebbc 7284 a93c 76b6 c5bd 66a2 c3bb
00000170: 79aa d4bb e7e5 05be a2a6 43bd 02e6 203c
00000180: 9cc9 3b3c 98ed 17be 5420 38be 876c 293c
00000190: 759e 05be b515 bebd 000e f2bd 64af aebd
000001a0: ebf5 0cbe 2ddb 19be fc79 b3bd 4140 19be
000001b0: 8d95 5b3d 4400 3dbd 54c0 11be 976e f6bc
000001c0: 21a5 f4bd b177 0cbe 55eb 29be fbca 623d
000001d0: 0a1a 58bd 3fa4 ca3c 2e24 69bc 337f cbbd
000001e0: d2b8 26be 6ca5 29be d6e3 3bbc d335 b53c
000001f0: b214 2ebe a7d2 df3a 7999 1abe cd50 89bd
00000200: 00f3 a63d 4e19 e03c 93cf 1fbd 5d58 3fbc
00000210: cfb6 f9bb 6d00 66bd 0250 f23c 77ab 0cbe
00000220: c4e6 923d da46 5cbd 955c 50bc 6f17 0f3c
00000230: efba 5dbc 798a 993d 46a5 183d 4a98 963d
00000240: 2998 e6bd 1d0d 8dbd 46ff f9bd f55e a93d
00000250: 92f7 f23b 88de 383d cbc0 b3bd a923 8cbc
00000260: a3ad 11be 96b9 e23c 2b28 523d d967 ffbd
00000270: a7f9 fe3c 64a6 003d 96d2 7e3d 7057 ccbd
00000280: 9ef4 d8bd 8df2 883b f8f8 c4bd c506 0dbe
00000290: 6107 14be 1fdf 8dbd f5ae bd3b 79e5 17be
000002a0: bf66 813d 1a8e 64bd 5e2c 043d 068d 0abe
000002b0: b7a7 d1bd 1539 18bd 06ef 4e3d f962 0bbe
000002c0: 8079 0abe 2def f7bd c886 00be ddd4 1dbe
000002d0: 17ff 0abe 4481 aabc 2a24 a73d 19e8 9abd
000002e0: ec2b 8abd cf64 14bd 5754 e1bd c9f7 99bd
000002f0: 0fb1 2ebe 140c 38bd 8baf 1fbe 9b21 99bc
00000300: 33bb fdbd 5967 bb3c bba4 07be 78c2 25bd
00000310: 0167 05be 0241 eabd bf77 d4bc 6e0e 663d
00000320: 8fa4 81bd dcd2 dabd 1bcd 18be 8754 8cbd
00000330: 30ee e1bd 5f54 863b 1ced 06be b59e b23d
00000340: 93e9 96bd 50f2 463d 741c 12be 51cc 9f3b
00000350: c38e ab3d cd38 08be a99d e1bd 89fd 73bd
00000360: 76aa 03be d9f3 dcbd 9197 81bd 892c d9bc
00000370: b0ae 0cbe 8c8c 5abd 08f8 ab3d 483f 18be
00000380: 2894 a3bd 0060 9a3d b5e2 0dbe 850e af3d
00000390: a708 88bd 41cc a13d fe1e 4fbd 89dc b0bd
000003a0: 1417 34bc 0cd1 0f3d 3925 11be 6aec 863c
000003b0: 46bc b8bc 80c4 12be 26d0 c73c b048 19bd
000003c0: fa95 4b3d 8108 4d3d fbab 6db9 9b88 59bd
000003d0: 6539 99bd a91c f7bd d217 eebc 1011 993d
000003e0: 8f5c 1dbd ab94 eebd a87e 2d3d 5abd 3f3d
000003f0: 86fd a1bc 9d0b e2bd 8be8 d6bc 3dc8 60bd

fc_block2.0.bias f4 [32]
0.004122782 0.057026584 -0.14454706 0.08676642 -0.1254682 0.046703704 -0.058887597 -0.10608959
0.01892932 0.014651466 -0.07964884 -0.11354794 -0.105828226 -0.015477598 0.0206325 -0.100325346
-0.025514154 -0.016671693 -0.109151386 -0.091414995 -0.14789753 -0.0058819596 -0.06888344 0.0819336
0.023477795 -0.065468185 -0.062020175 0.089124285 -0.1018315 -0.13657956 0.027541861 -0.12876563
00000000: 6718 873b b594 693d 2504 14be 98b2 b13d
00000010: bc7a 00be 624c 3f3d 1f34 71bd 8045 d9bd
00000020: a911 9b3c b40c 703c ee1e a3bd d38b e8bd
00000030: 78bc d8bd c095 7dbc 7d05 a93c 6077 cdbd
00000040: 0f03 d1bc 1393 88bc c38a dfbd c937 bbbd
00000050: 7372 17be 74bd c0bb c312 8dbd cecc a73d
00000060: 8154 c03c 2f14 86bd de08 7ebd cb86 b63d
00000070: 098d d0bd 83db 0bbe 789f e13c 23db 03be

fc.weight f4 [2, 32]
-0.044628594 0.09521202 -0.089404464 0.017092872 0.116530985 0.13061497 0.12943628 -0.06319008
0.075761035 -0.106902756 0.12823766 0.14639345 0.1013975 -0.06599004 0.08048493 0.07476896
0.09793225 0.08918436 0.058171343 0.08709123 -0.09560281 -0.17432617 -0.06755647 0.12933138
0.019103324 -0.0863015 -0.058462717 0.13293424 0.12814529 0.071178675 -0.15951912 -0.06761571
-0.02097542 0.099890426 -0.12145184 -0.08159252 0.12690637 0.11238826 -0.11213291 0.023829926
-0.13079922 0.014306953 -0.07013915 0.18785289 0.13497938 0.11453641 0.0026417645 0.1626167
0.10632733 0.043023612 0.09171166 0.06549991 -0.091802396 0.17266503 -0.09890626 0.08127638
-0.03837558 -0.082182236 -0.018168468 0.15845484 -0.06015696 -0.14587845 -0.14389406 -0.05807365
00000000: 79cc 36bd 85fe c23d b019 b7bd 5a06 8c3c
00000010: cca7 ee3d eebf 053e f28a 043e cd69 81bd
00000020: 9a28 9b3d d5ef dabd bc50 033e 2ae8 153e
00000030: 7ea9 cf3d c925 87bd 48d5 a43d 7820 993d
00000040: b490 c83d 4aa6 b63d 1345 6e3d e35c b23d
00000050: 68cb c3bd 8f82 32be 0c5b 8abd 726f 043e
00000060: 937e 9c3c d7be b0bd 9a76 6fbd ea1f 083e
00000070: 8538 033e 20c6 913d fb58 23be 1b7a 8abd
00000080: a5d4 abbc 5a93 cc3d bebb f8bd fb19 a7bd
00000090: bef3 013e d12b e63d f0a5 e5bd fa36 c33c
000000a0: 3bf0 05be b667 6a3c 1da5 8fbd 825c 403e
000000b0: 0938 0a3e 1192 ea3d 7421 2d3b fe84 263e
000000c0: 25c2 d93d 8739 303d 53d3 bb3d d124 863d
000000d0: e502 bcbd 1acf 303e 5e8f cabd 3b74 a63d
000000e0: b62f 1dbd 294f a8bd 0ad6 94bc fc41 223e
000000f0: 2567 76bd 2961 15be f758 13be a3de 6dbd

fc.bias f4 [2]
-0.0793857 -0.101058125
00000000: f894 a2bd 90f7 cebd
