models/NER/weights/model_lstm_fixed.pt (torch, 346695 bytes, 11 tensors)

embeddings.weight f4 [33, 16]
000000 00 00 00 00 00 00 00 00 00 00 00 00 00 00 00 00
       0.0 0.0 0.0 0.0
000010 00 00 00 00 00 00 00 00 00 00 00 00 00 00 00 00
       0.0 0.0 0.0 0.0
000020 00 00 00 00 00 00 00 00 00 00 00 00 00 00 00 00
       0.0 0.0 0.0 0.0
000030 00 00 00 00 00 00 00 00 00 00 00 00 00 00 00 00
       0.0 0.0 0.0 0.0
000040 0d 2b ab 3d 4b 52 71 bf b7 1d be 3e 9b b8 90 bd
       0.08357821 -0.94266194 0.37132046 -0.07066461
000050 e9 3d 92 3f 87 d7 ce bf 9b 14 7e be 53 8d 14 bf
       1.1425143 -1.6159524 -0.24812548 -0.58028144
000060 66 60 30 bd 4a d9 5f bf 2b e5 02 bf 92 a4 a8 bf
       -0.043060683 -0.8744093 -0.5113093 -1.3175223
000070 db 11 5e bf b8 4b b3 bf f9 02 8a bf f3 0e 91 bf
       -0.86745995 -1.4007483 -1.0782157 -1.1332687
000080 d7 f7 68 3f ce 56 b1 3f 77 3c 86 be bd e7 2b bf
       0.91003174 1.3854616 -0.26218006 -0.6715048
000090 b7 f0 6e 3e 7f d5 28 3d 88 18 5d bf 16 2a 1a 3e
       0.23334013 0.04121923 -0.86365557 0.15055117
0000a0 d3 2d 72 3f 57 49 97 3f d7 bf 06 c0 1a 48 62 3e
       0.9460117 1.1819257 -2.105459 0.22097817
0000b0 b6 92 40 3f 17 b7 28 40 fc 61 2c bf a7 eb a2 bd
       0.75223863 2.636175 -0.6733701 -0.07955103
0000c0 f7 2f c8 bf 90 3a 0e 3f bf 75 ae 3f ed fb 56 bf
       -1.5639638 0.5555811 1.3629683 -0.8397816
0000d0 83 af 90 bf 25 1d 27 3f de 9b 9d bf 54 85 91 be
       -1.1303562 0.65278846 -1.2313192 -0.28422034
0000e0 e5 84 7f 3f 4f d3 bf bf 8e 42 95 bf f9 f1 06 3f
       0.99812156 -1.4986361 -1.1660936 0.5271297
0000f0 6e 2c 88 bf b0 7c 57 3f 04 aa 80 3f 3e ae d2 3f
       -1.0638559 0.84174633 1.0051885 1.6459424
000100 cf 1b ab 3f 54 5c d9 be 51 a1 00 40 f2 81 45 3b
       1.3367862 -0.42453253 2.009846 0.0030137268
000110 aa fa 47 be 84 be 02 3f 06 01 85 3e 57 68 a6 be
       -0.19529215 0.51071954 0.25977343 -0.3250148
000120 2b 4c 1f 3f 09 e0 62 3f 64 fa 53 bf 53 a3 21 be
       0.622256 0.886231 -0.8280394 -0.1578496
000130 55 74 08 40 9f 93 49 3e 1a 45 6b bf 09 9d 06 be
       2.1321003 0.19685219 -0.91902316 -0.13145842
000140 ea d5 8f bf b3 e1 27 3f 11 99 62 3f f4 ba 5e bf
       -1.1237156 0.65578765 0.8851481 -0.8700402
000150 57 b7 82 bd e7 51 05 c0 7f 68 22 c0 6c 17 9b bf
       -0.063826256 -2.083124 -2.537628 -1.2116523
000160 f1 93 f3 3f e5 90 2e 3f c7 75 d5 3f 3f 5f 4a be
       1.9029523 0.6818984 1.6676568 -0.19762896
000170 83 51 53 3e be bf 7c bf bf 27 20 3f e2 ad 96 3f
       0.20636563 -0.98730075 0.6256065 1.1771815
000180 ae 5d 50 3f bf 1d 8b 3e 22 90 0f c0 f4 98 da 3e
       0.81392944 0.27171132 -2.2431722 0.4269482
000190 d6 13 54 3f 4a c8 c1 3f 31 b0 01 bf fb 58 8e 3e
       0.8284277 1.5139248 -0.5065947 0.27802262
0001a0 b2 d2 a6 be 0e ee e7 3c 75 25 74 3f 36 49 a9 bf
       -0.32582623 0.028311756 0.95369655 -1.3225467
0001b0 2a ae f8 3e 70 c5 38 3f fe ba 7d 3d 3a 35 d5 3f
       0.48570377 0.72176266 0.061945908 1.6656868
0001c0 d6 59 d0 bf 1b ea bf be 99 12 ea 3d 3b 1a b6 bd
       -1.6277416 -0.37483296 0.114293285 -0.08891722
0001d0 34 50 e8 be 23 ad b9 bf 16 df 14 40 21 26 d4 3e
       -0.4537369 -1.4505962 2.326116 0.4143534
0001e0 91 c2 38 3f a6 00 4d 3f af 71 f8 3f b3 29 94 3f
       0.72171885 0.80079114 1.9409693 1.1575226
0001f0 18 22 60 3f 5b cc 18 3f e6 64 30 3e 7d 0f 5c 3f
       0.8755202 0.5968682 0.1722599 0.85961133
000200 ad 9f 69 bf a7 18 82 bf 8f 76 be 3f 41 4c 65 bf
       -0.9125927 -1.0163773 1.4879931 -0.8956948
000210 0e 44 19 bf b2 a6 20 c0 1d fd f2 3f 0a b8 28 3b
       -0.5986947 -2.5101743 1.8983494 0.0025744461
000220 49 15 16 3f f5 5e 82 3f 7d 1d 15 3f fd 49 9d bf
       0.5862623 1.0185229 0.5824812 -1.2288204
000230 e0 18 6c 3f 4c 0c 42 bf 49 95 cf bf 87 2c 02 40
       0.92225456 -0.75800014 -1.6217433 2.0339677
000240 ad 11 5f 3f 53 cf a4 3e 27 4e ee 3e 0b 2b b6 be
       0.87136346 0.32189426 0.46544 -0.35579714
000250 9c 66 6a be bc e6 81 3f 45 e1 d3 3e 90 10 7c 3f
       -0.22890705 1.014854 0.41382805 0.9846277
000260 52 33 a1 bf 4f 23 6a be 66 fc 0f c0 39 0c 1a 3f
       -1.2593787 -0.22865032 -2.2497802 0.601749
000270 a0 8a df bf b4 6b 8a bf b8 02 32 bf 88 ad c1 3e
       -1.746418 -1.0814118 -0.695354 0.37827706
000280 dd cb bf 3f fc 3c c2 bf e9 ec ed be 29 fc 5f 3f
       1.4984089 -1.5174861 -0.4646981 0.8749414
000290 74 c0 93 3f 9a e7 e7 3f db ce 33 bf e0 b5 fd 3e
       1.1543107 1.8117554 -0.7023751 0.49552822
0002a0 f7 10 8f 3f 83 c0 34 bf 91 05 ec be 10 5b 48 bf
       1.1177052 -0.7060625 -0.46097997 -0.7826395
0002b0 f8 fe 7a 3b 43 a1 a8 bf c9 1e de bf 69 d0 a2 3f
       0.0038298946 -1.3174213 -1.7353145 1.2719852
0002c0 c5 58 2e be 2f 4b 12 bf 40 35 b5 bf f5 66 f0 3f
       -0.1702605 -0.5714597 -1.4156876 1.878142
0002d0 40 6c 19 be 22 dd 5a bf 96 6b 71 3f 4b 4c 3f bf
       -0.149827 -0.8549367 0.9430479 -0.7472579
0002e0 d2 86 95 3f d5 be 91 3e 68 a0 a2 3e 26 64 48 bf
       1.1681769 0.28465906 0.31763005 -0.78277814
0002f0 09 57 53 3f 23 d8 af 3d 20 d0 36 bb 4b 8a 43 3e
       0.8255468 0.08586147 -0.0027895048 0.19095723
000300 d4 fa 7f bf 8b b7 8d 3f 57 4b d4 3e c6 8d 8f bf
       -0.9999211 1.1071638 0.4146373 -1.1215141
000310 90 29 1d c0 95 b6 03 40 1b f0 89 bd a1 39 3f 3f
       -2.4556618 2.058019 -0.067352496 0.7469731
000320 bb 75 59 3f 1d 09 d3 3e 8d 51 24 3f 4b ff 92 be
       0.8494527 0.4121789 0.64186937 -0.28710398
000330 8c 82 d5 be 82 13 83 bf 6a 4d bf 3f 88 86 24 bf
       -0.41701162 -1.0240328 1.49455 -0.6426778
000340 17 90 03 c0 8f bd 63 3e 60 ab 03 bf f3 d1 28 bf
       -2.0556695 0.2224028 -0.5143337 -0.6594536
000350 6a 6c 8a 3e 57 96 6e bf f5 9d bd bd 34 f2 56 3e
       0.27035838 -0.9319815 -0.092586435 0.2099083
000360 19 cb ba bd c1 09 cb bf 03 d7 2a bf d6 3d 2b 40
       -0.09120769 -1.5862352 -0.6673433 2.6756492
000370 93 b3 78 bf 18 ba b8 3e 67 66 df 3e 0e b2 e2 bf
       -0.9714901 0.36079478 0.43632814 -1.7710588
000380 6e 76 b5 3e 21 c4 8c bf c1 04 26 40 3e e0 db bd
       0.35441917 -1.0997354 2.5940402 -0.1073613
000390 7b 87 99 bf 85 5a 34 bf e3 f3 0f c0 2c 04 00 3f
       -1.199447 -0.7045062 -2.2492607 0.50006366
0003a0 4d c0 53 bf 3c 8d 9f 3f 4b 28 70 bc 0b 27 89 3f
       -0.827153 1.2464976 -0.014658044 1.071504
0003b0 c5 d5 f7 bf 4c ed 17 bf 76 d0 fe bf c2 5e 50 bd
       -1.9362112 -0.5934646 -1.9907367 -0.050871618
0003c0 94 0e 02 c0 84 f0 df bf f0 ed 23 bf 6f c1 31 bf
       -2.0321398 -1.7495275 -0.6403494 -0.6943578
0003d0 1e 2c da 3e df 63 a3 3f 0a 15 81 bf 0e 61 82 3f
       0.42611784 1.2764853 -1.0084546 1.0185869
0003e0 c1 67 26 3e 80 97 bd 3d 86 32 f0 bc 0d bb 23 bf
       0.16250516 0.09257412 -0.029320966 -0.6395729
0003f0 df f9 a4 bf e2 98 f9 3f 1e e6 84 be 8a b5 38 bf
       -1.2888755 1.9499781 -0.25956815 -0.72152007

lstm.weight_ih_l0 f4 [512, 16]
000000 df ac 0d 3e 0b 42 3b 3e 3b 6d 25 3e 47 5f 7d 3e
       0.13835476 0.18286912 0.1615495 0.24743377
000010 05 b1 bb be cb 51 1c 3e e9 90 75 be 80 ed fe bd
       -0.36658493 0.15265577 -0.2398106 -0.12447643
000020 d6 12 a2 3e 60 81 1d 3e be 22 99 3e ab 2a 06 bd
       0.31654996 0.15381384 0.2990932 -0.032755535
000030 04 29 82 3e db f6 54 be 3d 0f 11 be dc 06 80 3e
       0.25421917 -0.20797293 -0.14165969 0.25005233
000040 40 16 f5 3d 45 13 66 3f 88 fd 35 3e 3c da ae be
       0.119671345 0.8987315 0.17772496 -0.34150875
000050 78 4b 05 bf ae 96 80 3e c0 b1 cd 3d 0b dd 97 3d
       -0.5206828 0.2511496 0.10043669 0.074152075
000060 00 b7 4c 3f ec 89 e5 3e 07 60 85 3e ef 2d a3 3e
       0.79966736 0.4483179 0.26049826 0.31870982
000070 cf 20 40 3d 70 34 89 be 5e 50 a2 3e 7f 13 1c be
       0.04690629 -0.2679782 0.3170194 -0.15241812
000080 72 ac 2b bd 27 de 9e bc 43 37 06 3f 9b 55 44 3e
       -0.041912504 -0.01939304 0.5242807 0.19173281
000090 f5 1c 35 be c6 c7 f6 3e 8c 68 31 bf d3 59 ae 3e
       -0.17686827 0.4819929 -0.6930015 0.34052905
0000a0 5e 24 dd bc 2d 05 ac 3e ad ec ee be 45 0a c8 be
       -0.02699488 0.335977 -0.46664944 -0.39070335
0000b0 f4 06 2a bf e5 6d 84 bd f2 e6 44 3e 89 be 49 be
       -0.6641686 -0.06466273 0.19228724 -0.1970159
0000c0 58 02 ce 3e 96 27 91 3d 56 15 c4 bd a9 bb b2 3e
       0.40236163 0.070876285 -0.09574382 0.34908798
0000d0 18 53 88 3e e9 15 bf 3d 6c 92 a6 3e 26 c9 bf 3e
       0.26625896 0.09330351 0.32533586 0.37458152
0000e0 97 6a cd bd 20 ef 0a 3c 95 87 8d 3b b9 ec 95 bc
       -0.10030096 0.008479863 0.004319141 -0.018301355
0000f0 08 52 0e bd a2 51 01 be 6c d0 a6 be ee 00 39 bd
       -0.0347462 -0.12628797 -0.32580888 -0.045166902
000100 1d 05 8d be 31 88 34 be 80 e9 bb 3e 78 3e 77 3e
       -0.27542964 -0.17630078 0.36701584 0.24144924
000110 fc c8 c4 be 25 22 50 be 68 53 8e 3e ea 71 e1 3e
       -0.3843459 -0.20325525 0.2779801 0.44032222
000120 a1 a4 67 be 76 18 0b 3f 28 d6 15 3f a0 e7 bc 3d
       -0.22621395 0.543342 0.585299 0.092238665
000130 c2 b9 71 be 9d 21 eb bd 7b 98 ef bd 13 ae 49 bd
       -0.23606017 -0.114810206 -0.11699005 -0.049238276
000140 4b a9 06 be 51 65 5e 3d a2 02 a9 3e 91 76 d7 bd
       -0.13150518 0.05429584 0.3300982 -0.105206616
000150 a6 21 a0 be 57 2a 99 bd 92 5e a9 3d 23 27 5d 3e
       -0.31275672 -0.07478779 0.08269991 0.2159696
000160 90 06 e6 bd a8 92 a0 3e b7 60 84 be a6 09 87 3e
       -0.112317204 0.3136189 -0.25855038 0.2637455
000170 ac d8 bb 3e fe 94 02 be d8 7f 01 be 3e 67 eb 3e
       0.36688745 -0.12752149 -0.12646425 0.45977205
000180 af 70 01 be 40 f8 14 be 41 9d d1 bc 75 89 44 be
       -0.12640642 -0.14547825 -0.02558768 -0.1919306
000190 3e 8a 1c be bc de c2 3d 2a 57 96 3e fa 5e bb be
       -0.1528711 0.095151395 0.29363376 -0.365959
0001a0 d5 01 7b bd b9 7f e1 bd 7e 21 d7 bd 16 1e 98 be
       -0.061281044 -0.11010689 -0.10504435 -0.29710454
0001b0 ce 79 b8 be 88 73 05 3e 02 05 62 3c 23 43 c5 3d
       -0.3603043 0.13032353 0.013795139 0.09631946
0001c0 72 a8 b1 bc 06 e5 ad 3e e2 66 a9 3e b4 73 b2 be
       -0.021686766 0.33963794 0.33086306 -0.348539
0001d0 b9 a7 61 be f3 4f ac bd 45 02 3c bd a3 0b c0 bd
       -0.22036637 -0.084136866 -0.045900602 -0.093772195
0001e0 49 a1 77 be d4 e6 53 bd 41 71 09 bf 25 a6 8b 3e
       -0.24182619 -0.051733807 -0.53688437 0.27275196
0001f0 dd 03 23 3e d0 70 0a bd 51 d8 14 3e c1 d4 97 3d
       0.15919442 -0.033798993 0.14535643 0.074136265
000200 48 52 8e be 42 94 e4 bb 2e 69 48 bd 36 8c cd 3e
       -0.2779715 -0.0069756815 -0.048928432 0.40146035
000210 c2 ea 1f bc a3 ff ec 3c f8 f0 3e be cd ad 46 3c
       -0.0097605605 0.02893049 -0.1864661 0.012126398
000220 ea 4b 92 be 2b a1 c5 3d 8e 53 3f 3e 24 70 04 bd
       -0.28573543 0.09649881 0.18684217 -0.032333508
000230 22 43 13 3e 95 57 59 3e 8e ca 7c 3e e1 b8 8e bd
       0.14381078 0.21224816 0.24686643 -0.069688566
000240 51 dd a0 be 51 6a f0 bd dc 2c 89 3b 2c 00 6b bc
       -0.3141885 -0.11739028 0.004186256 -0.014343303
000250 e8 43 09 bd 5e 50 60 3e ef 3b 9b 3e 6b e1 05 bf
       -0.033512026 0.21905658 0.30319163 -0.52297086
000260 21 d1 25 be 6d f2 af 3e ee e2 f4 bc 3f 66 0c 3e
       -0.16193058 0.34364644 -0.029893365 0.13710879
000270 42 78 b3 3c e1 a5 73 3e 9a ae 19 3e 90 44 13 3f
       0.02190793 0.23793747 0.15008011 0.57526493
000280 11 05 98 be cd a6 77 be 4c bf dc 3e 80 e0 41 be
       -0.29691365 -0.24184723 0.43114698 -0.18933296
000290 3e b7 3d be b1 cd d8 be 89 57 d7 bd cc a0 fe 3c
       -0.18526933 -0.4234443 -0.10514743 0.031082533
0002a0 a9 e8 c5 bd 05 f3 a0 3e 90 36 4a 3e 67 18 aa 3e
       -0.09663517 0.3143541 0.19747376 0.33221743
0002b0 a4 0b 2a 3e 0f d6 b3 bc 97 3d 0f be dd 33 04 be
       0.16606003 -0.021952657 -0.13988338 -0.1291041
0002c0 cc b1 00 3e c2 07 84 3e ec 6b cc be 6c 6d 80 bd
       0.12567824 0.2578717 -0.39926088 -0.062708706
0002d0 84 19 65 be cc 16 27 3e c3 ee 02 3f 61 19 2b 3e
       -0.22373015 0.1631729 0.5114557 0.167089
0002e0 05 dc 86 3d f9 81 ce be 53 35 97 3e 9f 4b a5 be
       0.06584934 -0.40333536 0.2953287 -0.32284257
0002f0 09 5f a0 3c 49 aa 67 be 15 6c a7 bc 92 2c 14 3d
       0.019576566 -0.22623552 -0.02043728 0.036175318
000300 a4 06 f0 be 11 4d d6 bc 5c 15 5b 3b 98 76 db bd
       -0.46880066 -0.026159795 0.003342948 -0.10715979
000310 7c 28 38 bf 6a 35 a4 be 02 31 4a be 78 c8 50 3e
       -0.71936774 -0.32072002 -0.19745257 0.20388973
000320 30 63 a5 be 8d eb f1 3e cd 69 ee bd 2e 5f fd 3e
       -0.32302237 0.47250023 -0.11641274 0.4948668
000330 64 c0 93 be 34 6d 17 3f ac 1a 11 3e 8e 75 13 3f
       -0.2885772 0.59151006 0.14170331 0.5760125
000340 89 71 ce be 27 80 57 be dd ad 62 3e 4c 49 38 3e
       -0.40320995 -0.2104498 0.22136636 0.1799671
000350 a7 91 87 be e4 7d 9a 3d 53 3e af bd 0d b0 b1 3d
       -0.2647831 0.07543543 -0.08556809 0.08676157
000360 5d 75 67 bc 31 4c 47 3e 23 41 36 3e d0 9f b6 bc
       -0.014127103 0.19462658 0.17798285 -0.022293001
000370 d6 9d 30 3e d9 ca e4 3e 7a 80 86 3e a2 ed 8c 3c
       0.1724771 0.4468601 0.26269895 0.017203156
000380 f6 63 9b be 90 bc a1 be 67 a5 11 bd c0 1a 15 be
       -0.30349702 -0.31589174 -0.03555813 -0.14560986
000390 a6 fd ac 3b 14 92 43 be 84 9b 6e be ce 7e 11 3e
       0.0052792607 -0.19098693 -0.23301512 0.14208528
0003a0 6c 0b d5 bb ca 5a e2 bd cf b1 55 3d 0a 23 39 3e
       -0.0065016057 -0.11052473 0.052171525 0.18079773
0003b0 72 a7 14 3e 7c 0b a2 bb 52 bc 02 3e 0b f5 b8 bc
       0.14517 -0.0049452167 0.12767151 -0.022577783
0003c0 02 61 ba 3b 12 24 f4 be ad 55 aa be c2 8e a6 be
       0.0056878338 -0.4768377 -0.3326849 -0.3253079
0003d0 fa bd e7 bd aa 03 1a 3e 82 b4 45 3f 14 a9 1d 3f
       -0.11315532 0.1504046 0.7722856 0.6158612
0003e0 86 cc 18 be 3b e1 52 3f 3e 66 4e be 13 25 62 3e
       -0.1492177 0.82374924 -0.2015619 0.22084455
0003f0 a9 03 09 3f da 18 3d 3f d0 53 46 bf 8d 33 28 be
       0.5352121 0.73866045 -0.7747164 -0.16425915

lstm.weight_hh_l0 f4 [512, 128]
000000 30 05 13 be 5b c4 16 3d cb 28 ea bd de 41 6a be
       -0.14357448 0.036808353 -0.11433562 -0.22876689
000010 28 d8 a6 3e 1f 37 a9 bd 09 ff 5c 3e 06 71 b1 be
       0.3258679 -0.08262467 0.21581663 -0.34656543
000020 1a 84 9f 3e fb cb e7 3e ce bd 2d bf 2a 6b 38 bf
       0.31155473 0.45272812 -0.67867744 -0.7203852
000030 3d 11 c1 be 1e 65 9a be 19 9d c7 bd 98 36 35 3f
       -0.37708464 -0.3015527 -0.09746761 0.7078643
000040 24 1d 06 bf 62 5d e5 3e 8e 80 85 be b0 8b 99 be
       -0.52388215 0.44797808 -0.26074642 -0.29989386
000050 f3 fb 3a bf 38 70 8a 3e bd 7b 46 bd 8c 9f 75 3e
       -0.73040694 0.2703874 -0.04845785 0.23986644
000060 d5 0d 08 be bf 46 97 3d 81 3e 95 3e 15 43 c0 bd
       -0.13286527 0.073865406 0.2914925 -0.09387795
000070 00 ce 2c 3e 57 88 23 3f 2b e8 56 3f 72 2d ce 3d
       0.16875458 0.63879913 0.8394801 0.10067262
000080 ff 6c d9 3e d8 ed 00 3e f4 75 8e be be 25 f9 bd
       0.4246597 0.1259073 -0.27824366 -0.12165402
000090 ec cd 5a be 23 db 96 3d 3a 57 39 3f b7 73 2f 3f
       -0.21367615 0.07366016 0.7239872 0.6853594
0000a0 16 1f dc bd 0d cd d3 be 48 f7 0a 3e cd af 62 3e
       -0.10748117 -0.4136738 0.13570893 0.22137375
0000b0 68 16 27 be f9 b4 98 3e 24 e9 0b be c6 e3 da be
       -0.16317141 0.2982557 -0.13663155 -0.42751902
0000c0 c9 5a 1e be 0f 74 e9 3e ce cc 42 3e 39 56 ab 3e
       -0.1546432 0.45596358 0.1902344 0.3346422
0000d0 eb 92 b4 3e c6 cd 46 3e 5d fc d2 be 99 cd 20 3e
       0.3526834 0.19414434 -0.41208163 0.1570343
0000e0 16 0c 1a 3e e7 f8 c9 be 32 ee ca bd 27 52 0a 3f
       0.15043673 -0.3944771 -0.099087134 0.54031605
0000f0 a1 db 0e bf 9c d9 08 be 68 46 1c 3e c3 ad 3c be
       -0.5580388 -0.13364261 0.15261233 -0.1842566
000100 80 3e 2f bd a6 f1 5e bf 75 77 0f 3f 94 6b a3 3d
       -0.042784214 -0.87087476 0.5604165 0.07979503
000110 2f cb b3 be c7 af 53 bf 54 8a 2d bd 3b ce 28 3e
       -0.35115954 -0.8269009 -0.042368248 0.1648492
000120 d0 3d c4 be 85 c2 16 3f 16 f9 06 3f 9c 5a 8a be
       -0.3832841 0.58890563 0.52723825 -0.27022254
000130 42 96 19 be 84 ae 3d 3f 5f 60 4e 3e c2 ee 84 3e
       -0.14998725 0.74094415 0.2015395 0.25963408
000140 dd 3e 8d be 17 35 06 3f 4e e9 2a 3e 03 c7 c4 be
       -0.27587023 0.5242476 0.16690561 -0.38433084
000150 19 66 34 3e d4 0c 05 bd 3b 34 db be c4 65 a2 3e
       0.17617072 -0.032482937 -0.42813286 0.31718266
000160 b3 fe 69 3f 4f 52 67 3f ab e2 9c bd d2 b7 a2 be
       0.91404265 0.9035997 -0.07660421 -0.3178087
000170 99 08 97 bd 48 86 05 3f 3a 42 8d bf 43 40 53 3f
       -0.07374687 0.5215802 -1.1035836 0.8251993
000180 44 d6 42 ba 0a 5c be be fd 54 91 bf 04 df 84 be
       -0.0007432441 -0.37179595 -1.1354061 -0.25951397
000190 c4 a3 8c 3f 78 4e 4e bd c6 3e 81 3e 8b 9f 78 3d
       1.0987477 -0.050367802 0.25243205 0.060699027
0001a0 17 d5 07 3e d2 35 48 bd 3c d1 db 3e e3 4e 3d be
       0.13264881 -0.048879452 0.4293307 -0.18487124
0001b0 47 53 e9 3c ba 08 d5 3e e7 8a 93 bd 56 cb 29 be
       0.028482093 0.4160822 -0.07204228 -0.16581473
0001c0 fe 39 a0 3e 90 a2 31 3e 31 83 ba 3e f4 29 17 bf
       0.31294245 0.17347169 0.36428216 -0.5904839
0001d0 a5 74 08 3e ef 38 ac be 10 5b 82 3b 6b 6c 36 3e
       0.13325746 -0.33637187 0.0039781407 0.17814796
0001e0 26 84 79 3e 42 0d 47 3d de 73 39 bf 86 79 94 3d
       0.24366817 0.048596628 -0.72442424 0.07249741
0001f0 d4 52 3a 3f df 88 22 be f6 c2 df 3e c7 3b 60 be
       0.72782636 -0.15872525 0.4370343 -0.21897803
000200 f0 bc c3 bd fe a8 61 3c 96 a8 f6 3c fc a7 8f 3e
       -0.09557521 0.013773201 0.030109685 0.2805785
000210 fb f8 92 3e 10 7b 8a 3d dd 8f b6 3e 9e ee 13 3f
       0.28705582 0.067617536 0.35656634 0.57785976
000220 9d 5c f6 3e 6b f1 93 be ee 7b 1b 3f fc ae 0b 3f
       0.48117533 -0.28895125 0.60735977 0.5456388
000230 bd 2a 01 bf 4e b5 9d 3e 93 ca 25 3e df f9 ea 3c
       -0.5045584 0.30802387 0.16190557 0.028683601
000240 de 44 c4 be 21 fc 83 3e 70 09 18 bf ff ee 8d 3f
       -0.38333791 0.25778297 -0.593894 1.1088561
000250 dc fb 3f bf 81 72 d7 3d 3e 4e 64 be 61 63 53 3e
       -0.7499368 0.10519887 -0.22295472 0.20643379
000260 19 b8 80 3d 31 93 d3 be a4 0a 8e be cd bd 0e 3f
       0.06285114 -0.41323236 -0.27742493 0.55758363
000270 11 b4 23 bf a8 4a 45 be 03 c1 58 be e7 a5 07 bf
       -0.63946635 -0.1926676 -0.21167378 -0.5298752
000280 09 af 15 bf 0f 55 8c be bc 10 bf be e4 a0 85 be
       -0.5847021 -0.27408645 -0.37317455 -0.26099312
000290 92 9d 81 3e ae 07 e5 be 16 91 3b bf 1c 0e a3 be
       0.2531553 -0.44732422 -0.7326826 -0.31846702
0002a0 fc 66 4b 3e 23 05 1e 3e 89 58 8a 3d 72 f7 a2 be
       0.19863504 0.15431647 0.06755168 -0.3182941
0002b0 94 52 ec bd d9 ef 12 bd 55 7a 10 3e 9d e3 2c bf
       -0.11539188 -0.035873268 0.14109166 -0.6753481
0002c0 91 04 45 bf 67 a6 d6 be ab f0 4e bf 00 89 ae 3e
       -0.7696009 -0.4192383 -0.8083598 0.34088898
0002d0 8d 07 0f bf 87 8a 67 3d 70 8a 47 bf 4c fb 87 3e
       -0.55870897 0.056528594 -0.77945614 0.26558912
0002e0 8c 30 ef be 04 82 20 3d c3 58 35 3e 8a 07 a4 be
       -0.46716726 0.039186493 0.17709641 -0.32037002
0002f0 e1 d6 4b 3f 52 9c 4c be 52 2d 9f 3e ce d2 ee 3b
       0.79624754 -0.19981506 0.31089264 0.0072883135
000300 24 45 e5 bb 43 67 1a 3f 73 c0 36 be 8b 0f 34 be
       -0.0069967676 0.60313815 -0.17846851 -0.17584054
000310 77 c0 f0 3e 3e bd f0 3e 30 5b eb 3d 02 79 18 3f
       0.4702184 0.4701938 0.11492002 0.59559643
000320 52 07 e4 3e af 18 19 bf 2c 7c c2 be 5c 70 5b 3e
       0.44536835 -0.5980329 -0.3798536 0.2142958
000330 74 a9 fc 3e d7 93 59 be 52 8e d8 3e c6 bc ed be
       0.49348032 -0.21247803 0.42296082 -0.46433085
000340 e3 ff a7 3e c3 65 97 3d 6f 89 ac be 4e 28 29 3f
       0.32812414 0.073924564 -0.33698604 0.66077125
000350 c1 ed 30 bf 80 6e f7 3d f8 09 04 3d b1 0d 90 be
       -0.69112784 0.12081623 0.03223607 -0.28135446
000360 b8 47 84 3e e5 80 b3 be 52 98 91 be d5 4a 80 bd
       0.25835967 -0.35059276 -0.28436524 -0.06264273
000370 9b 99 77 3d 4a 74 be bd 96 1b de 3e 7a 46 39 be
       0.060449224 -0.09299524 0.4338042 -0.18093291
000380 31 4b cb 3d 15 4d 24 3f 00 1a d5 be 1c a7 38 3e
       0.09926451 0.6418012 -0.416214 0.18032497
000390 c6 88 a5 3e af 9e db be 40 65 f6 be 2c c9 93 be
       0.32330912 -0.42894503 -0.48124123 -0.2886442
0003a0 52 86 c4 bd 58 20 e9 3e ce 09 7a bf 8d 9e 67 bf
       -0.09595932 0.4553249 -0.9767121 -0.90476304
0003b0 3c 24 33 be c2 e0 55 be 9e cc a6 3d a7 91 c7 3e
       -0.17494291 -0.2088652 0.081444964 0.3897831
0003c0 c6 a5 09 3e 32 8f 2b 3e c7 0f df 3d 4d 13 d9 3d
       0.13442144 0.16753843 0.10891681 0.105993845
0003d0 54 23 a4 3e cd 1b 9e be c2 e5 4b bf 89 6e 93 be
       0.32058203 -0.30880585 -0.7964746 -0.2879527
0003e0 06 ee e8 3d 7b a3 05 3e 6c 8b da 3e 31 a9 a5 3d
       0.11373524 0.13050644 0.42684495 0.08088911
0003f0 69 a0 6f be bc cd 68 be 89 e1 cb 3e ef 51 5d 3e
       -0.23401035 -0.22734731 0.39820507 0.21613286

lstm.bias_ih_l0 f4 [512]
000000 1b 97 14 3e d2 33 10 be f3 d2 1e 3e 1f e2 4e bb
       0.14510767 -0.14082268 0.15510158 -0.0031567884
000010 48 da 0a be 4c f8 36 3e fd 9e 03 be 2f 29 32 3d
       -0.1355983 0.17868155 -0.12853618 0.043496307
000020 5b 83 24 be 70 7f e5 bd 02 b7 0b 3d 20 2f 78 3d
       -0.16065733 -0.112059474 0.034110077 0.060591817
000030 2e 60 24 3d b4 e1 87 be c2 02 3e 3c 80 b2 bf 3e
       0.040130787 -0.26539385 0.011597337 0.37440872
000040 9c c9 a9 bd 2e 14 1a 3e 84 2d 71 be 89 ae ba bd
       -0.08290407 0.1504676 -0.23552519 -0.09115321
000050 23 0c 54 be 5a 9a 66 3c 70 0d a3 3e dc 55 17 3d
       -0.20707755 0.014074886 0.3184619 0.036947116
000060 c5 4e 8f 3d 47 7f e9 bd c6 65 89 be 30 9a e8 bd
       0.06997446 -0.11401229 -0.2683546 -0.11357534
000070 90 b0 dd bd a6 66 08 be 92 8e 66 bc cb 29 a5 bd
       -0.10824692 -0.13320407 -0.014072077 -0.08064612
000080 46 00 b2 3d 79 23 0e be 67 9e 38 3c 41 eb c6 bd
       0.086914584 -0.13880719 0.011268235 -0.0971284
000090 3d 16 97 3d 11 77 35 be 60 e3 e5 bd ec 8b 76 be
       0.073772885 -0.17721201 -0.11225009 -0.24076813
0000a0 93 68 24 bd 08 4f 62 bc 2d cc 32 bd 3f e2 47 bd
       -0.040138792 -0.013812788 -0.04365175 -0.04879975
0000b0 ca 1f ea bd a3 60 e2 3c c3 e9 a7 bd 48 23 26 3d
       -0.114318445 0.02763397 -0.081988834 0.04056099
0000c0 96 5c f1 3d d0 d1 45 be 4e ae 68 be 34 09 ae be
       0.117852375 -0.19318318 -0.22722742 -0.33991396
0000d0 94 e4 bf bd b8 c8 aa bd 5c ee 81 3d 3d 22 3c be
       -0.0936977 -0.08339065 0.063442916 -0.18372436
0000e0 a6 2a b9 bd d7 8c d2 bd 0f e2 90 bd 1d 01 06 bd
       -0.09041338 -0.10280769 -0.07074367 -0.032715905
0000f0 9c 80 0b be 37 00 a4 bd 21 54 f9 3d 66 5a 86 bd
       -0.1362328 -0.080078535 0.121742494 -0.06560211
000100 73 cb 41 bd 60 7b 8b be 48 92 2d be c2 60 3a be
       -0.047313165 -0.27242565 -0.16950333 -0.18200973
000110 07 e4 b1 bd 62 df 5b be 44 dc 7e bd c1 f7 73 bc
       -0.08686071 -0.21471933 -0.06222178 -0.014890612
000120 7b b7 d8 bd 52 6b de bd 5a a1 64 be 28 54 a8 bd
       -0.10581871 -0.108603135 -0.22327176 -0.082191765
000130 7e 07 7e bd 37 de 25 be 87 72 fd bd 98 0c 60 3d
       -0.062018864 -0.1619805 -0.1237536 0.05469951
000140 01 f2 ca bd 31 52 14 be 5e 72 2d be 2c 85 22 bc
       -0.0990944 -0.14484479 -0.16938159 -0.009919446
000150 29 23 81 bc bb dd 63 3d 43 4c 0f be f9 35 b6 bd
       -0.015763836 0.05563138 -0.13993935 -0.08897013
000160 ef 8c a7 3d e5 b2 93 be 2d f8 71 be 3f c6 2c bd
       0.08181178 -0.28847423 -0.23629828 -0.04218125
000170 73 a4 a8 bd e3 ae 73 be 5f b3 a6 bc 8a c4 0e be
       -0.08234491 -0.23797183 -0.020349203 -0.13942161
000180 10 51 5f bd e3 71 4a bc 3b 62 78 bd b7 bf 59 3d
       -0.054520667 -0.012356254 -0.060640555 0.05316135
000190 0b f3 5a be 07 b9 cc bd 1e d7 6b bd 78 49 47 3c
       -0.21381776 -0.09996229 -0.0575782 0.012163512
0001a0 21 96 6e bd 8c 35 1b be 22 45 52 bd f0 04 d8 bc
       -0.058248643 -0.15157145 -0.05133546 -0.026369542
0001b0 bc 89 cb be 90 2b 6b bc 39 19 c3 bd 6e 51 01 be
       -0.3975352 -0.014353648 -0.09526295 -0.12628719
0001c0 2a 56 fe bd bc 1f 77 bb 57 25 97 bd c4 96 3e be
       -0.12418778 -0.0037708124 -0.07380169 -0.186122
0001d0 99 cd 36 3e a7 17 df bd ee 9e 4c be 83 a5 0f be
       0.17851867 -0.10893183 -0.19982502 -0.14027981
0001e0 92 f9 36 3c f4 94 fe bd e1 42 ed bc 39 76 56 be
       0.011167901 -0.12430754 -0.028962554 -0.20943536
0001f0 50 de 85 be 15 65 96 bd ec cb bb bc 12 3c bf bd
       -0.26146173 -0.073434986 -0.022924386 -0.093376294
000200 f7 3d 35 be 0e 62 42 be bb e6 92 be d6 84 e1 bb
       -0.17699419 -0.18982717 -0.28691658 -0.0068822904
000210 b1 30 20 3d 44 dc 92 3d e1 62 84 bc 09 1b 8a be
       0.039108936 0.071709186 -0.01616043 -0.2697375
000220 3a 13 b5 bc 39 48 16 bd ee ac ea 3b 03 3b c8 bd
       -0.022103895 -0.03668997 0.007161728 -0.097768806
000230 59 31 d5 be 4e ad 01 be 80 46 88 bd 6b 67 24 bf
       -0.41639212 -0.12663767 -0.06654072 -0.64220303
000240 0d b1 ea 3d f2 b7 94 be 01 02 bc 3c ca fb d1 3d
       0.11459551 -0.2904659 0.022950174 0.10253103
000250 17 30 23 be 40 d7 98 be a3 71 ab be ee 60 f8 bd
       -0.15936314 -0.29851723 -0.33485135 -0.12127863
000260 df 54 84 3e 1b 05 a1 bc fe 3a 7b bc 36 4b 65 3c
       0.25846002 -0.019655755 -0.015333889 0.0139949825
000270 3d 04 d8 3d fa f2 1c 3e 7d 3d 3f 3d ab 26 ef be
       0.105476834 0.15327063 0.0466895 -0.4670919
000280 c9 5d 4c bd cf 36 09 be fa fe ee 3b b4 d8 9d be
       -0.049894128 -0.13399814 0.007293579 -0.30829394
000290 d3 5d 3b 3c 7f ec bc 3d 54 94 50 bd c2 39 b0 bd
       0.011435944 0.092247956 -0.050922707 -0.086047664
0002a0 e7 91 82 3b a0 c1 17 be 54 56 f4 3d c8 08 69 3c
       0.003984678 -0.14819956 0.11930528 0.014223285
0002b0 e9 ea 8f 3d 65 d1 3d be 60 30 6b 3d a8 01 ea bd
       0.070272274 -0.18536909 0.05741918 -0.11426097
0002c0 45 80 12 3d d0 ca 97 38 03 fa 99 bd 95 91 ed 3d
       0.03576686 7.238018e-05 -0.07518389 0.11600033
0002d0 9f 1c ca 3d a3 2e 0b 3b b6 7b 3d be ec 67 8a bc
       0.0986874 0.0021237514 -0.18504223 -0.016895257
0002e0 a5 24 3a 3e 95 bc 17 3e 41 21 26 be 02 ea 62 3d
       0.18178041 0.14818032 -0.16223623 0.05539895
0002f0 64 6c 4b bd 1e bc 8d bb 47 3c bd bd 0a b5 2e 3e
       -0.049663916 -0.004325404 -0.092400126 0.17061248
000300 92 84 35 3d 9c 07 5b be e9 0c 44 3e ac 2c ac bd
       0.044315882 -0.21389621 0.1914555 -0.08406958
000310 d2 6f b7 3c b3 83 f3 bd 6e ae 3a 3e cb 76 6a 3e
       0.022392187 -0.11890354 0.18230602 0.22896878
000320 82 8f 72 bd 8f 71 8d be ce cf 86 bd 0f bd 8a bd
       -0.05921889 -0.276257 -0.06582604 -0.06774341
000330 4f cb 2a bd 8c bc 7d 3d e6 04 34 bc 8a a6 d1 bc
       -0.041697796 0.06194739 -0.010987496 -0.025592107
000340 9a d4 c4 bc 1c 66 cc be db 66 c0 3a 72 bd ad 3b
       -0.024027158 -0.39921653 0.0014679091 0.0053021247
000350 30 20 c9 3c 1e 5e cc 3d d5 29 f4 bb 59 45 02 3e
       0.024551481 0.09978889 -0.007451276 0.12721767
000360 40 87 0d be 9a ba bf bd 99 90 12 3e a4 25 49 be
       -0.13821125 -0.09361763 0.14312972 -0.19643265
000370 e3 44 e2 3d f4 1a 73 3e 73 2c 00 be c4 94 5d 3d
       0.11048295 0.2374075 -0.12516956 0.054096952
000380 8e aa 3f be 9a ca 68 be bc bc 6c 3d b9 95 11 3e
       -0.18717405 -0.22733536 0.05779718 0.14217271
000390 c1 34 c7 bd 26 e2 36 bc a2 c1 e5 be 17 dd 5b 3e
       -0.09726859 -0.011162316 -0.44874293 0.21471058
0003a0 c6 e0 3e 3e b1 1d 5a 3e fb ad 53 be ad 1a 5e 3e
       0.18640432 0.21300389 -0.20671837 0.21689864
0003b0 72 ae 8b 3d 68 9b 2f 3d 85 dc c9 bc a0 dc 73 bd
       0.06820382 0.042872816 -0.024641285 -0.059536576
0003c0 d8 a6 af 3d 6e 5e 01 3c 58 fd 87 be 70 a5 6b bd
       0.08576745 0.007896049 -0.26560473 -0.05753082
0003d0 be 0d 9d be 14 e2 96 be 78 f0 3d be 0e 35 d7 3c
       -0.30674547 -0.2946936 -0.18548763 0.026270416
0003e0 8d 26 fa bd 33 a6 de bc 38 11 59 be 94 b8 0e 3e
       -0.12214384 -0.02717886 -0.21197975 0.13937598
0003f0 54 47 02 3d 55 5b d2 3d f2 ef 48 be 40 ef 59 bd
       0.031806305 0.102713265 -0.19622782 -0.053206682

lstm.bias_hh_l0 f4 [512]
000000 10 cb 3a 3c e1 55 2f be d1 cd 24 3e 15 5c 96 3c
       0.011400953 -0.17122604 0.16094138 0.018354455
000010 96 7b 85 be 3d b0 b3 3d 4e 0b 02 be 06 c0 e6 3d
       -0.2607085 0.08773849 -0.12699625 0.11267094
000020 fb 03 4c be bf f5 31 bd 54 8c 00 3b 53 29 91 3d
       -0.19923393 -0.043447252 0.0019614892 0.0708796
000030 50 fc b1 3b ea 99 c7 bd 33 81 65 3d ed a2 b1 3e
       0.0054316893 -0.09746154 0.056031417 0.34694615
000040 72 a2 2b be 5e 4a a2 3d d1 00 0b be b2 a2 00 bd
       -0.16761187 0.07924341 -0.1357453 -0.03140516
000050 e2 2b 0c be 24 f7 91 3d 36 65 4b 3e 51 ff 21 3e
       -0.13688615 0.071272165 0.19862828 0.15820052
000060 ba fd 3f 3e 39 f4 34 be 6d cc 4e be 71 2a c1 bd
       0.18749133 -0.17671289 -0.2019517 -0.09431923
000070 c0 c5 9c bc b9 42 29 be 55 4c 1f 3d 28 fa 87 bd
       -0.019137263 -0.16529359 0.038891155 -0.066395104
000080 fc 1c 25 3e da db 56 be 0b 27 9e bd b0 fe 85 b9
       0.16124338 -0.20982304 -0.077222906 -0.00025557494
000090 f8 6d 24 3e 5e a3 d4 bd d0 eb c0 bd 40 e6 0a be
       0.16057575 -0.10382722 -0.09419978 -0.13564396
0000a0 1f cc e0 bd b2 ef 76 bc a7 fb 2a be 43 4a 91 3d
       -0.10976433 -0.015071796 -0.1669756 0.070942424
0000b0 84 56 0d be 62 04 12 3e 5e c2 c4 bd 84 df 8e bc
       -0.13802534 0.14259484 -0.09607385 -0.017440565
0000c0 4a 31 30 bc bf fa 41 bd 51 da 80 be 79 4e 81 be
       -0.010753939 -0.04735827 -0.25166562 -0.25255182
0000d0 06 8e d3 3c 5c d4 8c bd cd 46 76 bc d1 0e 75 be
       0.025824558 -0.06876442 -0.015031529 -0.23931433
0000e0 38 31 17 be ec aa af bd 1c 34 58 be 59 d8 1c be
       -0.14764869 -0.08577523 -0.21113628 -0.15316905
0000f0 ed f1 81 be f9 88 fb bd 30 9a 32 3e c3 fa 55 bd
       -0.25379887 -0.12281985 0.1744163 -0.052241098
000100 21 db 28 bd 78 e1 63 be 94 11 44 bd 3d 6a 97 be
       -0.041224603 -0.22253978 -0.047868326 -0.2957324
000110 11 56 6a bd 4c 82 10 be 19 cd d6 bd 63 9c ae bd
       -0.057210986 -0.14112204 -0.10488338 -0.08525922
000120 9d a5 2a be 9e f7 0f be 23 95 ad bd fd c7 11 be
       -0.16664739 -0.14059302 -0.08475711 -0.14236446
000130 10 ff 0a 3a 00 5d 0e be 6f 05 50 be b1 9f 01 3e
       0.00053022895 -0.13902664 -0.20314573 0.12658574
000140 f7 3e cd bd b8 49 e4 bd bf 78 79 bd 29 6f d8 bc
       -0.10021775 -0.11146873 -0.060906168 -0.026420193
000150 32 40 c6 bd 1c 44 77 bd 80 5d ff bc d3 3e 9d bd
       -0.09680213 -0.06036769 -0.031172514 -0.076779984
000160 7e e6 ed 3b fb 96 90 be f8 9c 46 be 72 ed 0f bd
       0.007260143 -0.2824019 -0.19395816 -0.035138555
000170 6f bc 89 bc 3b f2 b8 be 3b 6b 4d 3b a5 83 ee bc
       -0.016813485 -0.36122307 0.0031344432 -0.029115507
000180 a3 88 e4 bc 6c 3f ee 3d 69 53 1e be 45 38 89 3d
       -0.027897185 0.116331905 -0.15461506 0.06700186
000190 7f f0 38 be 9d 6c d0 bc 99 e4 4e 3d da 3c 37 3d
       -0.18060492 -0.025442416 0.050510976 0.044735767
0001a0 91 65 a1 3c 76 7a fd bc a5 60 0d be 39 d9 e3 bb
       0.019701751 -0.030942183 -0.13806398 -0.006953385
0001b0 67 9a dd be 3c f7 f3 bd 2a ea 2f be 94 79 df bd
       -0.43281862 -0.119123906 -0.1717917 -0.10911861
0001c0 aa 7e 17 be 4f 91 0e be ff 97 f3 bd 7f d3 5d be
       -0.14794412 -0.13922618 -0.11894225 -0.2166271
0001d0 90 ed 15 3e 0a e9 1a be a9 2b 78 be a9 fa 0e be
       0.14641404 -0.1512796 -0.24235405 -0.13962807
0001e0 50 02 ac 3d 86 e7 09 3b 20 60 76 3c f4 b1 2c be
       0.083988786 0.002104254 0.015037566 -0.16864759
0001f0 3d 17 7e be f4 84 21 bd f9 fe 0e bd ac 0d 6a be
       -0.24813552 -0.039433435 -0.03491113 -0.22856778
000200 a5 da 4d be 0d 0c 89 be a9 b6 83 be 24 28 11 ba
       -0.20102938 -0.26767007 -0.25725296 -0.00055372925
000210 71 5d a3 3c 5c 16 9a 3d 4d c9 08 3d c8 03 79 be
       0.019942017 0.07523796 0.0333951 -0.24317849
000220 5c 69 f3 ba 36 0d b6 bb c8 2f 26 bd c5 2a 88 bc
       -0.0018570828 -0.005555774 -0.04057291 -0.016621957
000230 d0 b0 a0 be 80 b3 0c bd db f1 ce bd b1 b9 2e bf
       -0.31384897 -0.034350872 -0.10104724 -0.6825209
000240 0d 0f cf 3d ac 3d 24 be 5c 99 d2 3b 61 86 aa 3c
       0.101102926 -0.16039151 0.0064269733 0.02081603
000250 af e1 09 be 85 46 a6 be 39 13 35 be 6a 78 e0 bd
       -0.13464998 -0.32475677 -0.17683114 -0.10960467
000260 15 9a 8c 3e c6 3c b3 3d 64 d9 35 3d 4e b8 5d bd
       0.27461305 0.08751826 0.044396773 -0.054130845
000270 ea 4b 15 bd 0e 8b f3 3d e6 2a dd bc 3e 40 fa be
       -0.03644935 0.11891757 -0.026997995 -0.48877138
000280 b8 cf f1 3c e1 4a a3 bd 25 76 e1 3d b3 87 8a be
       0.029517993 -0.079732664 0.110088624 -0.27056655
000290 d8 2b 83 3d b6 4b f3 3c ab 6a 2f be 9a d8 f3 bd
       0.06404847 0.029699188 -0.17130534 -0.11906548
0002a0 fb fd a0 3d ad 27 36 be d7 9e 81 3d f0 88 95 3c
       0.07860943 -0.17788573 0.063291244 0.018253773
0002b0 c3 0e dd 3d f0 40 81 bd 9a d7 90 3d 47 a2 b1 bd
       0.10793831 -0.06311214 0.07072373 -0.0867353
0002c0 be f5 87 bb 5b 54 8b 3d d4 89 a4 bd dd 01 1f 3e
       -0.004149168 0.06803199 -0.08034101 0.15528055
0002d0 59 b7 92 3d c7 13 ee 3a c9 6a 44 be d2 a4 a9 3c
       0.07163877 0.0018163853 -0.1918136 0.020708475
0002e0 74 ed 36 3e f4 cc ad bc 4f 05 32 be 1f 8d 8a 3d
       0.17864019 -0.021215893 -0.17384838 0.06765198
0002f0 c0 5a 96 bd b5 eb 53 3d 50 ce 17 bb 82 1c 86 3e
       -0.07341528 0.05173846 -0.0023163743 0.26193625
000300 0c d4 ea 3d f4 dd 75 be cc 73 fe 3d ab e9 cb bd
       0.11466226 -0.2401045 0.1242443 -0.09956678
000310 3b c7 5d 3d fb 65 57 be 9a 81 09 3e f9 cb e3 3d
       0.05414508 -0.21034996 0.13428345 0.11122889
000320 3c 19 f0 bd 89 a8 3b be 00 16 7d ba 1c 5f 2f bd
       -0.11723563 -0.1832601 -0.00096544623 -0.042815313
000330 59 13 9e bd c0 50 0d 3d 83 d4 d9 3d c7 d4 66 3d
       -0.07718534 0.034500837 0.106362365 0.056355264
000340 4b 7b 96 bd b6 61 ef be 0a 43 82 3a 1f 77 47 bd
       -0.07347735 -0.46754235 0.0009938192 -0.048697587
000350 70 00 17 3d 15 d0 42 3e a5 4e c9 bb 04 20 2f 3e
       0.03686565 0.1902469 -0.0061434084 0.17102057
000360 76 50 4f bd ca 0b a9 3c c7 e5 14 3d 71 b9 99 be
       -0.050613843 0.020635504 0.036351945 -0.30024293
000370 c9 a2 8b 3d f1 f3 05 3e 68 9a 84 bc aa 2d c8 3d
       0.06818158 0.13081338 -0.016186908 0.09774335
000380 d0 6f 8b be 17 99 88 be 3c ce 1a 3d 39 6c 98 3d
       -0.27233744 -0.26679298 0.037794337 0.07442517
000390 34 b1 25 be d6 1d 9e bd 14 92 dd be e4 d3 8b 3e
       -0.16180879 -0.077205345 -0.4327551 0.27310097
0003a0 f2 0b 66 3e 5b 48 84 3e 12 9f a8 bd 73 0e 4b 3e
       0.22465494 0.25836453 -0.08233465 0.1982973
0003b0 04 45 a4 3d 71 c3 d4 bb 98 6c 32 3b 34 e9 4e bd
       0.08020976 -0.006493025 0.0027225371 -0.05051537
0003c0 7c a2 25 3e aa 23 03 3e 0d a2 8c be 8d c2 9a 3c
       0.16175264 0.12806574 -0.27467385 0.018891597
0003d0 57 ec 8a be 40 be a4 be 69 2f 76 be a8 0d 5a 3c
       -0.27133438 -0.321764 -0.24041523 0.01330892
0003e0 9a 40 6b bd dc 8d bc bd 11 5b 92 be 5a 9c 1c 3e
       -0.057434656 -0.09206745 -0.28585103 0.15294018
0003f0 75 b2 c6 3d 70 b0 d9 3d a8 a3 70 be 0e 55 07 be
       0.09702007 0.10629356 -0.2349993 -0.1321604

fc_block.0.weight f4 [64, 128]
000000 5c da c1 3e df ab 84 3e 64 96 49 3e 9e 97 44 3d
       0.37861907 0.25912377 0.19686276 0.047996156
000010 55 9d df be 66 f3 2f 3e 62 0e 7a 3c 2a 92 39 3d
       -0.43674722 0.17182693 0.015262218 0.04530541
000020 b2 30 ce be 9e 62 31 3d bd be 95 be 80 ba fe 3d
       -0.40271527 0.04330694 -0.29247084 0.12437916
000030 50 30 8a 3e a4 a3 78 3e a9 e0 3e bd 67 35 ab be
       0.26989985 0.24281174 -0.04660097 -0.3343918
000040 b2 81 c4 3d a7 27 49 3d 1e e4 f2 3e 3e bf e3 3b
       0.0959505 0.04911008 0.47439665 0.006950288
000050 25 ee 9d 3e 9b 4a ee 3d f2 39 08 bd 81 a3 dc 3d
       0.30845752 0.116353236 -0.033258386 0.107733734
000060 26 b0 7f 3e 23 73 1b 3e 4f 82 22 be 43 35 88 bd
       0.24969539 0.1518064 -0.15870021 -0.06650784
000070 62 6b 49 bc 44 b2 5f be d5 40 11 3d 50 21 d9 3d
       -0.012293668 -0.21845347 0.03546222 0.10602057
000080 90 f1 a5 be 2e e8 10 3e 26 6f 8d bd 6e 5c f1 3d
       -0.3241086 0.1415107 -0.069059655 0.11785208
000090 b4 0d 8c bd 11 64 a5 be 14 a1 ce 3d c2 6b 22 3b
       -0.06838551 -0.32302907 0.10089317 0.0024783467
0000a0 1a 1f 8f be 33 a4 7b 3e 1f 64 1b bd 1f 8c 02 be
       -0.27953416 0.24574356 -0.03793728 -0.12748764
0000b0 67 04 96 3c 2d 48 73 3d f7 c8 9a be 89 91 b3 3d
       0.018312646 0.059395004 -0.3023145 0.08767993
0000c0 ec ad 3d 3d 46 28 3b 3d 74 d6 24 be 9f 72 12 be
       0.046308443 0.045692705 -0.16097432 -0.14301537
0000d0 68 c5 90 3c b6 82 62 3b 15 2a 1e be 6a 74 1a bd
       0.017672256 0.0034562773 -0.1544574 -0.037708677
0000e0 35 7e 36 bd 58 c4 59 be 12 d6 3a 3e 56 42 91 be
       -0.044553954 -0.21266305 0.18245724 -0.28370923
0000f0 d1 a3 87 bd 55 9b df 3c 3d 1f 5b be e7 89 05 3f
       -0.066230424 0.027295748 -0.21398635 0.5216355
000100 d9 36 11 be 16 fe a0 3c e2 8d 58 3e 91 45 18 3d
       -0.14181079 0.019652408 0.21147874 0.03717572
000110 94 78 8a bc 7f ba 03 3d f6 51 be 3d 6b 79 3a be
       -0.0169032 0.03216028 0.092929766 -0.1821038
000120 13 13 cb 3d d8 60 36 bd ae e9 5b 3d 43 fe 3c 3e
       0.099157475 -0.04452595 0.05368965 0.18456368
000130 08 95 59 3e 90 c3 ec bb 46 eb a4 bd e9 69 fe be
       0.21248257 -0.0072254613 -0.08052687 -0.49690178
000140 d3 b4 fb 3d e2 98 58 be 12 4b a8 bd d1 d0 03 3e
       0.12290349 -0.2115207 -0.082174435 0.12872626
000150 ed 2b a3 3e 1d 47 d1 3b 7b f9 fd 3e c2 4b 3d be
       0.3186945 0.006386651 0.496044 -0.1848593
000160 6b f8 74 3d e7 ed 9b bd e4 ce 7f be a1 2f ba bd
       0.059807222 -0.07613736 -0.24981266 -0.09091116
000170 ae b0 7d be 74 21 0c be 3f db c3 3d d7 e0 08 be
       -0.24774429 -0.13684636 0.09563302 -0.1336702
000180 3d 81 a4 be 39 b1 68 be 5b c9 93 3e 61 fb 33 3e
       -0.3212985 -0.22723855 0.2886456 0.17576362
000190 f9 03 21 3d da 8b 68 bd d2 37 69 3e c5 7f 18 be
       0.03931043 -0.056773998 0.227752 -0.1489249
0001a0 2e f6 81 be 0a 49 21 bd a9 c2 ef bd 3a 38 14 3d
       -0.25383133 -0.039376296 -0.1170705 0.036186434
0001b0 ba e1 8e 3c 71 26 f4 3d 39 78 c7 3d 8b 47 2c be
       0.01744162 0.119213946 0.097397275 -0.16824166
0001c0 80 58 0c be 6f c7 70 bd ea db 23 3c 7e 9a 00 3d
       -0.13705635 -0.058783945 0.010001162 0.031397335
0001d0 c5 1e 37 3e 62 64 2f 3e 5e 36 05 3e 2b 1a 08 3e
       0.17882831 0.17128137 0.1300902 0.13291232
0001e0 a9 df d7 3d 8e 55 c8 3d 4f 24 12 3c 02 00 1a bd
       0.10540707 0.09781943 0.008919789 -0.037597664
0001f0 80 c3 ca be 94 d9 1f be f2 5b 34 be b3 01 30 be
       -0.3960228 -0.15610343 -0.176132 -0.17188148
000200 44 4a 8c 3e b6 a4 41 be a7 60 ca 3e 4c 2a 6d 3e
       0.2740041 -0.18910488 0.39526865 0.23160666
000210 f9 52 10 be b5 61 63 3e 6c 7a 61 bc a6 b2 e6 3c
       -0.14094152 0.22205241 -0.013762098 0.028161358
000220 0f ca ae be df ca b1 3c b9 f0 1a bc 33 35 4e 3e
       -0.34138533 0.021703182 -0.009456807 0.20137481
000230 f4 36 b7 bd 1f 1e c1 3c 87 6a 42 3e d0 6b 5b be
       -0.08946028 0.023573933 0.1898595 -0.21427846
000240 e8 f3 32 3e 6c 6b bc 3d 67 83 5c 3e c0 4f 0f 3e
       0.17475855 0.092001766 0.21534501 0.13995266
000250 ab ae ab 3e 86 05 40 3e be 61 73 3e 87 35 4c be
       0.335317 0.18752107 0.23767754 -0.19942294
000260 37 a5 66 3d 40 dd 82 bd fa e7 34 be e5 0a 11 be
       0.056309905 -0.06389856 -0.17666617 -0.14164312
000270 02 05 3f be ba 4b 1a be be 11 6c be 24 fd 7c 3d
       -0.18654254 -0.1506795 -0.23053643 0.06176485
000280 be 04 af be 2f cd 8f 3d 2c f4 33 3e 44 34 23 be
       -0.34183306 0.070215575 0.17573613 -0.15937907
000290 91 a8 58 3e d4 24 0b be 3e a5 a9 bd ab 57 c7 3d
       0.21158053 -0.13588268 -0.082834706 0.09733518
0002a0 83 27 1b bd 1f d4 41 3e a7 87 20 bd 86 c6 3d be
       -0.03787948 0.18928574 -0.03919187 -0.18532762
0002b0 86 e5 46 bd 78 a7 94 3e 3e 79 6f 3d 8e 29 a8 bd
       -0.048558734 0.2903402 0.058465235 -0.08211051
0002c0 e6 85 22 3e 29 92 4b be 6d 6d e6 bd 87 26 19 be
       0.1587139 -0.19879974 -0.1125134 -0.14956103
0002d0 53 61 1a be 1a 6b 54 be 7a a9 22 be 05 a9 ac bc
       -0.15076189 -0.20743981 -0.15884963 -0.021076689
0002e0 86 17 2a bd 04 8e 32 be 6d 58 13 bd d1 ed 99 be
       -0.04152634 -0.17436987 -0.035973 -0.30064252
0002f0 8c 02 77 bc 77 7e 93 3d bb 95 3c be 48 4a 93 3e
       -0.015076291 0.07201856 -0.18416493 0.2876761
000300 57 1a 97 be bb 21 0d 3e 16 4e 02 3e 1e 5d c8 3d
       -0.29512283 0.13782398 0.127251 0.09783386
000310 91 e2 24 3e e8 d3 8f 3d 23 03 2d 3e dc 99 5d be
       0.16102053 0.0702284 0.16895728 -0.21640724
000320 27 2f 37 be f5 97 22 3e 6d 68 05 be 0b 82 3c 3e
       -0.17889081 0.1587828 -0.13028117 0.18408982
000330 81 3e 83 3e bf 5c 45 be cd 1b 7a be eb 95 dc be
       0.25633624 -0.19273661 -0.24424668 -0.43083128
000340 5a 07 ec 3c b3 cf 91 3e 95 70 36 be 37 a1 07 3d
       0.0288121 0.28478774 -0.17816384 0.03311273
000350 41 87 15 3d fc 8b e1 bd 05 0d 79 3e 9d e3 16 bd
       0.03650594 -0.11013028 0.24321373 -0.036838163
000360 4a a4 95 3e 0b 7a e5 be c8 f0 79 be 22 ba 2c be
       0.29226905 -0.44819674 -0.24408257 -0.16867879
000370 c4 27 b9 3c 21 0d bb bd 57 b7 33 3d bc aa 29 be
       0.02260197 -0.091333635 0.04387602 -0.16569036
000380 70 6f d6 3d 0a 3b 59 be d2 4d 0d 3e 4f f2 0e 3e
       0.10470474 -0.21213928 0.13799217 0.13959621
000390 80 0e d8 bd 3e 22 93 bd 31 1f 15 3e 32 1c a2 be
       -0.10549641 -0.071842656 0.1456268 -0.31662136
0003a0 39 c9 24 be f6 18 38 3e c8 51 11 be 1e e3 5c be
       -0.16092385 0.17978272 -0.14191353 -0.21571013
0003b0 a8 4e 9d 3e c1 c9 87 3d 13 d8 1f 3e 49 72 af bc
       0.30724072 0.066302784 0.1560977 -0.0214168
0003c0 b4 9d cb be cc 0e e6 bd 54 90 78 3d 8c 56 44 3e
       -0.39768755 -0.11233291 0.060684517 0.1917364
0003d0 a1 8e b6 3d d3 6f 16 3e 0e 4f d6 3c 1f b6 64 3e
       0.08913923 0.14691095 0.026160743 0.22335099
0003e0 cb 83 6e be 80 69 41 3e c0 59 64 3e 14 c8 a6 bd
       -0.23292463 0.18887901 0.22299862 -0.081436306
0003f0 97 ad 2d be 1d 47 07 be 9d fd 0f be 18 b0 08 3e
       -0.1696075 -0.13210721 -0.1406159 0.13348424

fc_block.0.bias f4 [64]
000000 49 b4 7a bd da e1 11 be 53 1f 85 3c 8a a6 66 be
       -0.06120709 -0.14246312 0.016250288 -0.22524467
000010 ef 45 a5 bd f9 0c 09 be 20 77 8c bd 56 7c 40 be
       -0.080699794 -0.13383855 -0.06858659 -0.1879743
000020 32 55 7e bd 43 fa 6c 3b cf db 33 be 2a a5 a9 bd
       -0.062092967 0.003615991 -0.17564319 -0.08283456
000030 19 0f 9d be d1 ca ad bd c3 99 8e bc 45 12 81 bd
       -0.3067558 -0.0848595 -0.017407304 -0.06302313
000040 f4 68 52 bd 3e 83 81 bc 2d f5 88 bd 09 db 0a 3e
       -0.051369622 -0.015809651 -0.066873886 0.13560118
000050 0f e8 02 be 96 9c ee bd a0 d1 2c be a2 11 df bd
       -0.12783836 -0.1165096 -0.1687684 -0.10892035
000060 50 23 38 be 5c 9c 23 bd 37 28 60 bc e6 5e ce bd
       -0.1798222 -0.039944038 -0.013681463 -0.10076694
000070 02 3e ac 3c 9b 5b 73 3b 91 d5 26 be 56 25 43 be
       0.021025661 0.0037133459 -0.16292407 -0.19057211
000080 0d f5 a6 bd ed 50 c3 bd ed 0d b4 bd 4e 36 1c be
       -0.081522085 -0.0953692 -0.08791719 -0.1525509
000090 3d f6 cb bd aa 37 4c be b7 e1 67 bd e1 f1 b2 bd
       -0.099590756 -0.19943109 -0.056611743 -0.08737541
0000a0 ae 6c 41 be 41 c9 04 be f1 d0 39 bd 50 2a 87 bd
       -0.18889114 -0.12967397 -0.045365278 -0.06599867
0000b0 87 5a 0f be 23 2f 2a bd 04 e2 1d be 33 ba 31 3d
       -0.13999377 -0.04154886 -0.1541825 0.043390464
0000c0 2c ef 6e bd 6c 03 9f bd f8 dc b9 bd 9e 68 7f be
       -0.05833356 -0.077643245 -0.090753496 -0.24942252
0000d0 3a ca 14 3d b8 10 28 bd fe db 3e bd a7 aa 34 bd
       0.03632567 -0.04103157 -0.04659652 -0.04410806
0000e0 69 9e 46 3d fc d5 58 be 45 b9 15 be c6 50 5c bd
       0.048490915 -0.21175379 -0.14621456 -0.05378797
0000f0 74 2e 54 be b4 d2 2d be 8e e3 7e 3c 66 27 ad bd
       -0.20720845 -0.16974908 0.015557183 -0.0845478
