models/NER/weights/rubert_cased_aug30_6epoch.pt (torch, 955663 bytes, 8 tensors)

0.0.weight f4 [256, 768]
000000 f1 cf 20 bd f6 bc 22 3d d5 c3 b1 3c 57 40 86 bc
       -0.03926081 0.03973099 0.021699825 -0.016388102
000010 56 94 05 3b d4 ee 2e 3d 0b d7 e4 bb 11 55 e1 3c
       0.0020382605 0.042708233 -0.006983643 0.027506383
000020 6a 41 71 3c 42 e5 c3 bb d9 29 3a 3c b1 2e af 3c
       0.014725069 -0.0059782574 0.011362516 0.021384569
000030 33 10 34 3d 48 8a 02 3d 9a 47 06 3c 5b 14 1d bd
       0.04396076 0.031870157 0.008195782 -0.03834949
000040 f3 62 c6 3d 06 54 cf ba 49 33 64 3c 31 33 0f 3d
       0.09686842 -0.0015817888 0.013928243 0.03496093
000050 a5 a8 6c bd 61 fb 01 3d 06 a8 4e bc 5d fe dd bc
       -0.05777802 0.031733874 -0.012613302 -0.027098829
000060 09 a3 0a bd fc 34 05 3b 54 53 8c bc da 03 20 3c
       -0.03384689 0.002032577 -0.017129578 0.009766543
000070 ad 9d 03 bd 16 7d 8c 3d 4b be 00 bd 63 42 6a 3d
       -0.032132793 0.06859796 -0.031431478 0.057192218
000080 22 94 8f 3d c6 d5 85 bd e8 9f 16 3d 68 fc 57 bc
       0.07010676 -0.06534915 0.036773592 -0.013182737
000090 14 61 22 bd 8c a3 58 3d 55 b9 49 bc 80 0f 91 3d
       -0.039643362 0.052890345 -0.012312253 0.070830345
0000a0 2e 33 fd 3c 03 d5 16 3d e0 78 de bc bf 36 7a 3c
       0.030908193 0.036824238 -0.027157247 0.015271842
0000b0 61 ee 2b bd 19 59 1b 3d 03 65 dd bc 4c 10 a9 bc
       -0.041975383 0.037926767 -0.027025705 -0.020637654
0000c0 f6 10 54 3d c6 a6 cd bb 99 56 b6 3c 57 88 04 bd
       0.051773988 -0.0062759845 0.02225809 -0.032356586
0000d0 c5 a7 b8 3c 29 30 96 bd 2a 5a 18 3c 10 00 e4 3c
       0.022540936 -0.073334046 0.009298841 0.027832061
0000e0 5c da cf 3c b1 af b7 bb 97 1c ac 3c b6 8e bc b9
       0.025372677 -0.005605661 0.021009726 -0.00035964482
0000f0 75 06 42 3c 39 28 6c 3d d2 a2 e3 3b 7d 57 04 3d
       0.01184236 0.057655547 0.0069469 0.032309998
000100 a2 cd 58 bc ac 9a 19 bd 03 38 1c bc c9 a2 15 bd
       -0.01323262 -0.037501022 -0.009534839 -0.036532197
000110 dd 07 fd bc 70 5f a8 bc e9 d7 cf bb 05 f2 08 3d
       -0.030887539 -0.02055332 -0.006342877 0.033433933
000120 9c 04 90 bc 1a 57 67 3d 72 55 e9 bc b3 d1 09 3d
       -0.017580323 0.05647955 -0.028483126 0.03364725
000130 2c 27 3a bd 00 3e b4 bc ff da 8d bc 7d dd 2a 3d
       -0.045447513 -0.02200222 -0.01731634 0.041715134
000140 2f 83 16 bd f9 ac 54 bd 13 6f 14 bb b0 8f cd 3c
       -0.0367462 -0.051922772 -0.0022649213 0.02509293
000150 56 61 ed 3b 80 a2 14 bc 6c 47 ab bd ac d4 a8 3c
       0.0072442694 -0.009071946 -0.08363232 0.020609222
000160 3a 1a c8 3a af da 6d 3c 83 7d 3f 3d 79 4d c5 bc
       0.0015266605 0.01451747 0.046750557 -0.024084793
000170 b6 ed 7b bc d1 2d 30 bd b4 8e d0 3c 80 8e 06 bb
       -0.015376499 -0.043012444 0.025458671 -0.0020531714
000180 7e bd 72 bd cf 3b bd 3b 0c ff d6 3c 0f 5d a7 3c
       -0.059262745 0.005774952 0.026244663 0.020430116
000190 05 4d 57 bc f3 1f c0 bc 59 37 63 bd 11 6a 2b bc
       -0.0131409215 -0.023452735 -0.055472706 -0.0104623
0001a0 f5 90 d1 bc ab e3 d0 3b 01 c8 51 bb b6 fc 4e 3d
       -0.025581816 0.0063747964 -0.003201008 0.050533973
0001b0 21 56 1a 3d 3f 71 05 bd 91 f1 bc 3a 89 7e bc bb
       0.037679795 -0.032578703 0.0014415254 -0.005752389
0001c0 81 9e e0 3c 76 41 1a 3d b4 6e ba 3d 75 71 de 3c
       0.02741933 0.037660085 0.09103146 0.02715371
0001d0 9b e3 97 39 47 c4 67 3b 60 5a 97 bc f4 9f 53 bb
       0.00028970544 0.0035364793 -0.018475711 -0.0032291384
0001e0 9c 0d 01 3d 69 05 db ba 78 0f 10 bd 6f 3f 88 3d
       0.03150712 -0.0016709986 -0.035171002 0.06652724
0001f0 59 a1 95 ba 89 53 c7 b9 91 78 09 3c e6 39 80 3d
       -0.0011415883 -0.00038018476 0.008390562 0.06261043
000200 1f d0 12 bd 3f 20 1a bd e9 19 ea 3c 65 a6 14 3c
       -0.03584301 -0.03762841 0.028576808 0.009072875
000210 ad 35 51 3b e7 a2 31 bd e0 fe 21 bc cf 7a 6c bd
       0.0031922862 -0.043368246 -0.009887427 -0.057734307
000220 4d a4 7e 3d 9f a0 39 bc 99 fd 0e 3d 15 2a 69 3b
       0.06216841 -0.011329799 0.03490982 0.0035578061
000230 b7 89 15 bd c8 52 01 3d 13 a4 14 3c 22 f2 0f bd
       -0.03650829 0.031573087 0.0090723215 -0.035143025
000240 46 54 39 3d 75 49 76 3c 46 ec 83 3c 4e 45 73 bd
       0.045246385 0.015032162 0.016103875 -0.059392266
000250 31 2f 9c bc c6 a4 54 bc 15 b0 7a bc fe f8 53 3d
       -0.019065471 -0.012978738 -0.01530077 0.05175113
000260 0f f2 72 bd 13 78 4f bd 37 c8 b2 3c e9 20 f1 bb
       -0.059312876 -0.05065162 0.021823986 -0.0073586595
000270 aa ed ad 3c c6 5a de bc 83 df a2 3c 9d 14 1a 3c
       0.021231491 -0.027142894 0.01988197 0.009404329
000280 b8 3e 1e 3d 61 98 71 3d 69 c9 09 3d 6a 4b ea 3a
       0.038634032 0.05898321 0.033639345 0.0017875258
000290 57 25 73 3b e3 7e 1c bd 8e d4 4b bd af ac b1 bc
       0.0037101114 -0.038206946 -0.049763255 -0.021688787
0002a0 c6 71 43 bc 38 57 33 3d 40 9f 37 bd 47 31 5c 3c
       -0.011928981 0.04378435 -0.044829607 0.013439483
0002b0 bf c0 c2 3c 6d 14 13 bc 72 b7 ee bc 99 6c 08 bd
       0.02377355 -0.008977038 -0.029140208 -0.03330669
0002c0 84 77 b2 bb 43 67 3d bd c2 0f 8c 3c b3 eb 60 3c
       -0.0054463763 -0.046241056 0.017097358 0.01372807
0002d0 ea 3d 28 bd 05 7e 22 bd 3f e5 e4 bc 97 89 17 ba
       -0.04107467 -0.039670963 -0.027941344 -0.00057806954
0002e0 f6 42 cb 3a 0d 04 b5 3d 70 69 d6 bc c2 91 00 bc
       0.0015507627 0.08838663 -0.026173323 -0.007847251
0002f0 08 70 00 bd 3b ee d5 bb 74 6c ad bc c8 e7 0d 3d
       -0.03135684 -0.0065286434 -0.021169879 0.034644872
000300 6e 5c 73 3d 56 3c 18 3d 55 26 00 bc d6 35 a1 ba
       0.05941432 0.037166916 -0.007821639 -0.001229937
000310 87 03 ba 3c c2 ed 0e 3d fe d3 4c ba f8 4b 18 bc
       0.02270676 0.034894712 -0.0007813572 -0.009295456
000320 26 44 42 bb e2 d5 41 3d 6c cf 09 3d 71 d2 bb 3c
       -0.002964267 0.047323115 0.03364508 0.022927495
000330 e6 8e 94 3c 72 0c 6e 3d 4c f8 ed 3c 2d 15 cb bb
       0.018134546 0.058117338 0.029049061 -0.0061975927
000340 cf 4c 3f bc a5 05 a1 3d de 67 17 3d cf 1e a6 3c
       -0.011676027 0.07862405 0.03696429 0.020278363
000350 af ef eb 3c 66 8c 2b bd f4 09 9c bc 3d cd 00 bd
       0.028800813 -0.04188194 -0.019047715 -0.03144573
000360 bb 07 0c bd 03 8d be bb 0d 30 c3 bc f8 88 e5 3b
       -0.03418706 -0.0058151498 -0.023826623 0.0070048533
000370 42 80 85 bc 20 fc 91 3d 0d 20 19 3d 61 59 26 3d
       -0.01629651 0.07128167 0.03738408 0.040612582
000380 45 32 4e bc 74 ad 78 3c ff ee 9d 3c 64 8a 14 bc
       -0.012585227 0.015178073 0.019279001 -0.009066198
000390 2d 40 ac 3c 19 ae b6 3b 47 c6 32 bd 5a 59 94 3b
       0.021026695 0.0055749533 -0.043646123 0.004527253
0003a0 ae 0f 8c bd e6 06 24 bd a4 f2 4e bd fe cc 14 3c
       -0.06838928 -0.04004564 -0.05052437 0.009082077
0003b0 f5 73 4a 3d d7 ff 3f 3c ae 3b de 3c bd 56 1a bd
       0.04942699 0.011718712 0.027128067 -0.037680376
0003c0 54 51 60 3d f7 28 85 3c 5f 25 e9 bc 23 18 88 bd
       0.05476506 0.016254885 -0.028460203 -0.06645229
0003d0 59 94 50 3c 1c 70 9b bc e7 06 bf 3c 7c 48 01 bc
       0.012730681 -0.018974356 0.023318721 -0.007890817
0003e0 47 6c 6e 3c 58 a4 a4 bc 82 6b 0f bd e3 7e 9e bc
       0.0145521825 -0.020097896 -0.035014637 -0.019347614
0003f0 15 28 56 3b ff 80 a8 bc 31 03 ec bc fe f9 15 bd
       0.00326777 -0.020569323 -0.028810116 -0.036615364

0.0.bias f4 [256]
000000 e6 fb e4 bc 30 36 4d 3b 01 17 22 bd 7a c5 9d bc
       -0.027952146 0.0031312816 -0.03957272 -0.019259203
000010 a1 ef b9 bb 9d 79 96 3a 06 43 9e bc 93 97 99 bb
       -0.005674318 0.0011480335 -0.019319069 -0.0046872585
000020 34 7d cd bc 61 47 d7 3c 46 f0 35 bc c7 35 33 bd
       -0.025084116 0.026279153 -0.011104649 -0.043752458
000030 e3 b4 5d 3c 17 15 99 bc ef b3 f4 3b 95 03 9f bd
       0.013531896 -0.018686814 0.007467739 -0.07764355
000040 64 7c 0f bd 80 3f 29 bd ee 3a b7 bc 6c 64 01 bc
       -0.035030738 -0.041320324 -0.022366967 -0.007897478
000050 43 88 76 3c 1e c7 c2 3c eb f8 f2 bc 9b 2d 3d 3b
       0.015047136 0.023776587 -0.029659709 0.0028866294
000060 34 ae 85 bc 2b 78 31 3c b5 36 9b bc e7 d4 92 3c
       -0.016318418 0.010831873 -0.018946985 0.017923785
000070 da d3 4a bc 1d ab b2 3c ff 97 1d 3c ac 59 37 bd
       -0.012379611 0.021810109 0.009618758 -0.044763252
000080 2c 4e 82 bc a7 28 18 bc e6 17 89 bc 67 9a 4d 3c
       -0.015906416 -0.009287036 -0.016735028 0.012549019
000090 52 c2 5c bc e2 5c 86 bc ec 00 cf 3c 20 dc 30 bd
       -0.013474064 -0.016401712 0.025268994 -0.043178678
0000a0 78 6a 67 bc b8 6c 2b bb eb c0 ab bb 74 c0 1c bd
       -0.014124505 -0.002615733 -0.0052415035 -0.038269475
0000b0 e6 42 f2 bc f9 26 2a bd 6e 2e b4 bb 9b f4 b3 3c
       -0.029572915 -0.041541073 -0.005498699 0.021967223
0000c0 cf 00 f8 bc 62 82 f0 3c 57 94 44 bc 2a 7c 16 3c
       -0.030273823 0.029359046 -0.011998258 0.009184876
0000d0 88 c7 1c bd 13 6a df ba 15 3e df bc 1b 75 11 bc
       -0.038276225 -0.0017045162 -0.027251283 -0.008878018
0000e0 b3 68 1a bd a2 57 a7 3c 9a 98 07 3c 38 4a 89 3c
       -0.037697505 0.020427529 0.008276129 0.016759023
0000f0 dc a0 0e bb 56 6a fe 3b e0 84 ac 3c 84 00 67 3c
       -0.002176336 0.007764141 0.021059453 0.014099244
000100 04 bf cc 3c 92 89 e3 3b 8e cd 01 3b 91 8a c5 3c
       0.024993427 0.00694389 0.0019806358 0.024113925
000110 63 7c ca bc ed fc 40 bd f3 16 ef bb c6 55 26 bd
       -0.024717515 -0.04711621 -0.007296437 -0.040609144
000120 0c b4 99 bc 91 4f c9 bc 0a 4a 02 bd 06 4e 52 bd
       -0.01876261 -0.024574073 -0.03180889 -0.05134394
000130 67 8a d6 bb 1b d0 95 3c 11 85 d7 bc f1 53 86 bc
       -0.0065472606 0.018287709 -0.026308568 -0.016397448
000140 78 d4 c8 3b 43 3a 0d 3c 96 88 c6 3c 10 20 98 ba
       0.006128844 0.008619848 0.024235051 -0.0011606235
000150 90 2e 94 3c 00 40 e6 3b 4c f3 35 bc 43 49 e3 3c
       0.018088609 0.0070266724 -0.01110537 0.027744895
000160 81 54 4a 3d 2d 5f 4d bc 1c d5 67 bc ad 2c 51 bc
       0.049396995 -0.012534899 -0.01414993 -0.012766999
000170 0f 53 94 3a 89 8e 71 3c b5 65 41 3c 5d 1f 1a bd
       0.0011316257 0.014743456 0.011804034 -0.037627567
000180 3e 71 d0 bc 89 b6 da 3c 40 63 d0 bc c0 3d bc bc
       -0.025444623 0.026698368 -0.025437951 -0.022978663
000190 f3 fc b6 39 29 48 ee 3b 57 59 3d 3c 37 df 1d bd
       0.00034902207 0.0072717858 0.011556945 -0.038542952
0001a0 e0 67 a1 3c 3b 4e 45 bd 77 7c 21 bd b0 bf 47 3b
       0.019702852 -0.04817031 -0.03942534 0.0030479245
0001b0 d1 a8 2c 3b 89 7e b9 3b 12 9b 17 bd b1 25 a8 3c
       0.002634574 0.005660836 -0.03701312 0.020525785
0001c0 c7 ba 22 bd 13 33 fb ba 83 69 01 bd 40 cb 4a bc
       -0.039728906 -0.0019165002 -0.031594764 -0.01237756
0001d0 88 10 2a bc ae fa c0 3c bb 72 38 bc 13 f6 6c 3b
       -0.010379918 0.023557033 -0.011257823 0.0036157414
0001e0 bc 28 22 bd cf 3e f8 bb 94 c1 74 bc cb cd 26 bd
       -0.03958963 -0.0075758467 -0.014938731 -0.040723603
0001f0 65 04 fb 3c d2 16 9c 3c bd 71 e5 bc b8 01 e5 bc
       0.030641744 0.01905385 -0.028008336 -0.027954921
000200 65 30 12 bc 52 d8 e6 bc 1c f3 b3 3c 66 d1 85 3b
       -0.008922671 -0.028179321 0.02196651 0.0040838
000210 9a c1 15 bd 81 75 34 3c 12 db 93 3b 9a c5 86 bc
       -0.036561586 0.011014343 0.004512199 -0.016451646
000220 b7 45 55 ba e1 c4 11 3c b1 27 9d bc b6 8c 1e bd
       -0.00081356935 0.008897037 -0.019183965 -0.03870841
000230 cb 7b b0 bc e9 7b 50 bc 09 d4 4a bd 2b 3c 30 bd
       -0.021543404 -0.012724855 -0.04951862 -0.04302613
000240 da ec de bc 0b be bb 3c 88 90 2a 3c 08 a6 4b 3c
       -0.027212549 0.022917768 0.0104104355 0.012429722
000250 90 60 d2 bc 6b 69 62 bc ed f2 a9 3b c1 3f e5 bc
       -0.02568081 -0.013819079 0.0051864297 -0.027984502
000260 1c 4d ef 3b 18 68 91 3c e4 3a 9a bc 7e b6 f9 bb
       0.0073028933 0.017749831 -0.01882691 -0.0076206317
000270 d9 d8 92 bc ac 40 e1 bc 8c 17 68 bc 75 38 e3 3c
       -0.017925667 -0.027496658 -0.01416577 0.027736882
000280 a7 7d dc 3c 99 a1 58 bc 9b f7 34 3c b3 aa de bc
       0.026915384 -0.013222122 0.011045362 -0.027181005
000290 50 4a b5 bc 3e 2b c5 3c 5f 15 de 3b e3 3b 15 bd
       -0.022130162 0.024068471 0.00677745 -0.036434066
0002a0 b7 48 45 bd 4a bc 21 bd af 2d 02 3c 24 d5 3e bd
       -0.04816505 -0.039486207 0.007945462 -0.046589985
0002b0 b4 8a a6 bc 51 50 35 3b 1c c8 d4 bb 92 01 10 3d
       -0.02032981 0.002766628 -0.0064935815 0.035157748
0002c0 96 73 a4 ba 6f e9 14 bd 53 da 86 bb b5 f9 bc bc
       -0.0012546654 -0.036355432 -0.0041153817 -0.023068288
0002d0 49 f7 01 bc f0 aa 04 3d 79 a9 61 3c a5 dc 35 bd
       -0.0079324925 0.03238958 0.013773316 -0.044399876
0002e0 a5 96 ea 3c cb 58 97 3c 01 96 b3 bb a3 9f 84 3c
       0.028636286 0.018474957 -0.0054805283 0.016189402
0002f0 04 40 46 3b a3 13 f4 bc fd 91 15 3c 3d d4 81 bb
       0.0030250559 -0.02979452 0.009129045 -0.0039620684
000300 9a 00 20 bc 64 af 7f bc 3d 81 b1 bb f5 6e 43 3a
       -0.009765768 -0.015605781 -0.0054170177 0.00074551936
000310 34 0c 85 ba ce c0 cb bc b2 e8 cc bb 1f 98 2a bc
       -0.0010150732 -0.02487221 -0.0062533254 -0.010412245
000320 eb 5d 98 3c d9 71 17 3d 2a 44 95 bc 21 ad 18 bc
       0.018599471 0.036973808 -0.01822098 -0.009318621
000330 1e e8 a8 3c b1 67 af 3c 3f a5 09 bd 28 1e c1 3c
       0.020618495 0.021411749 -0.033604857 0.02357395
000340 9d 36 50 bd a0 ef 6d 3c 92 44 36 bd eb 5f e3 3c
       -0.050833333 0.014522463 -0.044498987 0.027755698
000350 0e 37 50 bb 58 13 92 3c 28 ee fe bc e7 37 02 bd
       -0.0031771096 0.01783149 -0.031119421 -0.031791594
000360 53 b8 47 bc 16 f6 8d 3c f8 e7 94 bc 2c 04 5e 3c
       -0.012189942 0.017329257 -0.018177018 0.013550799
000370 84 01 08 3d bc b5 df bb ba 56 eb 3c e7 da 81 3b
       0.03320457 -0.0068270843 0.028727878 0.003962863
000380 98 ee 25 bc eb f6 5c 3c 78 41 22 bd 9d 09 75 3c
       -0.010127686 0.013486604 -0.039613217 0.014955905
000390 4e ed be 3c ed 65 8c 3c 00 2e eb 3c 65 01 47 3b
       0.023306515 0.017138446 0.028708458 0.0030365821
0003a0 ef 34 34 3c b3 ef e5 3c 20 52 b3 bc 85 5e e0 bc
       0.0109989485 0.028068399 -0.021889746 -0.02738882
0003b0 dd b0 85 3b f7 bd 65 3c ad 0f 91 3c 50 cf 19 bd
       0.0040799216 0.014022342 0.01770767 -0.037551224
0003c0 73 3b cb bc 10 22 50 bc 98 5a 01 3c 4c b4 c3 3c
       -0.024808621 -0.012703434 0.007895134 0.023889683
0003d0 39 a2 f5 bc c2 3a 05 bd 7b 7d 18 bd 2d 6d 0c bd
       -0.02998458 -0.03252674 -0.037229043 -0.034283806
0003e0 43 41 0e 3c 45 6b 1d 3c 2a 62 db 3b a0 c7 d9 3b
       0.008682552 0.009608095 0.0066950517 0.0066461116
0003f0 6d 74 ee 3c b1 93 98 bc 1f ff 84 3c 17 31 2b bd
       0.02910825 -0.018625112 0.016234932 -0.041794863

1.0.weight f4 [128, 256]
000000 91 4d 9b 3d cc 67 ec 3d 7d 0d 46 3d 6c 74 9d 3a
       0.07583154 0.11543235 0.048352707 0.0012012846
000010 e8 de 45 bd 8b 75 1e 3d 9f 1a 20 3d c7 2e 07 bc
       -0.048308283 0.038686316 0.039087888 -0.008250899
000020 17 40 c2 3c b7 c2 90 bd 5c 90 3e bd 98 ec 44 3d
       0.023712201 -0.07068389 -0.04652439 0.048077196
000030 6b d0 02 bd 56 28 26 3e 3d 39 a4 3c c5 55 f4 3d
       -0.031937044 0.16226324 0.020046825 0.11930422
000040 8d ec 8b bd 8f ae e7 bc fa 1e d3 3c dc f4 ad 3c
       -0.06832228 -0.028281478 0.025771607 0.021234922
000050 e4 6b 3e 3d 98 94 b8 3c b0 93 a5 3d 79 fc be 3d
       0.04648961 0.022531793 0.0808481 0.09325499
000060 88 7e 8f 3b bb c8 04 3d 34 8a dd 3d 78 d9 00 bd
       0.0043790974 0.032417994 0.10817376 -0.031457394
000070 9b 4a f7 3d f5 f2 a7 3d 6c a6 d0 3c ab ad 80 3d
       0.12074777 0.08200637 0.025469981 0.062831245
000080 eb 66 00 3e 75 67 3c 3d fd bb 10 3e 2e cf 60 3d
       0.1253926 0.0459971 0.14134212 0.054885082
000090 4b 56 4d 3a d8 f5 86 3d 03 82 a3 3d 20 64 44 3d
       0.0007832988 0.0658986 0.07983782 0.04794705
0000a0 b4 f6 41 3d ab 2b 49 3c e5 10 3b 3d 1a 90 d4 3d
       0.047354415 0.012278478 0.04567041 0.10379048
0000b0 f7 ef 86 3d 74 41 56 3d 51 cc 2a 3e 99 a9 58 3d
       0.065887384 0.052308515 0.16679503 0.052896116
0000c0 57 b4 40 3d 57 f7 91 3d 28 61 31 3d 4d 3b dc 3d
       0.047046985 0.071272545 0.043305546 0.10753498
0000d0 2d c9 e9 3d 1f 6a f1 3d 6f c6 cb 3c e9 c9 ec 3c
       0.11415324 0.11787819 0.024874894 0.028904872
0000e0 3f 52 ec 3c 5f da 97 3d d3 b6 12 3e 2e c0 98 3d
       0.028847812 0.07414698 0.14327554 0.0745853
0000f0 56 4a a2 3d 24 be 88 3d c5 ab bb 3d 0e 51 55 3d
       0.07924335 0.066768914 0.09163622 0.052079253
000100 c9 98 a8 3d 1b 2e 12 bd 8c 67 90 3d 09 3c d6 3d
       0.082322665 -0.0356885 0.07051 0.104606695
000110 79 33 3f 3d ee 9d cd 3d 2d 52 f4 3d b8 dc 25 3b
       0.046679948 0.10039888 0.11929736 0.002530856
000120 ee 32 64 3d 75 65 ca 3d de c9 ae 3d 44 d0 ad bc
       0.055712633 0.09882633 0.08534597 -0.021217473
000130 3a 9e 87 3d c4 8f 92 3d 3e fd 51 bb 0c 76 04 3e
       0.06621976 0.07156327 -0.0032041813 0.12935656
000140 fe 9a 64 bc e9 c3 61 3c df d5 f9 3d e9 15 87 3d
       -0.013952969 0.013779619 0.12198996 0.06595976
000150 47 e4 b6 3d 91 2d ff 3c 40 94 6a bd 2a 3e c5 3a
       0.08930259 0.031149657 -0.05727029 0.0015048434
000160 73 81 84 bd a1 4d e2 3d 9b a1 e3 3b 7a 32 09 3e
       -0.06470003 0.11049963 0.006946755 0.13398162
000170 7b b5 12 bc b2 c2 0d 3d c8 25 8a 3d 70 5a 0d 3e
       -0.008954401 0.034609504 0.067454875 0.1380403
000180 40 ef 88 3d 30 7c 0f 3e b1 0a b7 3d 89 d5 3c 3d
       0.06686258 0.14012218 0.08937586 0.04610208
000190 41 fb c4 3d 58 41 f1 3d a7 ae 29 3c 12 15 ce 3d
       0.096182354 0.117800415 0.010356582 0.100626126
0001a0 1f 83 85 bd 4d 96 0b 3d c5 9e 47 3d 79 3f 68 3d
       -0.0651915 0.034078885 0.0487354 0.056701157
0001b0 57 d1 6f 3d 67 2d be 3d 62 06 c4 3d 39 0e 5b 3d
       0.05854925 0.092860036 0.0957153 0.05348036
0001c0 56 f6 da 3d 3b 5d a0 3c ea e5 ad 3d 59 26 45 3c
       0.10691516 0.019575706 0.08491118 0.012033069
0001d0 5d 98 8d 3d 90 27 08 3d 43 3e 64 3c dd 31 ba bd
       0.069138266 0.033240855 0.01393086 -0.09091542
0001e0 5a 0d b4 3d f9 b1 f8 3b 40 95 a0 3c ec 63 d9 3d
       0.08791609 0.0075895754 0.019602418 0.10614762
0001f0 92 5f b3 3d 08 cb 4e 3c 0a 49 fe 3d 4e 4a 4d 3d
       0.08758463 0.012621649 0.12416275 0.05011969
000200 dc 72 c0 3d 21 1e dd bc 12 0e 29 3d 9b 8f 1a 3d
       0.09396908 -0.026991906 0.041273184 0.03773461
000210 7b 68 3a 3a 30 bc 5a 3d 5c 75 44 bd 84 72 04 3e
       0.0007110906 0.053402126 -0.047963485 0.12934309
000220 4f 9d d1 3c b6 c4 f3 3d 62 2d 3f bb 74 b3 c8 3c
       0.025587706 0.11902754 -0.0029171337 0.024499632
000230 f9 ca 2d 3d 2e 39 a4 3d d3 88 ca 3d c2 3e 76 3c
       0.042429898 0.08018719 0.098893784 0.015029611
000240 a4 27 11 3e e8 6d 0d 3d 1f 01 62 bc b9 46 0a 3e
       0.14175278 0.034528643 -0.013794213 0.13503541
000250 1f 9c 1a 3d f3 36 34 bd 18 62 3a 3d 35 20 93 3c
       0.037746545 -0.043997716 0.045503706 0.017959693
000260 45 ba fa 3c 38 2e 27 3d 3b d2 ce 3d 21 7a 00 3b
       0.030606398 0.040815562 0.10098692 0.0019604045
000270 8f fd 37 3d c7 cf 86 bb 61 25 99 bc db ad a5 3b
       0.044919547 -0.0041141245 -0.018694581 0.0050561256
000280 8e 77 26 3d 37 ba 2d 3d 7b 84 3f ba 01 9e c3 3d
       0.04064136 0.042413916 -0.0007305813 0.09551621
000290 9d ea 8d 3d 5b fa d2 3d 8b 73 5a 3d 9b 3e e7 3d
       0.069295146 0.10301658 0.053332847 0.11291238
0002a0 e7 62 eb 3c 4c 5a 18 bd 21 b1 e5 3d 4a 76 4f 3d
       0.028733684 -0.03719549 0.11215425 0.05064992
0002b0 ca bd 1d 3d 02 01 b0 3d 73 b1 66 3b 76 70 85 3c
       0.038511075 0.08593942 0.0035200983 0.016288977
0002c0 10 a5 67 3d 18 b6 67 3d ae b4 93 3c de d2 89 3d
       0.0565539 0.056570143 0.01803049 0.06729673
0002d0 83 a2 bf 3d f1 cb 49 3e 92 a5 95 3d 81 ae 27 3d
       0.093571685 0.19706704 0.07306971 0.040937904
0002e0 d9 c8 3e 3e f0 8b 81 bd 34 1a 88 3c bc fc ab bc
       0.18631305 -0.06325519 0.016614057 -0.020994537
0002f0 d3 39 4b 3d 21 4f 9a 3d cb 44 ac 3c 25 8e 66 bc
       0.049615692 0.07534624 0.021028897 -0.014071976
000300 3f f4 02 3d b7 5c 8d 3d 18 67 42 3d 65 28 a2 3d
       0.031971212 0.069024496 0.0474616 0.07917861
000310 c2 3d 12 3d 50 c2 5a 3d f4 9d ca 3c 66 ed 83 3d
       0.035703428 0.053407967 0.024733521 0.064417645
000320 41 fb 9e 3d 50 0b 55 3b 9a dc cd 3d 9c 95 11 3d
       0.07762767 0.0032507963 0.10051842 0.03554307
000330 4c fe c0 3d 92 63 54 3d b3 e9 20 3c da 23 33 3c
       0.09423503 0.05185277 0.009821343 0.010933841
000340 5f c1 1c 3e 81 2a 97 3d b9 b6 8f 3c 61 59 fe 3d
       0.1530814 0.07381154 0.017543184 0.124193914
000350 06 bd bb 3c 8c 57 e5 3b 4b 51 5e 3d 2b 6f fe 3d
       0.022917282 0.006998962 0.054276746 0.12423547
000360 e5 bf ba 3d 25 27 8b 3a 56 b9 fc 3d 52 db a0 3c
       0.09118632 0.0010616524 0.123400375 0.01963583
000370 8c a7 55 3c f6 56 a5 bb 73 97 a7 3c d4 7a 43 3d
       0.013040435 -0.005045767 0.020457959 0.04772456
000380 e8 8b 51 3d 1e 4e 11 3d 4e 6d 83 3d 3d 6d a1 3d
       0.051158816 0.03547489 0.064173326 0.07882164
000390 a8 5f b1 3d b3 79 b0 3d 7c b0 06 3e 2f 8b 93 3c
       0.08660823 0.08616962 0.13153261 0.018010704
0003a0 66 47 d5 3d 3d ce 8c 3d e0 96 39 3d 10 bb 84 3d
       0.10414009 0.06875274 0.0453099 0.06480992
0003b0 d7 d2 0b 3e a2 41 79 3d 13 8e 74 bc 81 85 ea 3c
       0.13654648 0.060853608 -0.014926451 0.028628113
0003c0 43 9e eb bc bc e8 b6 3c e9 4b 49 3c 48 18 d0 3d
       -0.028761989 0.022327773 0.012286165 0.10160881
0003d0 8e 4d 79 3d f3 f8 a3 3d 67 ce 05 bd 3a a2 98 3d
       0.060864978 0.08006468 -0.032667544 0.07452817
0003e0 f9 0a cf 3d 10 e6 0a 3e 24 b4 cf 3d 32 91 7b 3d
       0.10109515 0.13564324 0.10141781 0.061417766
0003f0 65 82 e6 3d 10 c6 c4 3d 03 b9 b2 3d c0 b7 87 3d
       0.112553395 0.0960809 0.087266944 0.066268444

1.0.bias f4 [128]
000000 f8 5e 7c bd 4e 02 59 bd bf 08 7f bd cc c9 75 3d
       -0.061614007 -0.052980714 -0.0622642 0.0600069
000010 ef 62 9f 3d 13 20 d4 bd fc 63 0b 3d 46 de a9 3c
       0.07782542 -0.1035768 0.0340309 0.020735871
000020 8b 3e 10 3d 81 26 68 3c 98 0b 2b 3d bf f9 e3 3a
       0.035215896 0.014169336 0.041759104 0.0017393156
000030 20 e2 ab 3d 3b 1a 5b bc d9 fb 95 bd 83 94 3c 3d
       0.08392739 -0.013372953 -0.07323427 0.04604007
000040 51 7f f4 bc b4 97 58 bd d6 3b b6 bd 28 c0 1f 3d
       -0.029845865 -0.05287905 -0.088981315 0.039001614
000050 62 ef 54 bd a1 35 95 3d 5a bc ad bb 2d 93 4d bd
       -0.051986106 0.072856195 -0.0053019943 -0.050189186
000060 be c3 af 3c fb 7e ca bb 22 d5 e2 3b 31 48 52 bd
       0.021455642 -0.006179688 0.00692238 -0.05133838
000070 71 5b 03 3e f8 6a 92 bd c1 ec ef 3c 83 60 1e bd
       0.12827851 -0.07149309 0.029287698 -0.03866626
000080 74 54 83 3d 39 bc 35 bc 98 e2 45 bc c2 18 40 3c
       0.064125925 -0.011092239 -0.01207795 0.011724653
000090 f9 5e 52 bd 4f 5a ab 3d d3 31 c7 bd fa 91 df bc
       -0.051360104 0.08366834 -0.097263 -0.027291287
0000a0 13 50 a8 3c c7 dc c6 bc 09 11 a3 bb 23 62 d0 3c
       0.020545995 -0.024275197 -0.004976396 0.02543742
0000b0 d7 e7 81 3d cd 2d 93 3d 00 84 29 bd 56 47 a3 3c
       0.06343048 0.0718647 -0.04138565 0.019931477
0000c0 9e ed ea 3c 8b a5 1a 3c 78 cd cd 3b 9d 27 bb bc
       0.028677758 0.009438883 0.0062805973 -0.022846038
0000d0 c7 16 cb 3c 6f f7 f4 3c c0 6b e4 3b ed ca 91 bd
       0.024791135 0.029903142 0.0069708526 -0.07118783
0000e0 df 4c e0 3c e4 b9 22 3d 1f 34 34 bd b7 0d 12 3d
       0.027380405 0.03972806 -0.04399502 0.03565761
0000f0 f1 9b 74 bc ac 88 da 3c 24 50 33 3d f3 06 10 3d
       -0.014929757 0.026676498 0.0437776 0.035162877
000100 f3 e6 95 3c 15 5c 10 3d 04 68 55 bd 8e 3c 44 bd
       0.018298602 0.035244066 -0.05210115 -0.047909312
000110 df 6f c5 3b 2e 0d 84 bb 66 be 59 3d 56 54 a9 bd
       0.006025299 -0.0040298915 0.053160094 -0.08268039
000120 2b 08 33 bc 30 89 74 bb 02 f2 d5 3d 3e 80 1f 3d
       -0.01092724 -0.0037313215 0.1044655 0.03894066
000130 3a a4 c8 3c 59 77 01 3c 12 4a 35 3d 2e 08 ba 3c
       0.024492372 0.00790199 0.044260092 0.022708979
000140 80 6b 62 bc f8 12 dd 3c 78 8a 06 bc c0 25 f4 3d
       -0.013819575 0.026986584 -0.008211724 0.11921263
000150 9c 69 a1 3b 81 64 23 3d 5d 5a e4 3c eb 56 32 3d
       0.0049259197 0.03989077 0.02787512 0.043539923
000160 83 47 73 bd 2e 25 84 3c 96 dc 0e bd 48 0a 7d 3d
       -0.05939437 0.01613101 -0.034878336 0.061777383
000170 c6 60 a6 3c 05 6e ac bd 8a 4e 44 bd 39 02 68 bd
       0.020309817 -0.08419422 -0.047926463 -0.056642745
000180 5c d2 fa 3c 66 27 c3 3d f6 7f b8 bb 9a a4 11 bd
       0.030617885 0.09528999 -0.0056304885 -0.035557367
000190 07 07 8d bd 1a 08 8f 3c 9f 22 b4 bc 4b 92 14 3d
       -0.06886106 0.017459918 -0.021989165 0.03627233
0001a0 5a e3 75 bc 59 38 9b 3c 2c f2 bf 3d ee be 7c bd
       -0.015007818 0.018947767 0.093723625 -0.061705522
0001b0 ff 3e 25 bd c3 4d 04 3d bf 9c d1 3c ee 79 09 bd
       -0.04034328 0.03230072 0.025587438 -0.033563547
0001c0 a8 0e dc 3d c3 ab d1 bd 3d c4 1d bc f4 f3 e3 bc
       0.10744983 -0.10237839 -0.009629306 -0.027826287
0001d0 a6 6f ea bb 91 d9 08 3c b8 14 29 bc 32 3b 45 bd
       -0.007154423 0.008352653 -0.010319881 -0.048152156
0001e0 bb 45 84 bb c9 71 a2 bc c0 86 05 bd 8a bc c4 bc
       -0.004036633 -0.019829648 -0.03259921 -0.024015684
0001f0 77 e4 4d bd ff 3b 05 3d 1c 34 14 3c e6 2d 0d bd
       -0.05026671 0.03252792 0.009045627 -0.0344676

2.0.weight f4 [64, 128]
000000 84 09 67 3e a1 4d eb 3e 43 fd 20 bd 92 f7 8a bd
       0.22562224 0.45957664 -0.03930403 -0.067855015
000010 22 60 13 be 17 5c 8a 3e 48 da 81 bd 10 dc 9a bd
       -0.1439214 0.27023384 -0.06340462 -0.07561505
000020 77 c1 d0 bd 8e c7 03 3c fc f9 a3 bd 52 89 57 3d
       -0.101931505 0.008043183 -0.08006665 0.052621193
000030 57 84 3b 3d ab 7e d7 3e d5 21 88 3b d7 c4 b4 bc
       0.045780506 0.42088827 0.0041544237 -0.022066517
000040 e4 d1 86 3e 24 f8 c8 3e ff 2b e2 3e 24 bc 74 be
       0.2633201 0.39251816 0.4417419 -0.23899895
000050 f1 65 76 3e b7 c9 f3 bd 02 69 8c 3e 45 b6 9e 3e
       0.24062325 -0.119037084 0.27423865 0.30998436
000060 fd 95 57 bd ab 79 4d 3e 17 70 2a bd 68 61 dc 3d
       -0.052633274 0.20065944 -0.041610803 0.10760766
000070 80 29 b7 bd 5f 03 ab 3e a9 59 98 3e db 88 57 3e
       -0.08943462 0.3340101 0.29755905 0.210483
000080 54 1e 1d be b9 74 56 3e 74 8f 01 be 4c cf 55 3d
       -0.153436 0.20942964 -0.1265238 0.052199647
000090 ce 4a 66 3e 3f cb 25 be e5 3d 7e 3e 56 26 be 3b
       0.22489473 -0.16190813 0.24828298 0.00580291
0000a0 75 55 53 3e 65 04 67 3e 57 40 2b be b1 a2 bb 3e
       0.20638068 0.2256027 -0.16723762 0.3664756
0000b0 c3 7c a9 bc 9e 19 45 bd 36 b9 99 3e d4 31 c3 3e
       -0.020689374 -0.048120134 0.30024117 0.38123953
0000c0 77 ca 0a bb 46 28 5c 3c 07 84 0c 3e c9 59 74 3e
       -0.0021177807 0.013437336 0.1372224 0.23862375
0000d0 aa 06 b1 3e 2e 83 96 bd 09 13 4f 3d ca 48 4c 3e
       0.34575397 -0.07349239 0.050555263 0.19949642
0000e0 43 c2 3d 3e c5 97 87 bd 54 57 a7 3e 51 47 ad bd
       0.18531136 -0.066207446 0.32683814 -0.08460868
0000f0 2f 40 12 3e ce dc 85 3e 8a 7f 5e bd 73 a2 30 bd
       0.14282297 0.26145023 -0.05432085 -0.043123674
000100 d2 68 fc bd 1a 8f 8b bc 20 96 42 3e a7 f3 67 3d
       -0.123246804 -0.01703601 0.1900258 0.05662885
000110 8d 50 26 bd 73 e7 36 3e 32 b6 db bd e6 c3 80 3d
       -0.040604163 0.17861728 -0.107281104 0.06287365
000120 54 2d ce 3e f5 ec 8c 3e c4 d3 11 bd f7 69 9e bd
       0.40268958 0.27524534 -0.035602346 -0.07735055
000130 7c be af 3e 2f 4d 3f 3e e5 64 b6 bd a3 2b b3 bc
       0.34325016 0.18681787 -0.08905963 -0.021871394
000140 3e 9e c0 3e 2a b9 dd bd 70 fc 85 3e 0e 46 e3 bd
       0.3762073 -0.10826333 0.26169157 -0.11097346
000150 28 28 b9 3e 26 25 2b be 74 c8 8c 3c fa 20 b7 3e
       0.3616345 -0.1671339 0.017185427 0.35767347
000160 f3 f7 ab 3e 34 6f 46 3c 32 f6 90 3e 11 54 6e bc
       0.33587608 0.012111474 0.28312832 -0.01454641
000170 3c 38 ea 3b 4a cf 91 3e b1 d0 9e 3e 39 46 80 3e
       0.007147817 0.28478462 0.31018594 0.25053576
000180 c8 5d 1a 3c 60 a2 0a be c9 2c 3a 3e 6e e0 c3 3e
       0.009421773 -0.13538504 0.18181147 0.38257164
000190 53 84 c2 3e 21 f8 bc bc 97 ef 83 3e 37 8a 7c bd
       0.3799158 -0.023067536 0.2576873 -0.06165525
0001a0 6e 80 e5 3e b4 81 b4 3e 0a 13 7a bd e5 b4 28 3e
       0.44824547 0.35255206 -0.061053313 0.16475256
0001b0 9d ab 73 3e 80 86 5d bd 69 9d 46 3b d6 79 a4 3e
       0.23795934 -0.054083347 0.0030306226 0.32124203
0001c0 7f 1d ee bd bf d4 a3 3e 56 30 8a bd da d4 86 3e
       -0.1162672 0.3199825 -0.067475006 0.26334268
0001d0 87 60 c7 bc fa 70 b5 3e 24 86 72 bd 20 eb bd 3e
       -0.02433802 0.35437757 -0.059209958 0.3709345
0001e0 79 79 8f 3e 64 1a a8 3e f6 8b 26 3d 65 30 d8 bb
       0.28022364 0.32832634 0.04066082 -0.006597566
0001f0 51 e8 77 bc 3c ca db 3e 96 c4 43 3e c1 5b 53 3e
       -0.015131072 0.4292773 0.1911796 0.2064047
000200 7c cd 3f bc 36 f5 73 bd 2c 34 3c 3d 0a 61 65 bd
       -0.011706706 -0.059560023 0.045948192 -0.056000747
000210 7b 66 8d 3c dd 98 a5 bd 54 78 fb 3b a4 8c 9d bd
       0.01726078 -0.08085797 0.0076742563 -0.07692841
000220 5f 60 7f bb c8 30 80 3d 13 12 c1 3c 07 45 15 bb
       -0.0038967354 0.06259304 0.023568189 -0.002277674
000230 34 48 0b bc 15 ac 0f 3c 11 8a 90 bd 65 bb d0 bd
       -0.008501101 0.008769055 -0.07057584 -0.10191993
000240 68 a2 4a bd bb 71 b1 3c 5a 2b 1f bd ac 8a c9 bc
       -0.04947129 0.021660676 -0.038859703 -0.024602257
000250 d9 19 a1 bc 9a 40 0b bc 05 0d 1f 3d d5 83 bb bd
       -0.019665645 -0.008499289 0.038830776 -0.09156004
000260 d3 72 a1 3d d9 7a 89 bc 3d f0 29 3c 36 ba 82 3d
       0.07883229 -0.016782211 0.010372219 0.06383173
000270 4d 12 cb 3c 92 b8 62 bd 52 e4 ba bc 9c 77 8e bd
       0.024789 -0.0553518 -0.02281395 -0.069564074
000280 6f 69 27 3c 7a 5b 2e 3d dd 38 25 bd 0f 4b a5 bd
       0.010218008 0.042567708 -0.040337432 -0.08070957
000290 9e 2b d5 bd f3 bd 7f bd e5 fb dc bb db 2d 4c bd
       -0.1040871 -0.06243701 -0.0067438954 -0.04984842
0002a0 c6 62 9d 3d 4b ed 84 bc e3 e0 a8 3b a6 3c 41 bd
       0.07684855 -0.016226431 0.0051537617 -0.04717698
0002b0 9d 75 5b 3c 02 5f 3e 3d 1f dc 49 bc f9 bb a6 bc
       0.01339474 0.046477325 -0.012320547 -0.020353304
0002c0 9d 86 5a bd b1 0b 47 3d 6c f7 a5 bd e0 55 31 3d
       -0.053351033 0.048595134 -0.081038326 0.043294787
0002d0 32 f5 ba bd 18 10 bf bd 82 79 b2 3c 9c 68 75 3d
       -0.091287985 -0.093292415 0.021786455 0.059914216
0002e0 b6 ac 89 bd 86 82 b0 3c fb 5a 00 bd ab 1e 6a bd
       -0.06722395 0.021546613 -0.031336766 -0.057158154
0002f0 d4 f3 da 3c 92 0b ea 3b 1e 9c 27 bd f8 9a b9 bd
       0.026727594 0.0071424926 -0.04092037 -0.09062761
000300 18 1c 4f 3d 71 86 d9 bd f3 f5 89 3d 91 46 18 bd
       0.0505639 -0.10621346 0.06736364 -0.037176672
000310 6a 14 22 3d 56 9f 0d bd 39 d9 0b bc 9c 65 ff 3c
       0.03957025 -0.034575783 -0.008535677 0.03117638
000320 60 50 7f 3c 43 d4 e0 3c b8 c4 ec 3c 23 2a ca bd
       0.015583128 0.027444964 0.028902397 -0.09871318
000330 8f 05 4b bd 27 6b bb bd e5 6a 31 3d ef 0f 22 bd
       -0.049565848 -0.09151297 0.043314833 -0.039565977
000340 8c 55 6f 3d f1 48 96 3b ac c2 f7 bc 09 88 88 bc
       0.058431193 0.004586332 -0.030244194 -0.01666643
000350 d9 9c 60 3c 51 0b 47 3c e8 a6 e2 3c 36 f0 98 bc
       0.01370927 0.012148694 0.027667478 -0.018669229
000360 a8 84 44 bd 79 cb 92 bd f1 b9 f3 bc 27 55 db bd
       -0.047978073 -0.071677156 -0.02975175 -0.10709601
000370 bf 1c bf bb 97 53 81 3c 5a 17 28 3d 6d f0 ff 3c
       -0.005832284 0.015786929 0.041037895 0.031242574
000380 d1 65 52 bd 71 0e 7b 3d 57 a2 07 3c de ea 4e 3d
       -0.05136663 0.06129307 0.008278451 0.050516956
000390 71 ae b9 bd 1e 0d 3d bd e7 e9 56 bd 57 dd 66 bd
       -0.09066475 -0.046155088 -0.05246916 -0.05636343
0003a0 09 27 59 3d 13 0c 5a bc 8b df 01 bd 80 bb 8b 3d
       0.053015742 -0.013308543 -0.031707328 0.06822872
0003b0 38 ac b1 3c fe 25 a2 bd 67 49 17 3d f8 d3 a0 bd
       0.021688566 -0.07917403 0.036935236 -0.0785293
0003c0 de 95 9d bd 62 d5 d9 bc 0e 3d 85 bd 28 ab 28 3d
       -0.076946005 -0.026591007 -0.06505786 0.041178852
0003d0 64 39 b0 3b 61 47 5b 3d a0 be 29 3d 95 b4 d1 3c
       0.0053779352 0.05353487 0.04144156 0.025598804
0003e0 65 d1 6d 3a d5 ac c0 3b 83 d7 3e 3c bd c6 07 3d
       0.0009072035 0.005879978 0.011648062 0.033148516
0003f0 14 77 65 bd 33 b4 aa bc e7 37 84 bc 32 07 1a 3a
       -0.056021765 -0.020837879 -0.016139938 0.0005875706

2.0.bias f4 [64]
000000 f8 9e 83 bd f7 1d 8e bd 43 4c e0 3c 1e 48 6f 3d
       -0.06426805 -0.06939309 0.027380114 0.058418386
000010 de 6c 46 bd b1 a2 70 bd b1 52 a1 3d 40 53 1a bd
       -0.048443668 -0.058748905 0.078771 -0.03767705
000020 ee d3 65 3c d4 fd 80 bd ff 5a 29 bc eb 44 05 bd
       0.014027579 -0.06298414 -0.010336637 -0.03253643
000030 6d b5 ea 3d e9 eb 50 bd df 56 41 bd 88 87 70 3d
       0.114603855 -0.05100623 -0.047201987 0.058723003
000040 2d 19 03 be 4c f2 0d 3d b6 ba f0 bc 77 8b c9 3b
       -0.12802573 0.0346549 -0.029385906 0.0061506587
000050 3b e3 0c 3c dd 7d 73 3d aa a0 c5 bc b7 32 bc bd
       0.008599098 0.059446204 -0.024124462 -0.091893606
000060 12 f7 97 bd 2c d4 b6 3d c8 7b e5 3d 1a 5d f0 3c
       -0.07420172 0.08927187 0.1120525 0.02934127
000070 72 5e 7d 3d ff a3 3f bd 4e 90 4d 3c d0 28 6e bd
       0.06185765 -0.04678726 0.012546612 -0.05814439
000080 c1 af 3a 3d d3 0a f1 3d b6 ce 80 3d e8 7c 8e 3d
       0.04557777 0.11769643 0.06289427 0.06957418
000090 01 eb 02 3d fe ed 9b 3d e5 83 06 3b f0 c4 ff bc
       0.0319624 0.07613753 0.0020525393 -0.031221837
0000a0 83 70 85 3c 2d c1 00 3d ae f7 8d bd 57 af 6a bd
       0.016289001 0.031434227 -0.06932007 -0.057296123
0000b0 12 33 9f 3d ba 5e 83 3d 5b dd c8 bd 2d 7a ab 3c
       0.07773413 0.06414552 -0.09807845 0.020932281
0000c0 73 82 30 bc cf 63 5f bd 5e 96 00 3e a8 90 f1 3c
       -0.010773289 -0.054538544 0.1255736 0.029487923
0000d0 bb 51 44 bc e7 08 7f 3d 54 29 87 3d 4e f3 6c 3d
       -0.011982377 0.06226435 0.065996796 0.05784922
0000e0 93 f1 74 3d 81 71 8f bc a0 9c eb 3c a0 7c c6 3c
       0.059800696 -0.017510178 0.028761208 0.024229348
0000f0 f1 7e da 3d c2 d8 55 bc 50 ef ca 3c 48 80 b9 bd
       0.106687434 -0.013052167 0.024772316 -0.09057671

3.0.weight f4 [2, 64]
000000 0e 75 06 bc 1c bc cd bd 50 e2 e9 bd 92 2f 51 bd
       -0.008206619 -0.10045645 -0.11420119 -0.051070757
000010 27 48 82 bd 30 21 39 3b 67 42 65 3d b1 6f 4d bc
       -0.06361418 0.002824854 0.05597153 -0.012538836
000020 31 5d 15 bd e1 39 85 3c b8 b4 09 3d 2c 80 1d 3e
       -0.036465827 0.01626295 0.033619612 0.15380925
000030 ae f7 e8 bd 4c 65 c9 bd 8a bd 46 be 3a a8 ba bd
       -0.11375366 -0.09833774 -0.19408241 -0.09114118
000040 bc e3 5a bc cb a1 e6 3d 26 0b 25 3e fc a2 4e be
       -0.01335996 0.11261328 0.16117534 -0.20179361
000050 35 6b 02 be 01 47 b2 3d ca 4e 69 3d c0 ee 4a 3d
       -0.12736209 0.08704949 0.056959905 0.049544096
000060 37 e8 86 bc cc 0e 8a bd f7 9d 23 be b6 93 0d be
       -0.01646815 -0.067411035 -0.15978228 -0.13825879
000070 88 80 66 be e6 c6 09 3e 5f bc d7 3d f2 7c 4a bd
       -0.22509968 0.1345478 0.10533976 -0.049435563
000080 42 45 92 3d 61 62 0e bc df 32 bb bc 99 a8 cd 3d
       0.07142116 -0.008690448 -0.022851406 0.10041923
000090 b9 52 d5 bd dc bc ae 3d a8 4d 40 be 0c f8 b5 3d
       -0.10416169 0.08532116 -0.18779624 0.08885202
0000a0 32 16 d4 bc d6 9e c8 bd 59 2b 6c bd ce 76 93 bd
       -0.02588949 -0.097959206 -0.057658527 -0.072003946
0000b0 bb 4b d5 bd 20 98 8f bd a0 3e 72 3d 09 8d 14 3d
       -0.10414835 -0.070114374 0.059141755 0.036267314
0000c0 5d 74 9a bd 9b 28 8f 3d f2 d5 d1 bd 1a e6 f6 bc
       -0.07541726 0.06990167 -0.10245885 -0.030139018
0000d0 30 ba eb 3c 6a eb 47 3d 5a 6a 7b be f2 2c d0 bd
       0.028775305 0.048808493 -0.24552289 -0.10164823
0000e0 3e 85 10 bd 90 af d4 3d a4 a8 88 bd f4 fe 70 3d
       -0.03528332 0.103850484 -0.06672791 0.058836892
0000f0 3e 18 19 be 64 78 9e bc 29 19 d5 bd 39 76 94 3d
       -0.14950654 -0.019344516 -0.104051895 0.07249112
000100 7d 2c 08 bf e7 a0 8c bd 76 39 17 bd d0 d3 7f 3d
       -0.53192884 -0.06866627 -0.036920033 0.06245786
000110 f6 75 1d 3d b9 a8 01 bf 78 a1 57 be 8a 87 12 bf
       0.038442574 -0.50648075 -0.21057689 -0.57238066
000120 81 6f f4 bc 5d f0 26 bf c3 f1 f3 3d c1 cc 0d 3c
       -0.029838325 -0.65210515 0.11911347 0.008654774
000130 8d 59 dc 3d 28 f8 65 bd 9e 02 cd 3d 46 d8 37 bd
       0.10759268 -0.056144863 0.10010265 -0.04488399
000140 39 b1 13 bf 6c 6e 0b be 99 d4 84 3d c3 9b 99 3d
       -0.57692295 -0.13616341 0.06485862 0.07500412
000150 b6 df c3 3d 8e eb dd be a2 99 a9 be ba 58 dc be
       0.09564154 -0.43343776 -0.33125025 -0.43036443
000160 7f a1 c4 bd a4 8f 08 3e e6 eb c1 3d 2c a0 e2 3d
       -0.096011154 0.13336045 0.09468822 0.110657066
000170 f0 89 e2 3d fd a9 c1 3d 23 f4 92 bd 3d de dc be
       0.11061466 0.09456251 -0.07175472 -0.43138304
000180 41 af 18 3e 1c 25 e9 3d fe 60 07 3e 51 3b 60 bd
       0.14910604 0.11384031 0.13220593 -0.05474407
000190 a6 05 d8 bd 41 6f 9a bd ef ee ce 3d 45 f6 7e be
       -0.10547952 -0.07540751 0.10104167 -0.24898632
0001a0 af 9b ce bc fc ad 56 3c ab 38 16 bd a8 c3 c1 bd
       -0.02522072 0.013103005 -0.036675137 -0.094611466
0001b0 93 08 1c 3e 27 7e cc 3d 81 00 02 bf b8 75 ce be
       0.15237646 0.09984999 -0.5078202 -0.40324187
0001c0 a4 c4 1d 3e fa 79 f6 bd fb 8c fa 3d 3a 9f 33 be
       0.15407044 -0.12034984 0.12233921 -0.17541209
0001d0 fb 77 aa be 7e 67 0a 3d 4f 9a c7 3d 96 14 d1 3d
       -0.33294663 0.033790104 0.09746229 0.102090046
0001e0 a7 a6 e7 bd 80 7c 2a be 36 20 8b bd 1f 73 db be
       -0.11311083 -0.16649055 -0.06793253 -0.42861268
0001f0 60 8a 06 3e 28 e5 b7 be 31 6c 4e bd 27 8b d4 be
       0.13138723 -0.3591702 -0.050396148 -0.41512415

3.0.bias f4 [2]
000000 bd 44 5b 3d 83 5b 0d 3e
       0.05353235 0.1380444
